src/kiki_5.pth (torch, 588714 bytes, 10 tensors)

weight f4 [32, 3, 5, 5]
0	0xbd33d1d4	-0.04390128
1	0x3b95e991	0.0045749624
2	0xbdc59b0d	-0.09648714
3	0xbdb2b303	-0.0872555
4	0x3cc782ac	0.024354301
5	0x3d02cc8f	0.031933364
6	0x3d62a748	0.055335313
7	0xbdad8261	-0.084721334
8	0x3de6486f	0.11244284
9	0xbd29cc6e	-0.041454725
10	0x3d31a93b	0.04337428
11	0xbdde6a6c	-0.10860142
12	0x3d37a3b5	0.044833858
13	0x3da32e07	0.079677634
14	0xbc8c93dd	-0.01716035
15	0xbcdbdd08	-0.026838794
16	0x3d7d2eda	0.06181226
17	0xbdbafb44	-0.09129956
18	0x3c9eb79e	0.019374665
19	0x3c0ad7b2	0.008474277
20	0x3cb4ca64	0.022069164
21	0xbe069c29	-0.13145508
22	0xbdb1e70d	-0.086866476
23	0xbc956760	-0.01823777
24	0xbdeebbe9	-0.11656935
25	0x3da5577d	0.08073328
26	0x3de1d9a8	0.11027843
27	0xbca68c17	-0.020330472
28	0x3d5e3d63	0.05425776
29	0xbd8f1c34	-0.06987801
30	0x3d65e012	0.056121893
31	0x3dc92181	0.098208435
32	0xbcb1aef7	-0.021689875
33	0x3dcd0cd9	0.10012216
34	0xbbefb430	-0.007315181
35	0xbdcbb821	-0.09947229
36	0x3ca61bd1	0.020276936
37	0x3d36a1b0	0.04458779
38	0xbda1cbf5	-0.0790023
39	0xbd708f28	-0.058730274
40	0x3dbaf671	0.09129036
41	0xbe0103dc	-0.12599128
42	0xbb251a92	-0.002519284
43	0xbdfe2c9f	-0.124108545
44	0x3caa73dc	0.0208072
45	0xbd657ca2	-0.056027062
46	0xbe254213	-0.16138487
47	0xbd84f696	-0.06492345
48	0xbd9c566e	-0.07633673
49	0xbd7a514a	-0.06111268
50	0x3e164c29	0.1467749
51	0x3d63b7df	0.055595275
52	0x3e1ee955	0.15518697
53	0x3ccc899b	0.02496796
54	0x3ddb052c	0.10694346
55	0xbd9eb496	-0.07749288
56	0x3da4a65a	0.080395415
57	0x3d1fad1f	0.03898346
58	0x3dde7f26	0.108640954
59	0xbda1a5b0	-0.078929305
60	0xbd5376c6	-0.051626943
61	0x3d942277	0.07233136
62	0x3e01c6a5	0.12673433
63	0xbcefa9a6	-0.0292557
64	0xbd140426	-0.03613677
65	0x3dbb132a	0.09134515
66	0x3d6be8f5	0.057595212
67	0x3d77fed8	0.060545772
68	0xbad26e8d	-0.0016054675
69	0x3c930ec4	0.017951377
70	0x3db16c01	0.08663178
71	0xbd86a761	-0.06574894
72	0x3c930f38	0.017951593
73	0x3d12fa95	0.035883505
74	0xbde664fa	-0.112497285
75	0x3d907ba5	0.07054833
76	0x3dcec7c7	0.10096698
77	0x3cb44226	0.022004198
78	0x3cc71f3e	0.02430689
79	0x3ce72f4f	0.0282208
80	0x3def7065	0.116913594
81	0x3e2734cb	0.16328733
82	0x3dd55ac5	0.104177035
83	0xbe141ff2	-0.14465311
84	0xbe0c2b99	-0.13688506
85	0x3de6060b	0.11231621
86	0x3d11d308	0.035601646
87	0xbe1d354b	-0.15352361
88	0xbdaf44b5	-0.08558027
89	0xbe12c976	-0.14334664
90	0x3d5880b1	0.052857105
91	0xbd094095	-0.033508856
92	0xbdb34d05	-0.08754925
93	0x3da890f0	0.0823077
94	0x3e11812f	0.14209436
95	0x3e3916fc	0.18075174
96	0x3df72bcd	0.12068901
97	0xbc4cdda6	-0.012504017
98	0x3d2f8db3	0.042859744
99	0x3d438210	0.04773146
100	0xbcd6571c	-0.026164584
101	0xbd8a8a90	-0.0676471
102	0x3cac1f52	0.021011028
103	0xbe0c8e72	-0.13726214
104	0xbd7d3011	-0.061813418
105	0xbd3cb4b8	-0.046070784
106	0xbd97c81b	-0.07411214
107	0xbc5a1b39	-0.013312154
108	0xbe2abc4c	-0.16673392
109	0xbe45b8b8	-0.19308746
110	0x3e0705bd	0.13185783
111	0xbdab8103	-0.083742164
112	0xbe2f5b8c	-0.17124766
113	0xbddd1ecf	-0.10796892
114	0xbe3868e5	-0.18008764
115	0xbbb5830c	-0.0055393036
116	0xbc29f429	-0.010373154
117	0xbe05e851	-0.13076903
118	0x3ca2c86f	0.019870965
119	0x3c98684f	0.018604426
120	0x3b46871c	0.0030292934
121	0x3d425aa1	0.04744971
122	0x3de48f7b	0.11160179
123	0xbdc9d7ba	-0.098556
124	0x3b4d54a0	0.0031330958
125	0xbd56b526	-0.05241885
126	0x3d2fa84c	0.04288511
127	0x3dae6ef7	0.085172586
128	0xbe17506e	-0.14776775
129	0xbe290135	-0.16504367
130	0x3dcc8f4d	0.0998827
131	0xbd8b0598	-0.06788176
132	0xbb23638f	-0.0024931168
133	0xbc8e9f61	-0.017409982
134	0x3c8caa6c	0.017171107
135	0xbc2b39de	-0.010450808
136	0xbc6eb8db	-0.01457044
137	0xbd694300	-0.05694866
138	0xbde8d4cd	-0.113687135
139	0xbe41657d	-0.18886371
140	0x3dc276c1	0.09495307
141	0xbddb347b	-0.10703369
142	0xbe01a944	-0.12662226
143	0x3c6a8a18	0.014315151
144	0xbbee7054	-0.007276574
145	0x3d2174f5	0.03941818
146	0xbc545728	-0.012960233
147	0xbd31184d	-0.043236066
148	0x3b3730cb	0.0027952667
149	0x3dcef073	0.10104456
150	0x3d939d05	0.072076835
151	0x3d3d059e	0.046147935
152	0xbd8f5e86	-0.07000451
153	0x3de52d78	0.11190313
154	0x3e0e1669	0.13875736
155	0xbd803349	-0.06259782
156	0x3dd314df	0.10306715
157	0x3d8fb4f7	0.07016938
158	0xbdbb96d0	-0.091596246
159	0xbdd75e69	-0.10516054
160	0xbd3ac6ae	-0.045599632
161	0x3d3ead0a	0.04655174
162	0xbd9ca1c4	-0.07648042
163	0xbe0560b7	-0.13025175
164	0xbd3907a1	-0.04517329
165	0xbd8431a8	-0.06454784
166	0xbd372a77	-0.044718232
167	0xbe0dbbc3	-0.13841157
168	0x3d89b957	0.06724804
169	0x3cafafda	0.021446157
170	0xbd89db3f	-0.06731271
171	0xbda1e8df	-0.07905745
172	0x3d941ebb	0.07232424
173	0x3e0e64e5	0.13905676
174	0x3d592c35	0.053020675
175	0x3da2696b	0.07930263
176	0xbd80ba5e	-0.06285547
177	0x3d15ede3	0.03660382
178	0x3af02390	0.0018321145
179	0xbdd9fc2e	-0.106438026
180	0xbde0f50f	-0.10984241
181	0x3db9513a	0.09048696
182	0xbd93483e	-0.071915135
183	0x3da017bd	0.07817028
184	0xbddd2b93	-0.10799327
185	0x3c963b98	0.018338963
186	0xbd53894b	-0.051644605
187	0xbdd4f98e	-0.10399161
188	0x3d4280e4	0.0474862
189	0xbd8a023c	-0.067387074
190	0x3bba2bbf	0.0056814845
191	0xbdb3a33c	-0.08771369
192	0xbe024d13	-0.12724714
193	0xbdd8c765	-0.105849065
194	0xbd96c2f8	-0.07361406
195	0xbdea57e9	-0.11442549
196	0x3d8a8716	0.06764047
197	0x3e003260	0.12519217
198	0x3d80cfb9	0.0628962
199	0x3dbb78cc	0.091538996
200	0xbd9cef11	-0.07662786
201	0xbd12edfe	-0.0358715
202	0x3dc640c2	0.0968032
203	0xbd5394c2	-0.05165554
204	0x3dd0eabd	0.10201023
205	0xbbd5e64e	-0.0065276986
206	0x3d3ce732	0.046118923
207	0x3ddb6af3	0.10713758
208	0x3ddf7123	0.10910251
209	0xbd1822f8	-0.037142724
210	0xbd3c4653	-0.045965504
211	0xbdc349b9	-0.09535546
212	0x3d891d59	0.06695051
213	0x3d967f2a	0.07348473
214	0xbdb9edf5	-0.0907859
215	0xbddd7ebf	-0.108151905
216	0xbd0b1334	-0.03395386
217	0xbcd57e25	-0.026061127
218	0x3ab5fefb	0.0013885194
219	0xbd1fdda9	-0.03902975
220	0xbdb5b6b3	-0.08872738
221	0x3d280643	0.041021597
222	0x3d529bb8	0.051418036
223	0xbd7433dd	-0.059619773
224	0x3d8a11f0	0.067417026
225	0xbdd3a5aa	-0.10334332
226	0x3bfa8860	0.0076456517
227	0x3d456bb9	0.048198435
228	0x3c0a2ae6	0.008433079
229	0x3cf93b21	0.030423703
230	0x3dbbea1a	0.09175511
231	0x3c295e34	0.010337401
232	0x3dbd6b65	0.092489995
233	0xbd8d0d6c	-0.06887326
234	0x3cdd1c93	0.026991164
235	0xbe026042	-0.12732032
236	0xbe00698f	-0.12540267
237	0xbd2d7797	-0.042350378
238	0xbd951c24	-0.07280758
239	0x3cfb4638	0.030673131
240	0x3b07207b	0.0020618725
241	0xbdaaae4e	-0.08334027
242	0x3da61446	0.081093356
243	0x3de2a81c	0.110672206
244	0xbda90bac	-0.08254179
245	0x3da85190	0.08218682
246	0x3e000183	0.12500577
247	0x3dc2d067	0.09512406
248	0x3da32e91	0.07967866
249	0x3dee545b	0.11637183
250	0xbb6e1fe9	-0.0036334938
251	0xbdebcba5	-0.115134515
252	0xbc952ff2	-0.018211339
253	0x3d606bec	0.054790422
254	0xbdb1f2d7	-0.08688896
255	0xbdb7ab50	-0.08968222

bias f4 [32]
0	0x3da86582	0.08222486
1	0x3e892993	0.2678953
2	0x3e4bd91a	0.19907036
3	0xbe416dcb	-0.18889539
4	0xbde18fc2	-0.11013748
5	0xbe18198e	-0.14853498
6	0xbe369d8b	-0.17833535
7	0xbe13038b	-0.1435682
8	0x3c795086	0.015216952
9	0xbe135fdd	-0.14392038
10	0xbe87cad4	-0.26521933
11	0x3d73affc	0.059494004
12	0xbbccefc6	-0.006254169
13	0x3e33c5d2	0.17555931
14	0x3da54c33	0.080711745
15	0xbe235dc8	-0.15953743
16	0x3db2cd2a	0.08730538
17	0xbddf7018	-0.10910052
18	0x3c592589	0.013253578
19	0xbd3aea30	-0.045633495
20	0xbddfc0c5	-0.1092544
21	0x3d8cdc02	0.06877901
22	0x3e08317e	0.1330013
23	0x3e5c1471	0.21492173
24	0x3e120f58	0.14263666
25	0xbe204bc9	-0.1565391
26	0xbda16428	-0.078804314
27	0xbdd30da0	-0.10305333
28	0x3ae15622	0.0017191807
29	0x3df4924f	0.11941969
30	0xbca6ab44	-0.020345338
31	0xbe5fdca5	-0.21861513

weight f4 [32, 32, 5, 5]
0	0x3c9751d4	0.018471636
1	0xbc75809c	-0.014984276
2	0x3ca9720d	0.020684266
3	0xbc88d1dd	-0.016701633
4	0x3d043896	0.032280527
5	0xbd0dd2e5	-0.034624953
6	0xbcce5f92	-0.025192056
7	0xbd1592fe	-0.036517136
8	0xbd543bc4	-0.05181481
9	0xbd1147f8	-0.035469025
10	0xbd2f3377	-0.04277369
11	0xbd10d8a5	-0.03536286
12	0xbcc2800b	-0.023742696
13	0xbc9ac641	-0.018893363
14	0xbd2948b2	-0.041329093
15	0xbcec9bb5	-0.02888284
16	0x3ccd193a	0.025036443
17	0x3cd3381c	0.025783591
18	0xbb812c5d	-0.003942056
19	0xbcd6f1fb	-0.026238432
20	0x3c9d975c	0.019237213
21	0xbd2045e9	-0.03912917
22	0x3c9184f0	0.017763585
23	0x391f34de	0.00015183116
24	0xbd28c719	-0.0412055
25	0xbc505468	-0.0127154365
26	0x3cf249ad	0.029576147
27	0x3d1ef6fd	0.038809765
28	0xbcf09938	-0.029369935
29	0xba05cd97	-0.00051041826
30	0x3c8b67ce	0.017017271
31	0xba512700	-0.0007978529
32	0x3cc4f5ac	0.024042927
33	0x3d270db4	0.040784553
34	0xbc62abe8	-0.013834931
35	0x3c89f77e	0.016841646
36	0x3ab8bb4f	0.0014093908
37	0xbb5ab20c	-0.0033370284
38	0xbd220e50	-0.03956443
39	0xbd0fae79	-0.0350785
40	0xbcd18a73	-0.025578713
41	0x3c702917	0.014658234
42	0xbceb3ec3	-0.02871645
43	0xbc704648	-0.014665194
44	0x3c99f411	0.018793138
45	0x3c247194	0.010036845
46	0xbd007709	-0.03136352
47	0x3d0ec390	0.03485447
48	0xbc520067	-0.012817479
49	0xbc851f6e	-0.016250338
50	0x3c38b3d2	0.011273341
51	0xbc0b134e	-0.008488489
52	0x3cb8957b	0.022532215
53	0x3bb76f2f	0.005597971
54	0xbc77044c	-0.015076708
55	0xbced8e48	-0.028998509
56	0xbcf71129	-0.03015955
57	0xbbb51301	-0.005525947
58	0xbc6a3295	-0.014294286
59	0x3c5ef3bf	0.013607918
60	0x3b971564	0.0046107043
61	0xbbbbb653	-0.005728522
62	0xbc2be76a	-0.010492185
63	0xbc25fbf6	-0.010130873
64	0xbd030244	-0.031984583
65	0xbcb314a7	-0.021860434
66	0x3be1922a	0.006883879
67	0x3bf29ee0	0.0074041933
68	0x3c7fd869	0.015615561
69	0xbb01876d	-0.0019764558
70	0x3cd911bf	0.02649772
71	0x3cb4104b	0.021980425
72	0xbc13fc52	-0.009032326
73	0x3cf6d79a	0.030132104
74	0xbcf4d30f	-0.029885797
75	0xbc476aed	-0.012171489
76	0x3c39e2b2	0.011345552
77	0xbb63c4f5	-0.0034754847
78	0xbc390968	-0.0112937465
79	0xbc6f8451	-0.014618949
80	0x3cc12b6b	0.023580274
81	0x3acd7335	0.0015674593
82	0x3b657b42	0.0035016094
83	0x3d16b4bf	0.036793467
84	0x3cc26a87	0.023732437
85	0x3a121352	0.0005572337
86	0x3be32365	0.0069317096
87	0xbbeaf3f9	-0.007170197
88	0x3cdc1af0	0.026868314
89	0x3d1e3fd9	0.03863511
90	0x3c073fcf	0.008254959
91	0x3c7d9b30	0.015478894
92	0x3af60091	0.0018768479
93	0xbc35ac0b	-0.0110883815
94	0x3bc70a54	0.0060742293
95	0xbcd619ec	-0.026135407
96	0x3d074313	0.03302295
97	0x3be4dd0f	0.00698436
98	0xbd036786	-0.03208115
99	0xbc7bb827	-0.01536373
100	0xbc2d73fa	-0.010586733
101	0xbc8b4b43	-0.017003661
102	0x3d1d3a31	0.038385574
103	0xbbf7079d	-0.0075387494
104	0x3d2f8e97	0.042860594
105	0x3c87cb7c	0.016576521
106	0x3ad13e1b	0.0015963943
107	0xbc83044d	-0.015993262
108	0xbd18d680	-0.03731394
109	0x3bdb7f19	0.006698501
110	0xbc26d235	-0.010181953
111	0xbd34e97f	-0.04416799
112	0xbbc42c94	-0.0059867594
113	0xbd36b1e1	-0.044603232
114	0xbc8a3af5	-0.016873816
115	0xbbabe1d1	-0.0052454253
116	0x3ce0c700	0.02743864
117	0x3c0d230a	0.008614311
118	0x3c7df893	0.015501159
119	0x3d0926d5	0.0334843
120	0x3c6de754	0.014520485
121	0xbcbf0407	-0.02331735
122	0x3c97825d	0.01849478
123	0x3c83418c	0.016022466
124	0xbbf95cf2	-0.007609957
125	0x3cd510e8	0.026009038
126	0x3c8f40b8	0.017486915
127	0x3ca2981a	0.019847918
128	0x3ca4dd4d	0.020125056
129	0xbc3373b8	-0.0109528825
130	0xbc3979f5	-0.011320581
131	0x3d362b2d	0.04447477
132	0x3d6ed467	0.05830803
133	0x3d29ac92	0.04142434
134	0x3c64aee0	0.013957709
135	0x3d3110ec	0.04322903
136	0xbb70c797	-0.0036740059
137	0x3d419b2e	0.04726713
138	0x3d5029c3	0.050821077
139	0x3cde4520	0.02713257
140	0x3cf20d3b	0.029547324
141	0xbb9e9366	-0.0048393486
142	0x3d2c46d4	0.042059734
143	0x3ccc83aa	0.024965126
144	0xbca2dd8a	-0.019881029
145	0x3cf9cf48	0.030494347
146	0x3d07354b	0.03300981
147	0x3d1524d8	0.03641209
148	0x3c645d5c	0.013938274
149	0xbc5529d9	-0.013010466
150	0xbb9de5fd	-0.0048186765
151	0x3c0fa454	0.008767206
152	0x3c5dbdfc	0.013534065
153	0xbccbef60	-0.024894416
154	0x3ceb800f	0.028747587
155	0x3c5c853a	0.013459498
156	0xbc6e72a3	-0.014553699
157	0x3a4a8e92	0.0007726933
158	0x3cf53fb3	0.0299376
159	0x3b81d005	0.0039615654
160	0xba169258	-0.0005743853
161	0xbc97a600	-0.018511772
162	0x3c1cc3fe	0.009568213
163	0x3cc5efa4	0.024162121
164	0x3d0d36d3	0.034476113
165	0x3d1c542b	0.038166206
166	0x3d4bd5ac	0.04976432
167	0x3c7e7557	0.015530906
168	0x3d48f9c6	0.049066328
169	0x3c4644c1	0.012101353
170	0xbc79e7c2	-0.015253009
171	0x3d1ab921	0.03777421
172	0x3d4428dc	0.04789053
173	0x3bc35c6c	0.0059619453
174	0x3ca6e425	0.02037246
175	0x3ba532ef	0.005041472
176	0xbca72204	-0.020401962
177	0xbc45faec	-0.01208375
178	0x3b192f48	0.002337413
179	0xbcb685ee	-0.02228066
180	0xbc0ea631	-0.008706615
181	0xbcf66b8c	-0.03008058
182	0xbc1ce84f	-0.009576871
183	0x3b3713bc	0.0027935347
184	0xb87c2a6a	-6.0120983e-05
185	0x3ccf1b96	0.025281709
186	0x3b215503	0.0024617321
187	0x3d39de7f	0.045378204
188	0xbc1e8ba1	-0.009676845
189	0xbc50d3e0	-0.012745827
190	0x3d661884	0.056175724
191	0x3d3a974d	0.045554448
192	0x3d7ea6b0	0.062170684
193	0x3c8130a5	0.015770266
194	0x3cb57869	0.022152143
195	0xbbf77411	-0.007551678
196	0xbc85276a	-0.016254146
197	0x3bcf6d60	0.006330177
198	0x3d2fc402	0.042911537
199	0x3c30e1a8	0.010795988
200	0x3c900fbf	0.017585633
201	0x3cc693f9	0.02424048
202	0xbc64fae5	-0.013975834
203	0xbcbe71d0	-0.02324763
204	0x3caf9f64	0.021438308
205	0xbcc8605a	-0.024460007
206	0x3c710b4e	0.014712168
207	0xb9ed32b5	-0.00045241942
208	0xbb1cc60b	-0.0023921754
209	0xbcd136a5	-0.025538752
210	0x3ce34c1f	0.027746258
211	0x3c08d4a1	0.008351476
212	0x3c441a8a	0.011969218
213	0xbb99dfbf	-0.004695862
214	0xbc2a6655	-0.010400374
215	0xbc84b76b	-0.016200742
216	0x3c315470	0.010823354
217	0x3cbcd0b8	0.023048744
218	0xba999e9f	-0.0011720246
219	0x391ef7a9	0.00015160315
220	0x3c839b55	0.016065279
221	0xbc1c5815	-0.009542485
222	0x3c2ecd29	0.010669031
223	0xbcf4a256	-0.029862564
224	0x3c4beac0	0.0124461055
225	0x3b5af09a	0.003340757
226	0x3cac49b1	0.021031233
227	0xbbbe5016	-0.005807887
228	0xbb0a6005	-0.002111436
229	0xbba275d6	-0.004957895
230	0x3c847b17	0.016171975
231	0x3b0461c1	0.0020199867
232	0xbcb573fa	-0.022150028
233	0xbbf82b6d	-0.007573536
234	0xbd476809	-0.0486832
235	0xbc891808	-0.016735092
236	0x3bff0de7	0.0077836397
237	0xbacd7b1f	-0.0015676952
238	0xbc846a18	-0.01616387
239	0xbcc1e2c6	-0.023667704
240	0x3cc88244	0.024476178
241	0xbcb97137	-0.022636993
242	0x3cb338f2	0.02187774
243	0xbb952cb2	-0.0045524472
244	0x3ca656f4	0.020305134
245	0xbc852ec7	-0.016257657
246	0xbc8811b2	-0.01661
247	0xbcf7b21d	-0.030236298
248	0xba21e86b	-0.00061762956
249	0xbccf1dde	-0.025282796
250	0x3b282ded	0.002566214
251	0xbccc4290	-0.024934083
252	0x3ca18f10	0.019721538
253	0xbcce0187	-0.025147213
254	0xbc1588f5	-0.009126891
255	0xbc002c63	-0.007823083

bias f4 [32]
0	0xb98bbd79	-0.00026653314
1	0xbd51eae2	-0.051249392
2	0x3c6f0e9a	0.014590884
3	0x3c84aa49	0.01619448
4	0xbdd684cb	-0.10474547
5	0xbd8f764d	-0.07004986
6	0x3c80115f	0.015633283
7	0x3c73fcc7	0.01489181
8	0xbbe6fb39	-0.007048991
9	0xbcde140f	-0.027109174
10	0x3caf7a1b	0.02142053
11	0xbc97a017	-0.018508954
12	0xbdbe1440	-0.09281206
13	0x3c800272	0.015626166
14	0xbda6050a	-0.0810643
15	0xbd96ebf7	-0.073692255
16	0x3bb313d1	0.005465009
17	0xbd579a92	-0.052637644
18	0xbbddf739	-0.006773856
19	0xbd1902ea	-0.037356295
20	0xbd7a34d9	-0.061085556
21	0x3ca03f6c	0.019561492
22	0xbd2e2796	-0.04251822
23	0x3c48fcba	0.012267286
24	0xbd45864b	-0.048223775
25	0xbbda2899	-0.0066576716
26	0xbb952a88	-0.0045521893
27	0xbd3a90e0	-0.04554832
28	0x3ca85b01	0.020551207
29	0xbca0e183	-0.019638782
30	0xbc894746	-0.016757619
31	0xbdb6ae7f	-0.08920001

weight f4 [64, 32, 5, 5]
0	0x3cae2d74	0.021261908
1	0x3c8f9bf3	0.017530417
2	0x3c40c57b	0.011765833
3	0xbc479389	-0.012181171
4	0xbcbc05fa	-0.022952069
5	0xbc639986	-0.013891583
6	0xbc81303c	-0.01577007
7	0xbc096379	-0.008385533
8	0x3c0f35cd	0.008740854
9	0x3c020a88	0.007937081
10	0x3d0edb1f	0.03487694
11	0xbb3ee17e	-0.0029126103
12	0xbd0318ce	-0.032006077
13	0x3c1aed9c	0.009456065
14	0x3a9b916a	0.0011868898
15	0xbc1fdb12	-0.00975682
16	0x3c9ef4a4	0.019403763
17	0x3c3ef65c	0.011655416
18	0x3d10a93a	0.035317637
19	0xbbc78cf9	-0.0060898033
20	0xbcc47f30	-0.023986429
21	0xbd0bed35	-0.034161765
22	0xbc3fcc16	-0.011706373
23	0x3b22884b	0.0024800475
24	0x3c3ccff3	0.011524188
25	0xbb22d6f9	-0.0024847372
26	0xbd0099c6	-0.03139665
27	0x3cdf3b80	0.027250051
28	0x3ccd2abb	0.02504479
29	0xbcde9e54	-0.027175106
30	0x3a1e5be5	0.0006040915
31	0xbc80c544	-0.015719064
32	0xbc9a78c0	-0.018856406
33	0xbb22d8ca	-0.0024848455
34	0xbcc64a19	-0.024205254
35	0xbc3654c3	-0.011128607
36	0x3c7090fd	0.014683005
37	0xbccd1e3b	-0.02503883
38	0x3c91ce3b	0.017798534
39	0x3c2b8536	0.010468772
40	0xbb1a7f9a	-0.0023574592
41	0x3d04d28a	0.03242735
42	0xbb9c5586	-0.0047709374
43	0x3bedc7b8	0.0072564743
44	0x3c279136	0.010227492
45	0xbd16b61d	-0.03679477
46	0x3cdc0fdc	0.026863031
47	0x3c41685d	0.011804667
48	0xbc6a5794	-0.014303107
49	0x3c8c5015	0.01712803
50	0xbc9cb1de	-0.019127782
51	0xbd62ae8a	-0.055342235
52	0xbd1b9526	-0.037984036
53	0xbc118f53	-0.008884269
54	0xbc954a18	-0.018223807
55	0x3d6b0573	0.057378244
56	0x3c2dd913	0.010610837
57	0xbd3cc74f	-0.046088513
58	0xbbad19a0	-0.0052825958
59	0xbce3644e	-0.02775779
60	0x3d02bc0e	0.031917624
61	0x3d704e4c	0.05866842
62	0x3cb3f2fc	0.02196645
63	0xbd05dd51	-0.032681767
64	0xbcf50280	-0.029908419
65	0xbc2f9c14	-0.010718364
66	0x3d75bb94	0.05999334
67	0x3d182466	0.037144087
68	0x3c4e92d4	0.012608249
69	0x3d008b67	0.031382944
70	0xbc8b89f0	-0.017033547
71	0xbb4d16e3	-0.003129416
72	0x3c4e4b46	0.012591189
73	0x3c4e52d0	0.012592986
74	0x3d0f156f	0.03493255
75	0x3c90c375	0.017671326
76	0xbbcdae02	-0.006276847
77	0x3cd2f73a	0.025752652
78	0x3ca0c95a	0.019627262
79	0xbcc3914d	-0.023872996
80	0x3cb8d136	0.022560697
81	0xbc21f063	-0.009883973
82	0x3c932b9b	0.017965129
83	0x3b48745c	0.0030586934
84	0xbcde63a5	-0.027147124
85	0xbc8572c7	-0.016290082
86	0x3ccadb77	0.024762852
87	0x3ccbcf94	0.024879254
88	0x3c4eebb2	0.012629436
89	0xbba7b25c	-0.0051176976
90	0xbd0efd7f	-0.03490972
91	0xbcf560a8	-0.029953316
92	0xba9762c1	-0.0011549817
93	0xbcacf96a	-0.021115024
94	0xbca3663e	-0.019946214
95	0x3cec0e1c	0.028815322
96	0xbc6e0819	-0.014528298
97	0xbcfb9d95	-0.03071479
98	0xbc37bbeb	-0.011214237
99	0x3c989aab	0.018628439
100	0x3c2f9c9d	0.010718492
101	0x3c294902	0.010332348
102	0xbc82ff54	-0.01599089
103	0x3b1a7893	0.0023570403
104	0x3c8523ca	0.016252417
105	0xbb83447e	-0.0040059676
106	0xbcb7b8a4	-0.02242691
107	0x3c52b368	0.012860157
108	0xbd0c1d27	-0.03420749
109	0x3c437dfe	0.011931894
110	0xbc96341f	-0.0183354
111	0xbcfd9e1b	-0.03095918
112	0x388ef9b3	6.817598e-05
113	0xbcc281c9	-0.023743527
114	0x3c7a498b	0.015276323
115	0x3c43b1ff	0.011944293
116	0xbc847110	-0.016167194
117	0x3bf0f03c	0.007352857
118	0x3d04c5bf	0.032415148
119	0x3d279a49	0.040918622
120	0x3ac4d7c5	0.0015017918
121	0xbb061518	-0.002045935
122	0xbd272615	-0.040807802
123	0xbd36bace	-0.044611745
124	0xbd52ef7c	-0.05149792
125	0xbc749ab3	-0.014929461
126	0x3d033d16	0.032040678
127	0xbd242569	-0.04007474
128	0xbc2d10df	-0.010563104
129	0xbd030c1e	-0.031993978
130	0x3d01dac9	0.03170279
131	0xbce1656d	-0.027514184
132	0xbcece18d	-0.028916145
133	0x3c4a9e9c	0.012366917
134	0xbcb7c2da	-0.02243178
135	0xbc402bd2	-0.011729198
136	0xbd27a5be	-0.04092955
137	0xbbb6622c	-0.005565902
138	0xbbee0dff	-0.007264852
139	0x3bb4d8b1	0.0055189957
140	0x3c598524	0.013276372
141	0xbcea3100	-0.028587818
142	0xbc944102	-0.018097404
143	0xbc0090d0	-0.007847026
144	0xbc8a20b1	-0.016861292
145	0xbcc33895	-0.023830691
146	0xbcd1f123	-0.025627678
147	0xbcf35ba1	-0.029706778
148	0xbd01701e	-0.031601064
149	0xbc9cfb0a	-0.019162674
150	0xbc75559c	-0.014974024
151	0xbc9a0b11	-0.018804105
152	0x3ccc3b8d	0.02493074
153	0x3cff49a4	0.031163044
154	0x3c88aeb6	0.016684871
155	0xbc383ad1	-0.011244492
156	0x3cfae655	0.030627409
157	0xbcdd2aa3	-0.02699787
158	0xbce801a2	-0.028321091
159	0xbccc950e	-0.024973419
160	0x3cdcd416	0.0269566
161	0xbd0161f2	-0.03158755
162	0x3ca1acac	0.019735657
163	0x3cc8f0aa	0.02452882
164	0xbc73e06d	-0.01488505
165	0xba6391a9	-0.0008681068
166	0x3a125be2	0.00055831496
167	0xbc025e8a	-0.00795711
168	0xbbd813ff	-0.0065941806
169	0x3c88afc8	0.016685382
170	0xbcb02551	-0.021502169
171	0x3bbce770	0.005764894
172	0xbcf3708d	-0.029716754
173	0xbc93eb44	-0.01805652
174	0xb9c5cc04	-0.00037726772
175	0x3d118cbc	0.035534605
176	0x3c92cd78	0.01792024
177	0x3c72d4dc	0.014821257
178	0xbc575fb8	-0.01314538
179	0xbcb2ca8f	-0.021825103
180	0x3c74e501	0.014947177
181	0x3aba22ff	0.0014201103
182	0xbd06fc1f	-0.032955285
183	0xbd231589	-0.03981546
184	0x3cba736c	0.022760116
185	0xbc92ef01	-0.017936232
186	0x3c9c9ca0	0.019117653
187	0x3b9549a3	0.0045558973
188	0xbb142c65	-0.002260947
189	0xbca60b71	-0.020269128
190	0xbc74286a	-0.014902214
191	0x3d04f155	0.032456715
192	0x3b777799	0.0037760495
193	0xba841eab	-0.001007994
194	0x3c546ebb	0.012965853
195	0x3d0d7cf5	0.034542996
196	0xbcef622c	-0.029221617
197	0x3cebfbf2	0.02880666
198	0xbc9dc8b9	-0.019260751
199	0xbcc137ee	-0.02358624
200	0x3d0b6391	0.0340305
201	0x3c69cd4a	0.014270136
202	0x3cd7eb64	0.02635736
203	0x3d1874de	0.03722083
204	0xbbfaf062	-0.0076580504
205	0x3c84c198	0.016205594
206	0xbc6b19bf	-0.0143494
207	0x3c2e9260	0.010655016
208	0x3cb90fe5	0.022590587
209	0xbc606880	-0.01369679
210	0x3bed17df	0.0072355117
211	0xbce06007	-0.02738954
212	0xbc7f492c	-0.01558141
213	0x3b96e7d0	0.004605271
214	0xbba87879	-0.0051413146
215	0x3c87a14d	0.016556406
216	0xbbbdd1ae	-0.005792818
217	0xbc685b94	-0.01418199
218	0x38f0523e	0.000114594106
219	0xbd0b6165	-0.03402843
220	0x3ce9846a	0.028505523
221	0x3b90fba5	0.0044245296
222	0xbcdac8db	-0.026707103
223	0xbb70843d	-0.0036699914
224	0xbaae6093	-0.0013303928
225	0x3af397e6	0.0018584698
226	0x3b41aa44	0.002955095
227	0xbbe00cf4	-0.0068374816
228	0x3d03dd4b	0.032193463
229	0xbc961472	-0.018320296
230	0xbc32d618	-0.010915302
231	0x3d34351d	0.043995965
232	0xbbcffec8	-0.006347511
233	0xbc2cba90	-0.010542527
234	0xbce9dfb7	-0.028549058
235	0xbd1c6d47	-0.038190152
236	0x3c0c118b	0.008549104
237	0xbd01d68f	-0.03169876
238	0xbc68d634	-0.014211226
239	0xbd071207	-0.032976177
240	0xbd1227b6	-0.035682403
241	0x3cad75a4	0.02117426
242	0x3cdf1784	0.027232893
243	0x3d25439d	0.040347684
244	0x3c7d244f	0.015450551
245	0x3c778e1b	0.015109564
246	0xbd0fa1f7	-0.03506657
247	0x3c841029	0.016120987
248	0x3c99bff5	0.01876829
249	0x3c9e5fae	0.019332733
250	0xbb8eda0c	-0.0043594893
251	0x3d0bbf5e	0.03411805
252	0xbc3ee1b8	-0.011650495
253	0x3ca4e31b	0.020127824
254	0xbd082acd	-0.033243943
255	0xbcb08bfd	-0.021551127

bias f4 [64]
0	0x3cd1ecc3	0.025625592
1	0xbcc849af	-0.024449198
2	0x3ce64be7	0.028112365
3	0xbc97c4d3	-0.01852647
4	0xbd22f2ce	-0.039782338
5	0xbd248acd	-0.040171433
6	0x3bb24ba7	0.0054411474
7	0x3bef0a8b	0.007294958
8	0xbd0f0202	-0.034914024
9	0x3c7680b1	0.015045331
10	0xbcecf065	-0.028923223
11	0xbbacbde6	-0.005271661
12	0xbcee0840	-0.029056668
13	0x3ad55d1c	0.0016278359
14	0xbcbe5a95	-0.023236552
15	0x3c06c3f9	0.008225434
16	0xbb0deecb	-0.0021657224
17	0xbc944fa3	-0.01810438
18	0xbd84a855	-0.06477419
19	0x3b8f4aa3	0.004372911
20	0xbd4ea514	-0.0504504
21	0xbd308811	-0.043098513
22	0xbc87c257	-0.01657216
23	0xbc6c2502	-0.01441312
24	0x3d0aac08	0.033855468
25	0xbd38677a	-0.045020558
26	0xbd8f0fd5	-0.069854416
27	0xbd17b6e1	-0.03703964
28	0x3cd196b4	0.025584556
29	0x3c111110	0.008854166
30	0x3d1146fb	0.035468083
31	0x3c6fed4e	0.01464398
32	0xbbb26e2a	-0.0054452615
33	0xbcb6eda9	-0.022330122
34	0xbd1db214	-0.038499907
35	0xbd58421e	-0.05279743
36	0xbc8dfdd4	-0.017332949
37	0x3cf3a6a2	0.029742543
38	0x3beee0c8	0.0072899796
39	0x3be13d67	0.006873775
40	0xbd5ae181	-0.053437714
41	0xbd1ee74f	-0.03879481
42	0x3c454bbc	0.012041982
43	0xbced2873	-0.028949952
44	0xbb0bc47f	-0.0021326838
45	0xbb277e47	-0.0025557445
46	0x3d072d79	0.03300235
47	0xbd0887db	-0.033332687
48	0xbcca10f5	-0.024666289
49	0xbccbc290	-0.024873048
50	0xbd627394	-0.055286005
51	0xbcdf5acc	-0.027264975
52	0x3d1c8f82	0.038222797
53	0x3a9cf67d	0.0011975315
54	0xbd41cb0a	-0.047312774
55	0xbd560a95	-0.052256186
56	0xbcd4671b	-0.02592807
57	0xbd00e019	-0.031463716
58	0x3b9d279c	0.0047959816
59	0xbd2c529d	-0.042070974
60	0xbd2606a6	-0.040533684
61	0x3b2e72ef	0.0026618799
62	0xba0920e5	-0.0005231037
63	0xbd45be13	-0.048276972

weight f4 [64, 1024]
0	0x3ca0bca3	0.019621199
1	0x3cbae591	0.022814544
2	0x3d2089ed	0.039194036
3	0x3c8f8871	0.017521115
4	0x3c8dc0d7	0.017303867
5	0xbd2cb9f6	-0.042169534
6	0xbbe93754	-0.0071171913
7	0x3c047b14	0.008085985
8	0xbc8a693e	-0.016895887
9	0x3c828d58	0.015936539
10	0x3c6d282b	0.014474909
11	0x3cea648d	0.0286124
12	0xbcb894d2	-0.0225319
13	0xbbc0533b	-0.005869297
14	0x3cb16688	0.021655336
15	0x3c8b04b5	0.016970018
16	0x3c6a87f1	0.0143146375
17	0xbcb52139	-0.022110568
18	0x3b6cfcd3	0.0036161437
19	0xbc3cb281	-0.011517168
20	0xbc6161a7	-0.013756192
21	0x3cf2b4ef	0.029627291
22	0x3c2b3bdd	0.010451284
23	0xbc2b5522	-0.010457309
24	0xbb52bbb4	-0.0032155337
25	0xbcf094ac	-0.029367767
26	0xbba69ae3	-0.005084382
27	0xbc5a9981	-0.013342262
28	0x3ca096b4	0.01960311
29	0x3c825d1a	0.015913535
30	0x3cc693e4	0.024240442
31	0x3c5851b8	0.013203077
32	0xbc4b2a91	-0.012400285
33	0x3cb7635e	0.02238625
34	0x3c830d95	0.015997687
35	0xbcf13fe6	-0.029449414
36	0x3d1c8fb0	0.03822297
37	0xbbeba162	-0.007190869
38	0x3cfaa12a	0.030594427
39	0x3cad95fd	0.021189684
40	0x3d43f310	0.047839224
41	0x3d20362f	0.039114174
42	0x3d1d06da	0.038336612
43	0xbbb7ec8f	-0.005612917
44	0xba91ca74	-0.0011122958
45	0x3c99bbc4	0.018766291
46	0x3bca371e	0.0061711213
47	0x3ca857a3	0.020549601
48	0xbcb6f145	-0.022331843
49	0xbd0a49cf	-0.033761796
50	0x3cba96bf	0.02277696
51	0xbabcc798	-0.0014402745
52	0x3c2b4ccc	0.0104553215
53	0x3cc5ec04	0.024160393
54	0x3cd7568d	0.026286388
55	0xbb711bd3	-0.0036790266
56	0x3cf2d234	0.029641248
57	0xbc809232	-0.015694711
58	0xbb0ed786	-0.0021795942
59	0xbc5ed8e9	-0.01360152
60	0x3b91294d	0.0044299723
61	0x3cb971a7	0.022637201
62	0x3bd88434	0.0066075567
63	0x390cc5de	0.00013425152
64	0x3b64e3a2	0.0034925719
65	0xbc59ae7b	-0.013286228
66	0xbca572e3	-0.020196384
67	0xbd09891e	-0.03357803
68	0xbd0981ae	-0.033570938
69	0x3ca7ef33	0.020499801
70	0xbc85b58e	-0.016321924
71	0xba8622d1	-0.0010233765
72	0x3c519130	0.012790963
73	0xbd04e355	-0.032443363
74	0xbcc34655	-0.023837248
75	0x3ba4ddc7	0.0050313207
76	0xbc176af3	-0.009241807
77	0xbcde7db7	-0.027159555
78	0x3c28648d	0.010277879
79	0xbc9c46c7	-0.019076718
80	0x3cc447b1	0.023959966
81	0xbc5278e9	-0.01284621
82	0x3bf4fc4a	0.0074763643
83	0xbc23e053	-0.0100022135
84	0xbd09819a	-0.033570863
85	0xbc495680	-0.01228869
86	0x3c8459d2	0.01615611
87	0xbcf81931	-0.03028545
88	0xbcecde02	-0.028914455
89	0x3cfdbc23	0.0309735
90	0xbd163a84	-0.0366769
91	0x3ac17453	0.0014759399
92	0x3cc228c0	0.023701072
93	0x3ce4ddb6	0.027937751
94	0xbcf0ec26	-0.02940948
95	0x3c732b51	0.01484187
96	0xbcdcc448	-0.026949063
97	0xbc96aa5e	-0.018391784
98	0x395ab3f0	0.00020857132
99	0x3c8f702e	0.017509546
100	0x3c079eed	0.008277637
101	0xbccb0bc2	-0.02478588
102	0xba8c13a4	-0.0010687006
103	0xbd036216	-0.032075964
104	0xbc987b75	-0.018613556
105	0x3c1862cf	0.009300902
106	0xbd1c8c6c	-0.038219854
107	0x3ce950f2	0.02848098
108	0x3bb17d0c	0.005416518
109	0xbc4d01ef	-0.012512668
110	0xbcc76b0f	-0.024343042
111	0x3ceaa835	0.02864466
112	0xbb57a753	-0.003290613
113	0x3cad03a6	0.021119904
114	0x3d10ba06	0.035333656
115	0x3cf34fc8	0.029701129
116	0xbc262575	-0.010140766
117	0x3ad2ec39	0.0016092128
118	0x3c45d8cb	0.012075613
119	0x3c76df29	0.015067854
120	0x3bd0ef46	0.00637618
121	0x3cb827d8	0.022479936
122	0x3c8a2a17	0.016865773
123	0xbacd0599	-0.0015641927
124	0x3c419650	0.011815622
125	0xbd00d713	-0.03145511
126	0xbc5ec179	-0.013595932
127	0x3cdd1bd7	0.026990814
128	0x3c4a7657	0.012357316
129	0x3b15c14b	0.0022850807
130	0xbc6f712b	-0.014614384
131	0x3c9db4fb	0.019251337
132	0xbcefd05f	-0.029274164
133	0xbd34da00	-0.044153214
134	0xbc5272a0	-0.012844712
135	0x3aa5d11b	0.0012650819
136	0x3cf43be5	0.029813716
137	0x3bfdaeab	0.0077417693
138	0x3d03148f	0.032002028
139	0x3c0bc838	0.008531623
140	0x3be346ec	0.006935945
141	0xbc035ac5	-0.008017247
142	0xba21e7b6	-0.000617619
143	0x3cedde87	0.029036773
144	0x3c8645d5	0.01639072
145	0xbc028cbe	-0.007968126
146	0xbc6992c9	-0.014256188
147	0xbc9bca1d	-0.019017274
148	0x3cde5fc1	0.027145268
149	0x3d1cad58	0.03825125
150	0x3ca05cbe	0.019575473
151	0x3d349250	0.044084847
152	0x3cacad3b	0.021078696
153	0xbd1a8352	-0.037722893
154	0xbbc7390e	-0.0060797995
155	0xba2e12d4	-0.0006640379
156	0x3bd47e29	0.006484766
157	0x3bdfb01d	0.0068264143
158	0xbbd53670	-0.0065067336
159	0xbd0c6416	-0.034275137
160	0xbcb5e8d8	-0.022205755
161	0x3cae03d2	0.021242056
162	0x3c37982c	0.011205714
163	0xbc14b388	-0.009076007
164	0x3d0413c8	0.032245427
165	0x3b94af8a	0.0045375274
166	0xbd05f00f	-0.03269964
167	0x3d036aa3	0.03208412
168	0x3b9762d7	0.004619937
169	0x3caa4f69	0.020789819
170	0x3c352762	0.011056753
171	0xbb8275a5	-0.0039813095
172	0x3d2cfb9c	0.04223214
173	0x3d0a62da	0.03378568
174	0xbc898c77	-0.016790612
175	0xb9132d2d	-0.00014035842
176	0x3c9a3fe5	0.018829295
177	0x3aae7ff5	0.0013313281
178	0x3bf59da5	0.0074955993
179	0xbc175363	-0.00923619
180	0x3c513e56	0.01277121
181	0xbd22ccbf	-0.039746042
182	0xba9e9d9a	-0.0012101412
183	0xbd0a3076	-0.033737622
184	0xbcb5ef75	-0.022208909
185	0xbcad09f3	-0.021122908
186	0x3c873ead	0.016509378
187	0xbc947fc2	-0.018127326
188	0xbc8dfdb4	-0.01733289
189	0xbc5b9b95	-0.013403793
190	0x3c171881	0.009222151
191	0x3c9bbc1d	0.019010598
192	0x3c3eb802	0.011640551
193	0x3d0a9efb	0.03384302
194	0xbc88bda6	-0.016691994
195	0xbca3df88	-0.020004049
196	0xbcd3abb3	-0.025838709
197	0xbcbe101a	-0.023201037
198	0x3c2aadad	0.010417384
199	0xbc926ce3	-0.017874187
200	0xbb761b29	-0.003755281
201	0x3d3dfe80	0.04638529
202	0x3958d2c8	0.00020677887
203	0x3b913d7e	0.0044323793
204	0x3cc84615	0.02444748
205	0x3c3c49fe	0.0114922505
206	0xbcc866b4	-0.024463035
207	0xbbc35b86	-0.005961838
208	0x3cc004b9	0.023439752
209	0xbce42fc9	-0.027854817
210	0xb9c772a0	-0.0003804164
211	0x3c91f6ea	0.017817933
212	0x3bed2123	0.007236616
213	0xbb741786	-0.0037245466
214	0x3c4eacf7	0.01261448
215	0xbc5fe3e1	-0.01366517
216	0xbbe127d8	-0.006871205
217	0xbaf91e93	-0.0019006304
218	0xbcda72dc	-0.026666097
219	0xbc2e6bea	-0.010645846
220	0x3d0c89b8	0.034311026
221	0x3cc18a3f	0.023625491
222	0x3d14c17d	0.036317337
223	0x3c7967c6	0.015222495
224	0x3cb1312f	0.021629898
225	0xbc38b537	-0.011273674
226	0x3c140515	0.009034415
227	0x3c966795	0.018359939
228	0xbc3e38be	-0.011610208
229	0xbc6cb85f	-0.014448254
230	0x3d0e0af6	0.034678422
231	0x3c8d7023	0.017265385
232	0x3bfd3272	0.007726961
233	0xbcb5ac52	-0.022176895
234	0xbd0d1757	-0.034446087
235	0x3c34f389	0.011044391
236	0xbd07adcc	-0.03312473
237	0xbd274c4f	-0.040844258
238	0xbc13bf11	-0.009017722
239	0xbcb5f293	-0.022210395
240	0x3ccd4544	0.025057442
241	0xbc5b62be	-0.013390241
242	0xbb62fde5	-0.0034636196
243	0x3d1a9212	0.03773696
244	0xbcc8e64a	-0.024523873
245	0xbca97999	-0.020687865
246	0x3ce74da2	0.02823526
247	0x3a2e3606	0.00066456234
248	0xbc65e79b	-0.01403227
249	0x3d43da86	0.047815822
250	0x3cd607e1	0.026126804
251	0xbca35b12	-0.019940887
252	0xbac4bbd6	-0.0015009593
253	0xb9a18f18	-0.00030814926
254	0x3ce6a05a	0.028152633
255	0x3c8108f5	0.015751341

bias f4 [64]
0	0x3cd99a61	0.026562871
1	0x3c62d84d	0.013845515
2	0x3c4b8cae	0.012423677
3	0xbb008e82	-0.0019616191
4	0xbb4b787d	-0.0031047158
5	0xbc8bcac0	-0.017064452
6	0x3c568b0a	0.013094673
7	0x3c584338	0.01319962
8	0x3c4333c5	0.011914198
9	0xbd04b4c8	-0.03239897
10	0xbc90d09b	-0.017677596
11	0xbd0a31ba	-0.03373883
12	0x3c39e856	0.011346897
13	0x3cc5a7d5	0.02412788
14	0x3ab55dcc	0.0013837158
15	0x3c352246	0.011055535
16	0xbd083549	-0.03325394
17	0x3cab8a40	0.020939946
18	0xbcba1ff4	-0.022720315
19	0xbcc249b5	-0.023716787
20	0x3cf80cbf	0.030279515
21	0x3c8d43f1	0.017244311
22	0x3cb0f616	0.021601718
23	0x3cc88c46	0.02448095
24	0xbd761703	-0.06008054
25	0xbc07ada9	-0.00828115
26	0x3c532470	0.012887105
27	0x3ce64e03	0.02811337
28	0xbc5d3be6	-0.01350305
29	0xbd47ba72	-0.048761792
30	0x3ca829e0	0.02052778
31	0x3c3bf03e	0.011470852
32	0xbc147850	-0.009061888
33	0xbce92f2b	-0.028464874
34	0x3cdbbad7	0.02682249
35	0x3c71ba73	0.014753926
36	0xbcb2e514	-0.021837749
37	0xbac96ab3	-0.0015366882
38	0x3c8a5748	0.016887322
39	0x3c71fa83	0.014769199
40	0x3bf4bf31	0.007469081
41	0xbcb44de3	-0.022009796
42	0x3b8253b4	0.0039772633
43	0xbd67f715	-0.05663212
44	0xbd084813	-0.03327186
45	0xbbfd6327	-0.007732767
46	0x3b5fd4eb	0.0034154009
47	0xbb8feaf2	-0.0043920213
48	0xbcee04a5	-0.029054949
49	0xbd2c412c	-0.04205434
50	0x3c2bf008	0.01049424
51	0xbca60dce	-0.020270254
52	0x3b940cb1	0.0045181145
53	0xbcb89acc	-0.02253475
54	0x3ca15f54	0.019698776
55	0xbcae1ee5	-0.021254966
56	0x3c33cc42	0.010973992
57	0xbd0f2b9f	-0.03495371
58	0xbbfd09cf	-0.0077221165
59	0xbceb1ebf	-0.028701184
60	0xbc3509c5	-0.0110496925
61	0xbce9f947	-0.028561248
62	0x3b8af5cd	0.0042407275
63	0x3ad542d5	0.0016270528

weight f4 [10, 64]
0	0xbe0af40b	-0.13569658
1	0xbc9cb618	-0.019129798
2	0xbb7fd8c5	-0.0039039117
3	0x3e42244e	0.18959162
4	0xbc6c2228	-0.01441244
5	0xbddb2538	-0.10700458
6	0xbde3847e	-0.11109255
7	0xbdde20e3	-0.108461164
8	0x3dbcb512	0.09214224
9	0x3d94b008	0.07260138
10	0xbdd81564	-0.10550955
11	0x3e117d34	0.14207917
12	0xbd97a66a	-0.07404788
13	0xbcabcc77	-0.02097152
14	0xbe04b363	-0.12959056
15	0x3d044b72	0.032298513
16	0x3d282f68	0.041060835
17	0xbd5b0cf6	-0.053479157
18	0x3e602c19	0.21891822
19	0x3cf6a37a	0.030107249
20	0xbe26aa0e	-0.16275808
21	0x3dd687d8	0.10475129
22	0xbe2a7f6e	-0.16650173
23	0x3d874ebe	0.06606816
24	0x3d7a1aef	0.061060842
25	0x3d4e2307	0.050326373
26	0x3e06a9c9	0.13150705
27	0xbdfd242b	-0.12360414
28	0xbc839635	-0.016062835
29	0x3d567897	0.052361097
30	0xbdc5aec6	-0.09652476
31	0xbe1fc946	-0.15604123
32	0xbe3c59ef	-0.18393682
33	0x3bf5fddb	0.0075070686
34	0x3b9d655d	0.004803343
35	0xbd0983b6	-0.033572875
36	0x3e0851c6	0.13312444
37	0x3de1e8a9	0.110307045
38	0xbde81517	-0.113321476
39	0xbe0b4675	-0.13601096
40	0xbe3470e2	-0.17621186
41	0x3d698c4b	0.05701856
42	0xbe01cbb5	-0.12675364
43	0x3de8177a	0.11332603
44	0x3dca8ef7	0.0989055
45	0xbdce9b6e	-0.100882396
46	0xbdb3d4f5	-0.08780853
47	0xbdf8c98f	-0.12147819
48	0xbdbb6691	-0.09150422
49	0xbe1782b1	-0.14795949
50	0xbda0485b	-0.07826301
51	0x3dec472a	0.11537011
52	0x3da5ce39	0.080959745
53	0x3dc5f7bb	0.096663915
54	0x3c8aa2ff	0.016923426
55	0x3af69d87	0.0018815257
56	0x3e530415	0.20607026
57	0x3e0e5e4c	0.13903159
58	0x3caebf56	0.02133147
59	0xbd6bdaeb	-0.057581823
60	0xbd8c0869	-0.068375416
61	0x3d6ff253	0.058580708
62	0x3e0a80f4	0.13525754
63	0xbe2db6d9	-0.16964282
64	0x3e224c8b	0.15849511
65	0x3de73383	0.11289122
66	0x3dd9ad69	0.106287785
67	0x3dea4d4c	0.114405245
68	0x3dd2c802	0.10292055
69	0x3e2ee457	0.17079292
70	0xbe03f690	-0.12887025
71	0xbe155fc6	-0.14587316
72	0x39f3a813	0.00046473797
73	0xbdb579d3	-0.08861127
74	0x3df5571b	0.11979505
75	0xbe151f1f	-0.14562653
76	0x3d0fb371	0.035083238
77	0x3de29f92	0.11065592
78	0x3d947a39	0.072498746
79	0xbda245fd	-0.079235055
80	0xbdbba10f	-0.09161579
81	0xbe8bede8	-0.27329946
82	0x3d8270b8	0.06369156
83	0x3e3bfdcf	0.18358539
84	0x3da3ac3d	0.07991836
85	0xbc97c385	-0.018525848
86	0xbe444041	-0.19165136
87	0xbe368b34	-0.1782654
88	0xbb3152e5	-0.0027057466
89	0x3e2427ca	0.16030803
90	0x3db216c6	0.0869575
91	0xbe0a92e1	-0.13532592
92	0xbda37db2	-0.07982959
93	0x3daee3d9	0.08539552
94	0xbe1ae6d2	-0.15127113
95	0xbccdf474	-0.025140978
96	0x3cb896b9	0.022532808
97	0xbe40ef13	-0.188412
98	0x3dcebff5	0.10095207
99	0x3d8593e8	0.065223515
100	0xbd84879a	-0.064711764
101	0x3e1e2435	0.154435
102	0x3e4c6e00	0.19963837
103	0xbd8d8969	-0.069109745
104	0xbc3acd04	-0.011401419
105	0xbe4b00c6	-0.19824514
106	0xbd94e41f	-0.07270073
107	0x3e6ddf16	0.23229632
108	0x3db793ec	0.08963761
109	0x3e4e8673	0.20168476
110	0x3e124b3d	0.14286514
111	0xbdc8490a	-0.09779556
112	0xbdabbcff	-0.083856575
113	0x3e60b3b2	0.21943548
114	0x3dd423f8	0.10358423
115	0xbe3cf5ca	-0.18453136
116	0xbe028f2a	-0.12749925
117	0x3c4d5df7	0.01253461
118	0xbe2af9c1	-0.16696836
119	0x3e423e97	0.18969189
120	0x3e2228b3	0.15835838
121	0x3d87589d	0.066086985
122	0x3de5292a	0.11189492
123	0xbd807703	-0.062727
124	0x3c3c84ec	0.0115063
125	0xbe49a48d	-0.19691677
126	0x3da30414	0.07959762
127	0x3dcca8c0	0.09993124
128	0x3ccc4ffd	0.024940485
129	0x3d0e7905	0.034783382
130	0x3deeae8e	0.116543874
131	0x3d5089ae	0.05091255
132	0xbd6561a0	-0.056001306
133	0xbdaab4aa	-0.0833524
134	0x3e29850a	0.16554657
135	0xbd49ab74	-0.049235776
136	0x3e164970	0.14676452
137	0x3e047445	0.12934978
138	0x3d673c7d	0.05645417
139	0x3df2c4f2	0.118539706
140	0x3e0effaf	0.13964723
141	0xbc48f7d3	-0.012266117
142	0xbdc89d29	-0.09795601
143	0xbdcc1038	-0.09964031
144	0x3dd47680	0.103741646
145	0x3ddfcf4d	0.10928211
146	0xbbdfe324	-0.006832497
147	0xbcbc66d2	-0.022998247
148	0xbc3fce16	-0.01170685
149	0xbd33e301	-0.04391766
150	0xbe041da3	-0.1290193
151	0x3d936c6a	0.07198413
152	0x3d18667d	0.037207115
153	0x3d08552e	0.03328436
154	0xbd1c9b3b	-0.038233977
155	0x3de6bb98	0.112662494
156	0x3dc18fc8	0.09451252
157	0x3da9046e	0.08252798
158	0xbba12b18	-0.0049184673
159	0x3daca74b	0.08430346
160	0xbe23a9ab	-0.15982692
161	0x3d72604b	0.059173863
162	0xbd890aa1	-0.066914804
163	0xbd5f1b89	-0.05446962
164	0xbe404cc3	-0.18779282
165	0xbca2db29	-0.019879894
166	0xbd150f15	-0.036391336
167	0xbe0b9a37	-0.13633047
168	0xbdb71eb2	-0.089414015
169	0x3e21438c	0.15748423
170	0xbd0b4fa9	-0.034011517
171	0xbe2782a3	-0.16358428
172	0x3ddfb358	0.10922879
173	0xbe2319df	-0.15927838
174	0xbe2f046c	-0.1709153
175	0xbc05a2d6	-0.008156499
176	0xbb83712c	-0.004011294
177	0x3cf9c144	0.030487664
178	0xbc63423e	-0.013870774
179	0xbe05aa97	-0.13053356
180	0xbcd7f454	-0.026361622
181	0xbdaf7552	-0.08567299
182	0x3e1d79a4	0.15378433
183	0xb8b0b029	-8.4251464e-05
184	0xbe190fdc	-0.14947456
185	0xbd805c37	-0.062675886
186	0x3dd4a503	0.10383036
187	0xbe0ae13e	-0.13562486
188	0x3dc6e4a5	0.09711579
189	0xbe1f388b	-0.15548913
190	0xbe2bdf30	-0.16784358
191	0xbd279629	-0.04091469
192	0xbd76b73a	-0.060233332
193	0x3baa56be	0.0051983288
194	0xbd159f9d	-0.036529172
195	0xbdb9c8e2	-0.090715185
196	0x3dec4bb8	0.1153788
197	0xbe33ae4d	-0.17546959
198	0xbccb47b1	-0.024814459
199	0xbdc3b946	-0.095568225
200	0x3d5adc1e	0.053432576
201	0xba05abf1	-0.00050991686
202	0x3cdad49f	0.026712714
203	0xbde5b809	-0.112167425
204	0x3c0cab36	0.008585742
205	0xbe0e1911	-0.1387675
206	0x3d170ebf	0.036879297
207	0x3d97bc5c	0.074089736
208	0x3e1fb0f5	0.15594848
209	0x3dc5960e	0.09647761
210	0xbdea2fa9	-0.11434872
211	0xbca138f4	-0.019680478
212	0x3d91f1ab	0.07126173
213	0x3df0442c	0.11731753
214	0x3d2dd1c3	0.042436372
215	0xb6bad654	-5.568183e-06
216	0xbe27472a	-0.1633574
217	0xbd889400	-0.06668854
218	0xbc479078	-0.01218044
219	0xbd210fd7	-0.039321747
220	0x3ddf40b6	0.109010145
221	0xbe1d643d	-0.15370269
222	0x3e0deb03	0.13859181
223	0xbd7496b7	-0.059714045
224	0x3d2df697	0.042471495
225	0x3e01b406	0.1266633
226	0xbde62818	-0.11238116
227	0x3de3d992	0.111254826
228	0xbd6c7bda	-0.0577353
229	0xbcf3b436	-0.029749017
230	0x3d9f3f09	0.07775695
231	0xbddae91f	-0.106889956
232	0x3e247904	0.16061789
233	0xbd4b4a3a	-0.049631335
234	0x3de221c2	0.11041595
235	0xbc898aea	-0.016789872
236	0xbe0b38a4	-0.13595825
237	0x3ce389ce	0.027775671
238	0xbd929816	-0.07157914
239	0x3dd5c841	0.10438586
240	0xbdcf4b3a	-0.1012177
241	0x3d45f9af	0.04833382
242	0xbe1c48b3	-0.15262108
243	0xbc8b8d11	-0.01703504
244	0xbc091d93	-0.008368867
245	0x3db365fb	0.087596856
246	0x3d47943d	0.048725355
247	0x3d984886	0.07435708
248	0xbe21e552	-0.15810135
249	0x3dc5fc12	0.09667219
250	0xbd4dbcf7	-0.05022904
251	0x3d27ce2d	0.04096811
252	0xbe0b7ead	-0.13622542
253	0x3d590cb1	0.05299062
254	0xbda79dce	-0.08184396
255	0x3e1b7283	0.15180402

bias f4 [10]
0	0xbe25c506	-0.1618844
1	0xbd729a02	-0.059228905
2	0x3b961e54	0.004581252
3	0x3d96c164	0.07361105
4	0x3e0c149f	0.13679741
5	0xbdaf01f5	-0.08545295
6	0x3d85ef14	0.06539741
7	0xbddfaf87	-0.10922151
8	0x3c542094	0.01294722
9	0x3d747a3e	0.05968689
