src/kiki_method1.pth (torch, 9782 bytes, 2 tensors)

weight f4 [64, 3, 3, 3]
0	0x3d73ad44	0.05949141
1	0x3e1720e5	0.14758642
2	0x3df25b1e	0.118337855
3	0xbda74774	-0.081679255
4	0xbd942b97	-0.072348766
5	0x3d494a9c	0.04914342
6	0xbe112158	-0.14172876
7	0xbe34006a	-0.17578283
8	0x3e15a0cb	0.14612119
9	0xbe044cc6	-0.12919912
10	0xbd5362f0	-0.051608026
11	0x3d7b6b9c	0.06138192
12	0xbcac0b08	-0.021001354
13	0x3cff03f8	0.031129822
14	0x3e07c973	0.1326044
15	0xbe11e3a6	-0.14246997
16	0x3d3742d0	0.04474145
17	0xbe2cb400	-0.1686554
18	0x3e028511	0.12746073
19	0xbe255b1a	-0.16148034
20	0x3d95817e	0.07300089
21	0x3e29f39b	0.16596834
22	0xbdd7816d	-0.10522733
23	0xbe164553	-0.14674883
24	0x3d3906cc	0.045172498
25	0xbe2622ec	-0.16224259
26	0x3d6b052c	0.05737798
27	0xbdaddcae	-0.08489357
28	0x3bfac860	0.007653281
29	0xbe10a0e2	-0.14123872
30	0x3d93c62a	0.07215531
31	0x3dc65c52	0.096855775
32	0x3ca42d18	0.020041034
33	0xbdaa0701	-0.08302117
34	0xbe10e7c1	-0.14150907
35	0xbe431a3c	-0.19052976
36	0xbdd1837e	-0.10230158
37	0xbddba8cf	-0.10725557
38	0x3ca2e610	0.019885093
39	0xbe276264	-0.16346127
40	0xbe1861b8	-0.14881027
41	0x3dbe99fe	0.093067154
42	0xbdccdcd1	-0.10003055
43	0xbd77d87c	-0.06050919
44	0x3e186e99	0.1488594
45	0x3e3b6411	0.18299891
46	0x3d9ee66e	0.07758795
47	0xbe044c0c	-0.12919635
48	0x3b176ec0	0.0023106784
49	0xbe1d6226	-0.15369472
50	0x3e3c8ea7	0.18413793
51	0xbab4b200	-0.0013785958
52	0xbc81e6a8	-0.015857056
53	0xba59ea00	-0.0008312762
54	0xbe19faa5	-0.1503702
55	0xbe2ab571	-0.16670777
56	0x3cfb2888	0.030658975
57	0x3e08b085	0.13348587
58	0x3dacfed2	0.084470406
59	0xbd315898	-0.04329738
60	0x3e1b5ff9	0.1517333
61	0xbc227520	-0.00991562
62	0x3df083f2	0.117439166
63	0xbe0ac7ad	-0.13552733
64	0xbde727ce	-0.11286889
65	0xbd81ff6e	-0.063475475
66	0x3d3b9b58	0.045802444
67	0xbe3c00d2	-0.18359688
68	0x3dd4ab0e	0.103841886
69	0xbe15c830	-0.14627147
70	0xbe2052e2	-0.15656617
71	0xbdde015d	-0.10840104
72	0xbd0ba760	-0.034095168
73	0xbe2fd5c0	-0.17171383
74	0x3c9a68a0	0.018848717
75	0x3e2e4f6f	0.17022489
76	0xbe0e35aa	-0.13887659
77	0xbd9ef26c	-0.07761082
78	0x3e40fd2f	0.18846582
79	0x3e076bdf	0.13224743
80	0xbdbc6106	-0.09198193
81	0xbdfe292d	-0.124101974
82	0xbdd7ee9b	-0.10543557
83	0x3e38ea11	0.18058039
84	0x3c949d68	0.018141463
85	0x3d499654	0.04921563
86	0x3e2b9c11	0.16758753
87	0xbe000562	-0.12502053
88	0x3da070ce	0.07834016
89	0x3d7c37a4	0.0615765
90	0x3dd52322	0.10407092
91	0x3d9ec18e	0.077517614
92	0xbde46b09	-0.11153228
93	0x3e10dee1	0.14147522
94	0xbe24d45f	-0.16096638
95	0x3e3c554f	0.18391918
96	0x3d792b0c	0.06083207
97	0x3ded36fa	0.115827516
98	0xbc035c40	-0.0080176
99	0xbdd98aa1	-0.106221445
100	0xbdd610e6	-0.10452442
101	0x3e367163	0.17816691
102	0xbc675e40	-0.014121592
103	0xbd4802e4	-0.04883088
104	0xbdd4f30c	-0.1039792
105	0xbd8b8f3e	-0.06814431
106	0xbe14efc1	-0.14544584
107	0x3e1fd729	0.15609421
108	0x3e01e501	0.12685014
109	0xbdef0b42	-0.11672069
110	0x3e1a4479	0.15065183
111	0x3e00e3dd	0.12586923
112	0xbd651b44	-0.055934206
113	0x3e0b0daf	0.13579439
114	0x3da90186	0.08252244
115	0xbe0f699f	-0.14005135
116	0x3d7ff6cc	0.062491223
117	0x3e0a9c33	0.13536148
118	0xbdb9a745	-0.09065107
119	0x3deaf23e	0.11471985
120	0xbdd700fb	-0.10498234
121	0xbe432bcc	-0.19059676
122	0x3e3b943f	0.1831827
123	0x3d5e9348	0.054339677
124	0x3d34d81c	0.04415141
125	0xbe127d64	-0.14305645
126	0xbda15128	-0.078768075
127	0xbd5ea0d8	-0.05435261
128	0xbd2aee58	-0.04173121
129	0x3d131648	0.03590992
130	0xbe1924b3	-0.14955406
131	0xbd9670d9	-0.07345743
132	0x3e278025	0.16357477
133	0x3ddf10fa	0.1089191
134	0x3dc02a5a	0.09383078
135	0xbb317380	-0.00270769
136	0xbb6ab240	-0.0035811812
137	0xbdcf4c5a	-0.10121985
138	0xbc4fe880	-0.01268971
139	0xbe168eb4	-0.14702874
140	0x3e292e3f	0.16521548
141	0xbdf0c463	-0.11756208
142	0xbdaa6a36	-0.083210394
143	0x3d9a9202	0.0754738
144	0x3d90245e	0.070381865
145	0xbd9816b6	-0.07426207
146	0x3dbec262	0.09314419
147	0xbcab6530	-0.020922273
148	0xbe017043	-0.1264048
149	0x3e38221f	0.17981766
150	0x3dade6e2	0.08491303
151	0xbd78cf54	-0.0607446
152	0xbd7eab54	-0.06217511
153	0xbde71fa6	-0.11285333
154	0xbd5f2d1c	-0.05448638
155	0xbb06d940	-0.0020576268
156	0x3d8ebd96	0.069697544
157	0x3cdc4858	0.026889965
158	0xbdbf6e99	-0.09347267
159	0x3e1b3843	0.15158181
160	0x3e24f39d	0.16108556
161	0x3e0999b7	0.13437544
162	0xbde62e4b	-0.112392984
163	0x3df458da	0.119310096
164	0xbe219be4	-0.15782124
165	0x39cad400	0.00038686395
166	0xbd0d7d7c	-0.0345435
167	0xbcf1edb8	-0.029532298
168	0xbc549040	-0.012973845
169	0xbd26673c	-0.040625796
170	0x3e3d4987	0.1848508
171	0x3e435a05	0.19077308
172	0x3d189c84	0.03725864
173	0xbc2729c0	-0.010202825
174	0xbd989ef7	-0.07452195
175	0x3da7c6e6	0.08192234
176	0x3c5f6850	0.01363571
177	0x3c5f6800	0.013635635
178	0xbe33adb8	-0.17546737
179	0x3e064e4d	0.13115807
180	0x3d8d9e6a	0.06914981
181	0x3e23e965	0.16007002
182	0xbc8127a8	-0.01576598
183	0x3e047dbd	0.1293859
184	0xbe1a7433	-0.15083389
185	0x3cd71858	0.026256725
186	0x3b996860	0.004681632
187	0x3d115db8	0.035489768
188	0xbde497be	-0.11161755
189	0xbdfa3f0a	-0.12219055
190	0x3c52a2e0	0.012856215
191	0xbe3af756	-0.18258414
192	0x3d491eb8	0.04910156
193	0x3d9c6a8a	0.07637508
194	0x3d66cc9c	0.056347474
195	0xbe296eda	-0.16546193
196	0x3dcc079e	0.0996239
197	0xbdf6b3b2	-0.12045993
198	0xbd739c44	-0.0594752
199	0x3d4fb204	0.05070688
200	0xbd36bc7c	-0.044613346
201	0xbd0f7f1c	-0.03503333
202	0x3d3cb44c	0.046070382
203	0xbe432a8a	-0.19059196
204	0xbb800460	-0.0039067715
205	0x3c811858	0.015758678
206	0xbdf5e268	-0.12006074
207	0xbdde399b	-0.10850831
208	0xb9f12e00	-0.00046001375
209	0xbe0b92f7	-0.13630281
210	0x3de2435e	0.110480055
211	0x3e0b2b99	0.1359085
212	0xbdf41409	-0.11917884
213	0xbe14e7bc	-0.14541525
214	0x3e0b8a0f	0.13626884
215	0x3e0b017f	0.1357479
216	0x3db40cce	0.08791505
217	0xbe0090f7	-0.125553
218	0x3e2f5a2f	0.17124246
219	0x3dcfa5ca	0.10139044
220	0x3db7f92a	0.08983071
221	0xbd94118f	-0.072299115
222	0xbe1cabf2	-0.15299967
223	0xbde5ba64	-0.11217192
224	0x3d11dd28	0.0356113
225	0x3e2c6bf1	0.16838051
226	0xbd898922	-0.06715609
227	0xbe308098	-0.17236555
228	0x3d81786e	0.06321798
229	0x3de1b8f6	0.110216066
230	0x3d8417f6	0.06449883
231	0xbd021b14	-0.031764105
232	0x3bc45320	0.0059913546
233	0x3d9dfaca	0.0771385
234	0x3e2e7a49	0.17038836
235	0xbc417c50	-0.011809424
236	0x3d6ae854	0.05735047
237	0x3da878f2	0.082261935
238	0xbe1929b2	-0.14957312
239	0x3d679984	0.05654289
240	0xbcd96ca8	-0.02654107
241	0x3e05430f	0.13013862
242	0xbb6275c0	-0.0034555048
243	0xbe1351c1	-0.14386655
244	0x3dcbc012	0.09948744
245	0x3d5e3f14	0.054259375
246	0x3dc153e2	0.094398275
247	0x3df3bd1a	0.11901303
248	0x3d424e2c	0.04743783
249	0xbd5c5df4	-0.05380054
250	0xbd991403	-0.0747452
251	0xbe355ba1	-0.17710735
252	0xbdb19526	-0.08671026
253	0xbe313297	-0.17304455
254	0x3dcba8da	0.09944315
255	0x3bc76980	0.0060855746

bias f4 [64]
0	0x3d13db08	0.036097556
1	0xbd987d0f	-0.07445728
2	0x3d41d634	0.04732342
3	0xbe0ddd38	-0.1385392
4	0x3d00cc3c	0.031444773
5	0xbd1adc30	-0.037807643
6	0xbdb658f2	-0.08903684
7	0x3de602aa	0.11230977
8	0x3d5a7ef4	0.05334373
9	0xbdaf568e	-0.08561431
10	0x3db9fea6	0.090817735
11	0xbe44e1a3	-0.19226699
12	0x3e0eb93b	0.13937847
13	0xbd28d284	-0.04121639
14	0xbe0e1460	-0.1387496
15	0xbe22130b	-0.15827577
16	0x3d050d24	0.032483235
17	0xbdad3ce2	-0.08458878
18	0x3dacd38e	0.08438788
19	0x3e137483	0.14399914
20	0x3dfd4586	0.12366776
21	0x3d2d8a04	0.04236795
22	0x3da53122	0.08066012
23	0x3e322f01	0.17400743
24	0x3d8db6da	0.06919642
25	0xbe17a1d4	-0.14807826
26	0x3e35046f	0.17677473
27	0xbe096c73	-0.13420276
28	0x3d31d32c	0.04341428
29	0xbd541390	-0.05177647
30	0xbe114e9d	-0.14190145
31	0x3dceda46	0.10100226
32	0xbc696970	-0.01424633
33	0x3da469f6	0.08028023
34	0x3e074b9d	0.13212438
35	0x3cccad38	0.02498494
36	0xbda707bd	-0.08155773
37	0x3e16d47d	0.14729495
38	0x3d6d5584	0.057942882
39	0xbd6a7fe4	-0.057250872
40	0xbe2e783e	-0.17038056
41	0x3ab36b80	0.0013688654
42	0xbcf3a2a0	-0.029740632
43	0x3e2d05d3	0.16896753
44	0x3dc2e4e6	0.09516315
45	0xbe1bff9e	-0.15234229
46	0xbdcc25e1	-0.09968162
47	0x3d750424	0.059818402
48	0x3e0431dd	0.12909646
49	0x3d0c5598	0.034261316
50	0x3cf78de8	0.030219033
51	0x3e0f772b	0.14010303
52	0x3e17e295	0.14832528
53	0x3d7ac0f4	0.06121917
54	0xbd4a8544	-0.0494435
55	0xbdf69718	-0.120405376
56	0x3d74b10c	0.059739158
57	0xbe2f4af7	-0.1711844
58	0x3c16a0c0	0.009193599
59	0xbbae0640	-0.0053108037
60	0x3c59cd30	0.013293549
61	0x3c3652a0	0.011128098
62	0x3e41e061	0.1893325
63	0x3da6b4aa	0.08139928
