src/kiki_0.pth (torch, 588714 bytes, 10 tensors)

weight f4 [32, 3, 5, 5]
00000000: 5dce 83bd 1566 8ebc 164c ebbd 368f dabd
00000010: 6b98 193c 6743 ad3c 1c4a 213d e9c3 c9bd
00000020: baa3 c03d 069c 4dbd 0737 323d 9281 e7bd
00000030: eb14 213d d7c8 963d 4989 a8bc bc44 e7bc
00000040: 413c 873d 6e50 a3bd 7ab7 033d 2d77 763c
00000050: c08d 343d 5da5 cbbd 1c3e 48bd 8552 9e3c
00000060: b944 acbd 76fa 793d 247f b43d 18f6 19bd
00000070: 3635 253d 25df 97bd d70f 523d 00db af3d
00000080: 906c fbbc 58cf bc3d 8864 bdba fb2a b8bd
00000090: cf75 c23c 0c7b 493d 25a5 8bbd 2e78 31bd
000000a0: b0ba c43d 96f8 eabd 44a3 973c 1a39 c5bd
000000b0: acd0 323d 6acc f2bc 4093 febd 4b6b a6bc
000000c0: 1215 ebbc b4dc 89bc 600f ed3d f287 ae3c
000000d0: abc9 f93d cb2b 91bb f17a b63d e6d3 c3bd
000000e0: 8817 5d3d 200b 4c3c 9115 ac3d 2053 b5bd
000000f0: b1b6 77bd 7e9e 643d 8ac2 de3d 1b3a 24bd
00000100: 3d75 24bd ea24 993d 7724 363d eddc 5e3d
00000110: 8758 3b39 06aa 943c fb1f b83d dfc1 5fbd
00000120: bf01 0b3d d1c0 633d 574d bebd 29d2 17bc
00000130: ecaa c03c dd2e 20bd be93 8e3b 57ef 513c
00000140: 4eda 223d b4ba de3d a7e8 b43d f998 e5bd
00000150: 0654 dabd b9a0 5d3d b01f cd3c 3916 e0bd
00000160: 54d4 d6bc b00a d0bd 6bd9 a2ba 0230 47bd
00000170: f5e5 94bd 8cfb a83d 2e5f ed3d 96f2 f83d
00000180: 2c3b af3d cc02 f9bc ee70 8f3c 5ab0 bb3b
00000190: 7854 4cbd d6be a3bd b28e f23c 948b b6bd
000001a0: 350e 65bc f8f2 9fbd db3d 98bd 41c5 dd3c
000001b0: 1453 aabd 252e efbd 8570 d83d 4a86 5fbd
000001c0: 239b b0bd 93fb 54bc 66ca d9bd dc86 23bd
000001d0: cd0d 14b9 a7e3 b5bd 0cbe 323d b0d7 603c
000001e0: b6d8 40bd 43fa cf3c 6720 e13d 3324 e1bd
000001f0: 3892 d6bc 64a1 babd a019 563c 58a3 973d
00000200: fe29 fcbd 8d05 11be da2e 463d efe5 b9bd
00000210: e914 403c e55e 133d e05e 813d 0960 67bd
00000220: b735 fbbb 513b 823b dc5a 38bd ab8a 10be
00000230: a816 283d 15b3 efbd 5a74 d5bd 0080 913c
00000240: 2aa5 05bd 3845 e3bc 76f9 56bd 2256 79bd
00000250: 1cae c8bc 9d3e 643d 5971 183d 8a89 093c
00000260: 94d3 d5bd 1bbf 9e3d 5481 cf3d c6af 91bd
00000270: 460f a33d 5edf 593d 3ce6 c5bd 36ef cdbd
00000280: 7f98 12bd faa7 7c3d c0cd 52bd 5cfe d9bd
00000290: b2a9 cebc e509 18bd 0c6a 10bc 196a d2bd
000002a0: cc2c b53d 9d6c c53c 023a 59bd a53a a3bd
000002b0: 983f 5f3d f89e ec3d 83d9 aa3c c3da 923d
000002c0: 0791 91bd 012e e73c e32d b0bb a794 ebbd
000002d0: 45ed d4bd aaee aa3d 78ee 9cbd 254b ac3d
000002e0: 0ff2 b7bd b62d f03c 25d8 08bd 8683 a0bd
000002f0: c4ca 903d 4474 3cbd df6a c53c 8411 76bd
00000300: 2a0a cdbd eb3d bdbd 4f82 9fbd cb7e f1bd
00000310: 91fc 483d 2891 b93d 1457 c33c 7d54 343d
00000320: 503a afbd 66c5 43bd 4485 a93d c28e 85bd
00000330: 43a4 b13d fe59 0cbc 0f84 ed3c bb79 b63d
00000340: 7e33 cd3d 3625 09bd c264 39bd 6509 babd
00000350: b48c 9b3d ea9e a33d 13c9 acbd 4cff c9bd
00000360: ee4f 90bc ebe7 30bc efc7 723b ea20 58bd
00000370: ce9c c8bd bd67 853c 3389 413c b642 d4bd
00000380: 7bb3 783c 1363 b0bd e935 673c 13d6 383d
00000390: ae2a c53b 33a6 e43c 8a0a cb3d 0930 133c
000003a0: effc a73d 0030 9cbd 95c0 c03c f7c9 d7bd
000003b0: fb40 e2bd 4958 0cbd 1653 86bd ffbc 013d
000003c0: 8d3d 0a3c 977a b2bd ee4f 943d 3b47 d13d
000003d0: 7f27 c2bd a509 7a3d ac9a c03d 93a3 5a3d
000003e0: 1339 293d b989 b33d 150e e33c c369 bcbd
000003f0: b052 8cbb 77a9 863d d9b3 9dbd 2927 8bbd
-0.06435845 -0.01738266 -0.114891216 -0.106718466 0.009374718 0.021150304 0.039377317 -0.0985182
0.09406228 -0.050197624 0.04350951 -0.113040105 0.03932659 0.07362526 -0.020573275 -0.028231017
0.066032894 -0.07974325 0.0321574 0.015043062 0.044080496 -0.0994365 -0.048887357 0.019326458
-0.08411545 0.061029874 0.08813313 -0.03758821 0.04033395 -0.07415608 0.051284637 0.08586693
-0.030691415 0.09219235 -0.0014449516 -0.08992573 0.023737816 0.049189612 -0.06818608 -0.043327503
0.0960592 -0.11473195 0.018510468 -0.09630032 0.043656036 -0.029638488 -0.124304295 -0.020314833
-0.02869657 -0.016828872 0.11575198 0.021305058 0.12196668 -0.0044302694 0.08910168 -0.09561901
0.05397752 0.012453824 0.08402551 -0.088537455 -0.060476962 0.055815212 0.10876949 -0.040094476
-0.04015087 0.07477744 0.04446837 0.05440991 0.00017866689 0.01814748 0.08990475 -0.05462825
0.033937212 0.055603806 -0.09292095 -0.009266415 0.023519002 -0.039107192 0.0043511083 0.012813411
0.039758973 0.108754545 0.088334374 -0.11210818 -0.106605574 0.054108355 0.025039524 -0.10941739
-0.026224293 -0.101582885 -0.0012424415 -0.04862977 -0.07270423 0.08251104 0.1159042 0.121556446
0.08556208 -0.030396841 0.017509904 0.00572781 -0.049885243 -0.079953834 0.029609058 -0.08913341
-0.013980438 -0.078100145 -0.07433673 0.027071597 -0.08316627 -0.11678723 0.105683364 -0.054571427
-0.0862334 -0.012999433 -0.106343076 -0.039923534 -0.00014119521 -0.08881312 0.043638274 0.013723299
-0.04708167 0.025387889 0.109925084 -0.109932326 -0.02619277 -0.09112814 0.013067633 0.07404202
-0.12312697 -0.14162274 0.048384525 -0.090770595 0.011723735 0.03597917 0.06316924 -0.05648807
-0.0076663154 0.003974356 -0.045008525 -0.14115398 0.04103723 -0.11704079 -0.10422583 0.01776123
-0.032628216 -0.027742967 -0.052484 -0.06087316 -0.024497084 0.055723775 0.03721747 0.008394608
-0.10440746 0.07751294 0.10132089 -0.07113604 0.079618976 0.053191535 -0.09663054 -0.100553915
-0.035789963 0.061683632 -0.05146575 -0.10644218 -0.025227401 -0.03711881 -0.008814346 -0.10274143
0.08846435 0.024099642 -0.053033836 -0.0797017 0.054504007 0.115537584 0.02085567 0.07170632
-0.0710774 0.028220179 -0.005376564 -0.115029626 -0.10396818 0.08346303 -0.07662672 0.0841277
-0.08981716 0.029318672 -0.033409256 -0.07837586 0.070699245 -0.046009317 0.024098812 -0.060075298
-0.10011704 -0.092403255 -0.07788526 -0.11791762 0.04906899 0.090608895 0.023845233 0.044025887
-0.08556044 -0.047795676 0.082773715 -0.065213695 0.086739086 -0.008566378 0.028993635 0.08909937
0.10019587 -0.033482753 -0.045262106 -0.09083823 0.07595196 0.07989295 -0.08436789 -0.09863147
-0.017616238 -0.010797481 0.003704544 -0.052765764 -0.09795533 0.016284818 0.011812496 -0.103642866
0.01517951 -0.08612647 0.014111974 0.045126032 0.0060170507 0.027911281 0.099141195 0.00898362
0.0820254 -0.07626343 0.02352933 -0.105365686 -0.1104755 -0.034263883 -0.06558816 0.03167438
0.008437526 -0.087147884 0.07241808 0.10218664 -0.094801895 0.061044354 0.09404501 0.053378653
0.041314196 0.08766503 0.027716676 -0.0919986 -0.004282318 0.065752916 -0.07700319 -0.067945786

bias f4 [32]
00000000: 3301 ac3d b8c2 2e3e 838b 0c3e 7a82 7cbd
00000010: 672f d6bd ea8d f83b 0345 abbd 0d05 86bd
00000020: ea26 0e3d f135 1cbd 8ac9 07be 76dd 1f3d
00000030: 6eff 633d 5edd 913d a17a c73c d8c9 9bbd
00000040: bb90 e23d 1bdf 5fbc d220 173d ca73 823d
00000050: debe f7bd 3192 963d 2bce d13c 6146 263e
00000060: aa38 0e3e 2fc7 abbd fdd9 b9bd d848 85bd
00000070: 9e5d 003d f7ea 703d e68b 9cbb d1c3 afbc
0.08398666 0.17066467 0.13725094 -0.06164787 -0.1045826 0.007585277 -0.08362772 -0.06543932
0.03470508 -0.03813738 -0.13260475 0.03902956 0.05566352 0.071223006 0.024350466 -0.07606858
0.110627614 -0.013664032 0.036896534 0.06369741 -0.12096952 0.073521025 0.025611004 0.16237785
0.13888803 -0.08387601 -0.09074781 -0.065080345 0.03133928 0.05881783 -0.0047774194 -0.021455677

weight f4 [32, 32, 5, 5]
00000000: 89f9 983c b587 92bc 034b 723c a600 acbc
00000010: be51 fc3c 4263 d0bc 4a0d 41bc 0ebd abbc
00000020: 99ba 0fbd 1a61 a4bc 6325 0dbd 1c79 dbbc
00000030: 21fc 63bc 32c4 04bc 82b3 01bd 7a80 9fbc
00000040: de92 f93c 3757 ea3c f7d0 2ebb c0b6 cdbc
00000050: 1e50 fa3c 9970 e4bc fb04 fb3c 5ed7 6a3c
00000060: 244f f6bc fc9c a5bc 2364 dc3c e17b 193d
00000070: a49b 05bd c578 30bc 086c 443b 2cef 77bc
00000080: 38e2 1a3c 403c b23c 7d6e fcbc 1183 a23c
00000090: ff60 273c fbb7 dc3b a934 04bd aed9 fabc
000000a0: c9d1 93bc b3ab f43c 7008 55bc 7dc3 73ba
000000b0: 953b e93c e902 3e3c 16fb eabc 614b 093d
000000c0: 89a4 67bc baf1 7fbc 9b97 ea3a c1af a6bc
000000d0: 664a 2e3c c86d 63bb af32 d4bc fd39 06bd
000000e0: da51 0ebd c299 18bc fa28 94bc d491 433c
000000f0: 71de 1d3c c491 933a ded3 3a3b 4d60 8b3b
00000100: 5710 a0bc 568a 89bc 0269 0a3c ca3e 1c3c
00000110: 88ec 753c 1303 45bb 7f1f f63c 41b0 ba3c
00000120: 0977 31bc 7323 f23c 435d f6bc 97b8 a1bc
00000130: 42d6 093b 9422 46bc 93c3 8ebc c6d4 a4bc
00000140: b060 603c 7064 3bbc c343 45bc a5bb b43c
00000150: cc09 293c 1265 0fbc 424f 2fbb 1ead 8abc
00000160: 569b 9b3c 1e1d 023d a948 783b fc22 253c
00000170: 2d69 59bb a189 7dbc 4459 7d3b 961b cdbc
00000180: bc13 073d 1a2a d13b 8d56 0abd 0b0b 8bbc
00000190: 6875 9dbc cb80 f4bc 3cc3 be3c b151 c6bc
000001a0: 0cac ef3c 1fb7 bd3c 3d6d 8b3c f93f 873b
000001b0: b47a 91bc e6ec d23c 6e50 a3bb 77a7 10bd
000001c0: da33 953b 124f 0dbd 7ce9 f2bb 613e aebb
000001d0: c94e bf3c 7d61 c9b9 5328 2d3a 949e a83c
000001e0: 8e0c 1e3c 89e9 fbbc d871 423c a826 3e3c
000001f0: 0b25 23bc f2f4 043d bf6d e23c 1b8f cd3c
00000200: 9e4e ee3c d767 42bb 8063 d3bc 8f39 ea3c
00000210: d368 1e3d 2a38 cd3c 8e34 dd3a cb53 db3c
00000220: 5a6c e5bc 65fc 753c 68ce a93c 83cc f23a
00000230: a4d5 923c 04a6 8dbc f590 e73c fb0b 6c3c
00000240: 6084 fabc cbe8 e03c fd56 f93c 903f f43c
00000250: 4a31 353c 7042 5cbc f6ff fdbb b1d8 8c3b
00000260: b87c ae3b 1d3f edbc a74d e13c b867 153c
00000270: 7ecd a1bc b3a0 ffbb aa13 ca3c eb0e 1f3a
00000280: b42b 4ebc 6c16 01bd 1c4a cdbb d638 403c
00000290: f47c c53c 123c bc3c 2d3f 003d 6fda eabb
000002a0: 01ec f23c 87ad 6cbb da98 bcbc ff02 fa3c
000002b0: ff8b 163d 6dc2 5abb c6d9 3c3c bbf0 d33b
000002c0: e342 9ebc 648c 2abc 7aee c33b ccab a8bc
000002d0: dc6a 4dbc 3252 01bd e48b 29bc e2db 973b
000002e0: 5373 273b 9259 053c e4b7 79bc e2c4 d93c
000002f0: 042c d6bc fffe d7bc 32c1 0f3d d34d aa3c
00000300: 10e0 0a3d d7a2 3dbc 8f71 2abb f737 afbc
00000310: 7c05 00bd 2c2b 23bc a763 dc3c e454 6bbb
00000320: 4383 833c 8ae2 cf3c 1346 91bc d8e8 c9bc
00000330: 92bf 993c 1590 f6bc 0b09 333c 235c 14bc
00000340: 8536 1dbc 96a2 fdbc 7629 c83c 551b e73b
00000350: 9003 d43b a5d6 12bc b355 68bc 48d6 9abc
00000360: cef2 1b3c ecc6 8b3c c254 9cbb 57e5 6fbb
00000370: 1294 4f3c c695 36bc d10a 3d3b 78e9 07bd
00000380: f78e 2c3c 10f8 8ebb 372d 0d3c 4cb4 98bc
00000390: 877a 60bc a878 19bc daac e33c 200b 9b3c
000003a0: a281 93bb f133 173c 09b3 03bd c089 5cbc
000003b0: 924b 813c 5994 223c ed1e 75ba df14 34bc
000003c0: 7f58 9d3c 4395 08bd 38fe 883b 3bce b9bc
000003d0: d5ba f03b 4907 48bc e1e4 49bc 6a3a cbbc
000003e0: 5d70 e13b b4c0 8cbc 231c 813a 3274 cabc
000003f0: 7d82 863c 78e5 ddbc 1d51 13bc 45d0 a0bc
0.018673675 -0.017886976 0.014788392 -0.020996403 0.030800696 -0.025437955 -0.0117829535 -0.020964172
-0.035090063 -0.020065833 -0.034459483 -0.026791148 -0.013915093 -0.008103417 -0.031665333 -0.019470442
0.03046554 0.02860604 -0.0026674846 -0.025111556 0.030555781 -0.027885722 0.030642023 0.014333574
-0.030067034 -0.020216458 0.026903218 0.037471656 -0.032619134 -0.010770981 0.0029971618 -0.015132707
0.009453349 0.021757245 -0.030814404 0.019837888 0.010215997 0.0067357994 -0.032276783 -0.030621376
-0.01804437 0.029867029 -0.0130025 -0.00092988444 0.028470794 0.0115973735 -0.02868418 0.033519153
-0.014138349 -0.015621597 0.0017897965 -0.020347478 0.010637855 -0.0034702886 -0.025903074 -0.032770146
-0.03474603 -0.0093140025 -0.018085945 0.011936624 0.009635554 0.0011258652 0.002850763 0.0042534233
-0.019539041 -0.016789597 0.008447887 0.009536454 0.015010007 -0.0030061647 0.030044315 0.022789123
-0.010831603 0.02955792 -0.030073768 -0.01974134 0.0021032249 -0.012093205 -0.017427241 -0.02012099
0.013694927 -0.01143752 -0.012040081 0.022062132 0.010317277 -0.008752124 -0.0026750122 -0.016928252
0.018994968 0.03176605 0.0037885106 0.010079142 -0.0033174262 -0.015474708 0.0038657943 -0.025037568
0.032977805 0.0063831927 -0.033773948 -0.01697304 -0.019221023 -0.02984657 0.023286454 -0.024208875
0.029256843 0.023158608 0.017019862 0.004127499 -0.017758705 0.025747728 -0.004983953 -0.035315957
0.0045533003 -0.034499235 -0.0074130874 -0.0053174947 0.023352997 -0.00038410342 0.0006605435 0.020583428
0.009646548 -0.030751007 0.011867963 0.011605896 -0.009957562 0.03246016 0.027640222 0.025092652
0.029090222 -0.0029663944 -0.025804281 0.0285919 0.038674187 0.025051195 0.0016876624 0.026773354
-0.028005768 0.015013789 0.020728305 0.0018524084 0.017924137 -0.017291076 0.028267363 0.014407153
-0.0305807 0.027454754 0.030436987 0.029815465 0.011059115 -0.013443574 -0.00775146 0.0042982926
0.005324926 -0.028960759 0.027502848 0.009118967 -0.019751307 -0.0078011393 0.02466758 0.00060675916
-0.012583662 -0.031515524 -0.006264938 0.011732301 0.024107434 0.022977863 0.03131025 -0.0071671526
0.029653551 -0.0036114173 -0.023022104 0.030519007 0.036754604 -0.0033380047 0.011526531 0.0064679063
-0.019319003 -0.010409448 0.0059793564 -0.020589732 -0.012537684 -0.03157253 -0.010348294 0.0046343664
0.0025550916 0.008139031 -0.015241597 0.026583139 -0.026144035 -0.026366709 0.035096355 0.020789063
0.03390509 -0.011574469 -0.0026007628 -0.02138899 -0.03125523 -0.009959023 0.026902987 -0.0035908753
0.016053801 0.025376577 -0.01773361 -0.024647161 0.018768106 -0.030098 0.010927449 -0.00905517
-0.009595518 -0.030961316 0.024433833 0.007052819 0.0064701512 -0.008962308 -0.014180589 -0.018901005
0.009518338 0.017062627 -0.004770846 -0.0036605203 0.01266958 -0.011144107 0.0028845558 -0.033181638
0.010532132 -0.0043630674 0.008616737 -0.01864066 -0.013701088 -0.009367146 0.027792383 0.018926203
-0.0045015374 0.009228692 -0.032153163 -0.0134605765 0.015783105 0.009923064 -0.00093506166 -0.010991304
0.019207237 -0.033345472 0.004180696 -0.022681346 0.007346491 -0.012208768 -0.012322635 -0.024808127
0.00687985 -0.017181732 0.0009850304 -0.02471361 0.016419644 -0.027086958 -0.008991507 -0.01963056

bias f4 [32]
00000000: 2712 223d 3ce7 07bd 3535 843c 8ba1 0f3d
00000010: 1fba 6fbd 76f1 acbc 02c9 753c cb27 4b3d
00000020: 7985 ef3c bffd 863c ae95 253d 08ee 063d
00000030: bd83 0abd 915c 7e3c c6e0 12bc 8c9b c9bc
00000040: e2dd aa3c e9a8 6b3c 2b64 413c 297b 733c
00000050: 6177 a9bc 03ad 013d 1786 f2bc a6a1 ca3c
00000060: 75ce d0bc 4811 0ebc e2c9 61bc b865 9cbb
00000070: 5d24 d83c 62a5 1c3d 3bbd 043c 5478 63bc
0.039568093 -0.033179507 0.016138652 0.03506617 -0.05852711 -0.021111231 0.015001537 0.049598496
0.02923845 0.016478417 0.04042595 0.032941848 -0.03381704 0.015524999 -0.008964723 -0.024610303
0.020857755 0.014383533 0.011803667 0.014860907 -0.020686807 0.031659137 -0.029604955 0.024735283
-0.025489071 -0.008671112 -0.013781043 -0.004772868 0.026384527 0.03824366 0.008101757 -0.013883669

weight f4 [64, 32, 5, 5]
00000000: 226d 803c 47a9 5a3c 9bc4 443c 06f3 4bbc
00000010: 2f99 cebc 3a0f 88bc 9143 74bc 1c49 cfbb
00000020: f662 cf3b 92d2 b63b 873c be3c 7965 9ebb
00000030: b59d d8bc 17bb 803c 8517 223c cd8c 6ebc
00000040: bdad bd3c 2dc5 723c 7202 073d b4ce 26bc
00000050: 616d b8bc 94e9 fdbc 8bcc 54bc 8d0b 7ebb
00000060: 0688 d63b cf0b 50ba 2939 eabc 98b6 e83c
00000070: 984d f33c 3f03 babc fae4 53bb 735a 95bc
00000080: 6c73 87bc f71f 473b d948 adbc 5b8d 66bc
00000090: a2c2 c73b 7253 d0bc 752f bc3c f8c1 363c
000000a0: 2eb7 c7ba 899f e43c 32f9 f0bb 7ceb 723b
000000b0: 439c 2d3a 2fc0 0bbd 7fdc e83c bbf6 953c
000000c0: a3e7 31bc 36e4 803c d006 abbc c915 15bd
000000d0: adb5 b8bc 03de d3bb 44bc 85bc 95bc 923c
000000e0: 34ca 5bba b250 1bbd 99ec 293c 3779 75bc
000000f0: e967 853b 0197 133d 7542 5d3c 81b3 88bc
00000100: 8593 7cbc 2fbe 8bbc ba0e 1c3d c835 663c
00000110: 4536 8ebb c53a 933c 3ab7 fbbb 5eaa e43a
00000120: a6dd 6a3c 90c9 a93b 929f 843c 13f0 8a3c
00000130: 0a30 86bc 85d6 d23c bd9b 883c 94c7 b1bc
00000140: e7ae fc3c 107f 80bc 1ed9 933c 3d7a 61bb
00000150: 31e0 cbbc bd18 11bc f925 d83c d63c ef3c
00000160: a9a7 913b cf4f c6bb 2ab4 12bd 146a e2bc
00000170: f5e8 b13b ca1c c7bc 68c5 aebc 8061 e53c
00000180: d083 32bc a243 ddbc 0918 3bbc 73f7 c83c
00000190: 989e b63a 57d5 c1b9 b4e1 cfbc 7618 843b
000001a0: 2e82 b03c db65 dd3b ac50 a0bc ff9a 3d3c
000001b0: 2b3d 02bd 9f15 893c e20c 1f3b 8d19 c1bc
000001c0: f2e6 11bb 0c45 dcbc 247c 5e3c 5066 a83c
000001d0: be22 70bc adbe a03b 1790 df3c 0574 043d
000001e0: e7f4 003c e481 7e3a 2b3f 12bd ddf0 eebc
000001f0: b61e 20bd dc5d 81bc 775e 0d3d 0580 03bd
00000200: 8fb2 fbbb c712 07bd e149 0c3d 0676 9abc
00000210: 7c5c 8fbc 1437 7d3c 14c1 a0bc db87 98bc
00000220: 000e 11bd 4b68 c33a 3878 b2bb 6ebd 323c
00000230: 666b 4c3c 0b79 aebc dcdd a3bc d33a 30bc
00000240: aa54 62bc 96c8 b5bc 290a bbbc 3f6e 0abd
00000250: 8ea3 0ebd 0949 a2bc 496f c9bc 5ccd b3bc
00000260: 4a44 d43c cbc2 f73c 64ee 763c 8f16 c6bc
00000270: f6eb b43c 627f 08bd 6097 03bd f6aa e2bc
00000280: 2cb4 e63c 9ca6 00bd a719 3a3c 8615 943c
00000290: f3f3 5ebc 2b6a 373b 53f2 fa3b 3392 37bc
000002a0: 5a75 62bc bd6d 603c 2396 a2bc 6fe4 213c
000002b0: fbe6 f2bc ead2 9dbc 486e cfb9 9c6d fb3c
000002c0: a298 fb3c 349f aa3c d389 25bc 46d3 9fbc
000002d0: f519 7abc ad76 b9bb dd63 0cbd 221a fcbc
000002e0: 1489 ef3c ce2b 03bd 24ff fb3b fa9e 11bb
000002f0: 9c1d 863c c68c 26bc 905e 60bc b3e7 9f3c
00000300: 7b84 eebb 1759 11bb 5f08 983a b09e 0b3d
00000310: 0fd7 0bbd 800c bd3c f786 adbc 6baa 09bd
00000320: 2688 d83c 315a 1f3c 4473 ca3c 1cb0 133d
00000330: 9c63 0abc 513a 603c 31f1 5abc 2807 4a3c
00000340: 07dc bf3c 5b53 3dbc 81f8 003c 1fa0 b6bc
00000350: 10f2 76bc 0221 953b 9433 cdb9 1f03 8c3c
00000360: 3571 d63a d14a 78bc 5615 58bb 646e 07bd
00000370: 1daf f63c 6855 4c3c 6fc5 c5bc c499 d4ba
00000380: 8749 763b 1a6f a2bb 9996 f23a f39a a4bb
00000390: a2f3 053d 3c87 90bc b522 07bd c532 f43c
000003a0: 983d 32bc 9d34 fdbb 713e e4bc 5198 02bd
000003b0: 2737 0c3c 3169 febc f97d d8bb d3c1 dabc
000003c0: 14d9 04bd 45c0 ac3c 6745 953c a54c d13c
000003d0: c480 b0b9 418a 823c 7cbe f1bc 5874 ad3c
000003e0: 93d7 943c 1ae1 5e3c 0681 e2bb e9dd ee3c
000003f0: 68cf 74bc c9d2 873c 1f7c 0fbd 3049 85bc
0.015677039 0.013346023 0.012009765 -0.012448078 -0.025219528 -0.016608823 -0.014908687 -0.006325854
0.0063289357 0.005579301 0.023222221 -0.004833874 -0.026442388 0.015714211 0.009893303 -0.014559937
0.023154134 0.014817518 0.032961316 -0.010181118 -0.022513093 -0.030995168 -0.01298822 -0.003876421
0.006546977 -0.000793633 -0.02859171 0.02840738 0.029700086 -0.022706626 -0.0032332526 -0.018231606
-0.01653453 0.0030384043 -0.0211529 -0.014071788 0.0060962 -0.025430415 0.022971848 0.011154644
-0.0015237087 0.027908104 -0.007353925 0.003706663 0.0006622711 -0.034118827 0.028425453 0.018306127
-0.010858449 0.01573382 -0.020877272 -0.03639773 -0.022547567 -0.006465675 -0.016325124 0.017912189
-0.00083843176 -0.037918754 0.010371351 -0.014982513 0.004071225 0.03603268 0.013504614 -0.016687157
-0.015416031 -0.01705846 0.03809998 0.014050908 -0.0043399655 0.01797236 -0.0076817544 0.0017445793
0.014335072 0.005181499 0.01618937 0.01696018 -0.016380329 0.025737057 0.016675824 -0.021701612
0.030845119 -0.015685588 0.018047865 -0.0034405135 -0.024887176 -0.008855996 0.026385294 0.029203814
0.0044450355 -0.0060519944 -0.03581635 -0.027638473 0.005429382 -0.02430572 -0.021334365 0.028000593
-0.010895684 -0.027009789 -0.011419305 0.024532055 0.0013932763 -0.0003697078 -0.025376178 0.0040312363
0.02154645 0.006756527 -0.019569717 0.0115725985 -0.031796616 0.016733943 0.0024269153 -0.023571754
-0.0022262898 -0.026888393 0.013579402 0.020556599 -0.014656721 0.004905543 0.027290387 0.032337207
0.007870889 0.0009708686 -0.035704773 -0.029167587 -0.03909179 -0.015791826 0.034513917 -0.03210451
-0.007681198 -0.03297689 0.034250144 -0.018855106 -0.017500155 0.015455026 -0.019623317 -0.018619468
-0.035413742 0.0014908401 -0.00544646 0.010909421 0.012476778 -0.021297952 -0.020003252 -0.010756212
-0.013814131 -0.022190373 -0.022831993 -0.033796545 -0.034823947 -0.019810217 -0.024589198 -0.021948509
0.025911469 0.030244252 0.015071485 -0.024180679 0.022085171 -0.033324607 -0.032126784 -0.027669411
0.028162085 -0.03140889 0.011358655 0.01807667 -0.013607967 0.0027986865 0.007658282 -0.01120429
-0.013821924 0.013698039 -0.019846981 0.009881123 -0.029651156 -0.01926561 -0.00039564283 0.030691914
0.03071243 0.020827867 -0.010103661 -0.019509923 -0.015264978 -0.005659899 -0.034274925 -0.03077418
0.029240169 -0.032024197 0.0076903272 -0.0022220002 0.01637154 -0.010165399 -0.01369442 0.019519662
-0.0072789765 -0.0022178346 0.0011599174 0.034086883 -0.034140643 0.02307725 -0.02118252 -0.03360979
0.026432108 0.009726093 0.024713166 0.036056623 -0.0084466 0.013685779 -0.013363169 0.012330808
0.023420347 -0.011555518 0.007871748 -0.022293149 -0.015072361 0.004551054 -0.00039139076 0.017091332
0.0016360643 -0.015154556 -0.0032971702 -0.03306426 0.030112797 0.012471534 -0.024141995 -0.0016220142
0.0037580447 -0.004957092 0.0018508016 -0.005023354 0.03270305 -0.01764261 -0.032992084 0.029809365
-0.010878943 -0.0077272193 -0.027861806 -0.03188354 0.008558071 -0.031056019 -0.006606814 -0.02670375
-0.032433584 0.021087775 0.01822157 0.025549242 -0.00033665274 0.015935065 -0.029509775 0.021173641
0.0181692 0.013603473 -0.0069123534 0.02915855 -0.014942028 0.016580002 -0.03503048 -0.01627025

bias f4 [64]
00000000: ad2c 5d3c 2a43 04bc fc46 d03c 11ac 14bd
00000010: 8c17 dabc 76f4 9abc f637 e93b 39b0 b9bb
00000020: 63f6 febc e88e 103d 9356 c9bc 697a a9ba
00000030: 4c3a 8ebc 1ee7 db3c 61b1 c43b 0037 433c
00000040: 4841 023d 0a69 3cbb 9366 06bd 8be3 303c
00000050: c4b2 06bd 652a 02bd 6310 ab3c 057a fbbc
00000060: ef1b 213d bafc afbc 0ba4 fbbc dba5 eabc
00000070: 0915 e53c 4c77 fe3c 71c1 f93c 83af 363c
00000080: 1df4 07bc f8fa dcbc e16b 11bd 4782 19bd
00000090: 3979 b9bb 0b7e 1b3d bfca df3c bfcf ccbb
000000a0: 88f4 c1bc 16da 13bd 6811 eb3c 49a0 fb3b
000000b0: 5339 e43b 1488 8f3c 2a7d a23c be5e 14bc
000000c0: 0d77 69bc ce3c 06bc cb55 f2bc e034 00bd
000000d0: e55a fa3c 8456 503b 353b 09bd 19b2 e8bc
000000e0: 63f6 9cbc 9820 89bc a00a bf3c 47bc 07bd
000000f0: 07eb 80bb e870 f13c 6684 27bc db33 f4bc
0.013499421 -0.008072654 0.025424473 -0.036296908 -0.026622556 -0.018915396 0.0071172668 -0.0056667593
-0.031123346 0.035292536 -0.024577415 -0.0012930158 -0.017361782 0.026843604 0.0060025905 0.0119149685
0.03180054 -0.0028749132 -0.032812666 0.010796438 -0.032885328 -0.03177871 0.020881837 -0.030697832
0.03933328 -0.021482814 -0.03071787 -0.02864354 0.027964132 0.031062745 0.030487748 0.011150244
-0.008297947 -0.02697514 -0.035503272 -0.037477758 -0.005660203 0.037962 0.027318357 -0.006250351
-0.023676172 -0.036096655 0.028694823 0.0076790196 0.0069648414 0.017520942 0.019835074 -0.009055791
-0.014249575 -0.008193208 -0.029581925 -0.031300426 0.03056092 0.0031789849 -0.03350373 -0.028405236
-0.019160455 -0.016739175 0.023320496 -0.03313854 -0.0039342674 0.029472783 -0.010224437 -0.029809883

weight f4 [64, 1024]
00000000: 1ddf 5d3c 6500 c23c 0fe3 ed3c 5eef 473c
00000010: 5e93 2d3c a5a0 e7bc d865 b0bb 1688 7fbb
00000020: 218d 9dbc 2b4d d93b 6292 9f3c e957 e83c
00000030: 46b8 c6bc 5e1d 27bc b567 9b3c 9d72 a33c
00000040: 225c 8f3c 0c0a 31bc 8677 863c 2ecd d0bb
00000050: fe28 75bc 72f8 e33c c664 2a3c d675 3cbc
00000060: 04cc 83bb c54b d8bc 54a8 d2bb c28c 62bc
00000070: fd25 1b3b 7b8b 463c 1bcd b93c be24 8e3b
00000080: 6142 8bbc 1663 ac3c cb9c 763c afe4 f2bc
00000090: 4749 f03c cf5e 82bc de0c b43c 6c14 433c
000000a0: 9aaf fe3c 50d7 a43c 66fc c13c b195 9bbc
000000b0: b42c 3e3a da57 073b 5bf4 35bb 196d 823c
000000c0: 5288 f5bc b9ab 01bd d48b b83c 2c2f 063b
000000d0: caa5 083c b065 a43c 7eed 5e3c ee62 52bc
000000e0: a9f2 eb3c aa68 e0bc 1c59 a3bc 35dc cabc
000000f0: dbc2 97bb c664 9e3c f13c 4d3b 8e2d 15bb
00000100: 6d36 223c c084 e5bb 679f 32bc d65e f5bc
00000110: 9135 00bd 1741 c03c 47e5 fabb afea d33b
00000120: 68ca 893c ced4 cdbc 599a 7fbc c677 9e3c
00000130: 94d2 7f3a 695b c6bc 3358 3c3c 353b 23bc
00000140: a949 eb3c b748 1bbc 1c13 3c3c 3dd1 4abb
00000150: 7e23 e5bc a9db 53bc 8377 953c 6f46 cfbc
00000160: e340 9cbc c234 e93c 5eb9 fdbc b5de 523b
00000170: 9574 c43c 9736 c03c 12ee bebc fa93 873c
00000180: 5c83 a7bc 04d4 73bc 537d bf3a c702 843c
00000190: c8ab 053b 8b1b b3bc ff68 b83b ff23 f5bc
000001a0: f348 95bc 5910 2c3c c260 efbc 97d6 d43c
000001b0: 41f4 863b ad6a 43bc ee5b a8bc c50d c93c
000001c0: fa74 dbbb 1d1e a13c 5645 dd3c d993 b73c
000001d0: 16ca 9fbc cb8f 03bc 0b15 01ba 047c 543c
000001e0: 699d f13b 215e cb3c 048a 673c a5cd b7bb
000001f0: 4750 9a3c 3908 e4bc f64f 16bc b974 e63c
00000200: 0e59 bf3c bf16 6c3c b509 2abc c92a 8e3c
00000210: 87c3 eabc cad5 03bd a848 8dbb fbe6 36bb
00000220: 04a3 eb3c 6649 283c 4766 e83c cb3c 1e3b
00000230: 8b44 9d3c 8f5d 073a 907b 22bc 021a d83c
00000240: 8c10 603c 3e3e 08bc 0bdd 89bc 548c 98bc
00000250: 867d 9f3c 6c64 f83c 0078 0f3c 47f9 f03c
00000260: d201 8a3c ba31 07bd ea59 1dbb b2c1 acbb
00000270: 04a6 0f3c b85a 3b3c 462e 3e3c ea22 d9bc
00000280: fe05 ecbc 2394 813c e894 863c 046b 1dbc
00000290: 963f db3c 3edd 893c 9b2f aabc 2de0 e63c
000002a0: d69a dd3b 8dac ba3c 180a 7fbb 793c 8f3a
000002b0: 09f3 f33c ebdf bd3c 362b dcbc c0f6 df3b
000002c0: 0dcc 813c 5766 38bb f762 143c 5e17 02bc
000002d0: 5c4b b93c cff0 d2bc 0e41 703b 5a40 cfbc
000002e0: 58af 9bbc b575 8dbc 634b 903c 00f1 33bc
000002f0: e6dc aebc d7e8 46bc aabc 053c d358 ec3c
00000300: 2c90 503c 9497 a53c 8abe 80bc 274f bebc
00000310: 76de a3bc 4417 7bbc a0e7 f13b 1320 9bbc
00000320: aac1 1ebc 5b26 f83c db39 1bbc 1784 163c
00000330: 63d6 c53c 2887 6a3c cc3d adbc d574 593b
00000340: 1ba9 f23c a2a4 adbc 07d8 6a3c 87da 903c
00000350: 5d76 b33c 00b9 023c ad8a c93c 0324 50bc
00000360: 6692 a0bb 5fa0 b43c 7f0d 1ebc 2d30 c7bb
00000370: 83a7 143d b465 e33c 7065 183d 9877 ad3c
00000380: dd18 c03c 7aad 50bb 5de1 ec3b 0400 613c
00000390: 9df2 1dbc e02c 07ba 0a85 ea3c c11b a43c
000003a0: 79e0 0d3c d6b6 a9bb 37e0 a5bc d76d 593c
000003b0: f2aa 6abc 43bd a0bc 715e 363c e5b9 ccba
000003c0: f96d a93c 922c ecbc 21e2 98bc 2a11 ec3c
000003d0: 0fcf bfbc e621 acbc cb14 f53c 8319 1dbb
000003e0: 0bc9 68bc 4516 073d e408 603c 68d5 bdbc
000003f0: 510f 01ba 035f 19bc 998f 9d3c 2b35 623c
0.013541964 0.023681829 0.029038934 0.012203066 0.010594217 -0.028274843 -0.0053832345 -0.0038991026
-0.019232335 0.0066315136 0.01947898 0.028362231 -0.02425779 -0.010199873 0.01897035 0.019952113
0.017499987 -0.010805618 0.016414415 -0.0063721156 -0.014963387 0.027828429 0.010400003 -0.011502704
-0.0040221233 -0.026403317 -0.0064287577 -0.013827505 0.0023673766 0.012118216 0.02268081 0.004337876
-0.016999425 0.021043342 0.015052031 -0.02965006 0.029331816 -0.015914349 0.021978792 0.011906724
0.031089593 0.0201222 0.023679923 -0.018992277 0.0007254586 0.002065173 -0.0027764055 0.015921162
-0.02997223 -0.031657908 0.022527613 0.0020474894 0.008340308 0.02006802 0.013606427 -0.0128409695
0.028802233 -0.027393658 -0.019939952 -0.024763206 -0.004631383 0.019335162 0.0031316841 -0.0022762748
0.009900671 -0.0070043504 -0.010902262 -0.029952448 -0.031301085 0.023468537 -0.0076567265 0.0064671854
0.016820148 -0.025125887 -0.015600764 0.019344222 0.00097588566 -0.02421351 0.011495638 -0.0099628465
0.028721647 -0.009477786 0.011479165 -0.003094747 -0.027971026 -0.012930789 0.018245464 -0.02530214
-0.01907391 0.02846754 -0.030972179 0.00321762 0.023981372 0.02346353 -0.02330688 0.016550053
-0.02044838 -0.014882091 0.0014609493 0.016114606 0.002039658 -0.02186372 0.005627751 -0.02992439
-0.018223261 0.010501944 -0.029220942 0.02598123 0.004118473 -0.011927289 -0.020551648 0.024542699
-0.0066972943 0.01966768 0.027010601 0.022409366 -0.019505542 -0.008029888 -0.0004924095 0.012969021
0.007373501 0.024825158 0.014132027 -0.0056092315 0.018837107 -0.027835952 -0.009174338 0.02813183
0.023357894 0.01440972 -0.010378291 0.017354386 -0.028657688 -0.032186307 -0.00431164 -0.0027908671
0.028764255 0.010271406 0.028369082 0.0024145122 0.019197723 0.00051637826 -0.009917155 0.026379589
0.01367582 -0.008315621 -0.016829034 -0.018621601 0.019469034 0.030321322 0.008756638 0.02941574
0.016846571 -0.033006407 -0.0024009892 -0.0052721137 0.008767609 0.011435203 0.011607712 -0.026505906
-0.028811451 0.015817707 0.016428426 -0.009608034 0.026763719 0.01682913 -0.020774653 0.028183067
0.0067628426 0.022787357 -0.0038915928 0.0010928056 0.029778974 0.023178061 -0.026876073 0.006834835
0.01584437 -0.0028137171 0.009056798 -0.0079401415 0.022618942 -0.025749592 0.003665987 -0.02529924
-0.019004509 -0.017268041 0.017614072 -0.010982752 -0.021345567 -0.012140474 0.008162657 0.028850948
0.012729686 0.02021388 -0.015715856 -0.023231102 -0.020003539 -0.015325371 0.007382348 -0.018936193
-0.009689728 0.030291727 -0.009474243 0.009186766 0.02415008 0.01431445 -0.021147631 0.003318121
0.029621651 -0.021196667 0.0143337315 0.017682327 0.021907026 0.007978678 0.024602259 -0.012703898
-0.0049002646 0.022049127 -0.009646772 -0.006078741 0.036292564 0.027758457 0.037206113 0.02117519
0.023449356 -0.0031841681 0.007229014 0.013732914 -0.009640363 -0.0005156528 0.028627891 0.020032765
0.0086594755 -0.0051792664 -0.020248516 0.013270817 -0.014322983 -0.019621497 0.011130915 -0.0015619366
0.020682322 -0.028829847 -0.018662514 0.028816778 -0.023414163 -0.021012258 0.029917141 -0.0023971505
-0.014208089 0.032980222 0.013673995 -0.02317305 -0.0004923242 -0.009361031 0.019233512 0.013806622

bias f4 [64]
00000000: 152e 4e3c 64a4 c53c edea ba3c 4e44 563c
00000010: ed9f 413b 78c3 3abc dcae 6b3c 9628 883c
00000020: eb6c 753c d374 80bc f1fc 8dbc 01cb 05bd
00000030: e578 673c 90de 083d b0a8 473a 57a6 943c
00000040: 187d 95bc 7b1e bbba b1b3 a4bc b73a 90bc
00000050: 14c3 c13c 4ec1 c73c 6f95 bc3c 4ed6 7e3c
00000060: 39cb 1bbd 626f 10bc 26f5 703c 9076 393c
00000070: 5a8d 27bc 9729 14bd 7d52 323c a9a4 c93c
00000080: fc5f 20bc a919 cfbc eca3 983c 0f43 7b3c
00000090: 204b 28bd 5ea7 003d 6ab4 083c c889 613c
000000a0: 8da6 ba3c 24f3 bfbc 6e20 c3bb 5349 fbbc
000000b0: c6d3 b6bc 44e5 a5bc fe4f 74bc 4d86 86bc
000000c0: ad64 e4bc 5fc7 b0bc 3705 21b9 e512 cabc
000000d0: 6d95 09bc 7a0e c9bc 2119 123c 488c d7bc
000000e0: cba3 563c f65c 0ebd d849 28bc 93fb 01bd
000000f0: b4d4 53bc b282 1ebd 8c1c 603c 2a5f 59bc
0.012584229 0.02412624 0.0228171 0.013077809 0.0029544786 -0.011399142 0.014384951 0.016620915
0.014979581 -0.015680706 -0.017332526 -0.032664303 0.014127945 0.033415377 0.0007616384 0.018145723
-0.018248126 -0.0014276052 -0.020105215 -0.017606122 0.02365259 0.024384167 0.023020474 0.015554024
-0.038035605 -0.008815618 0.014706885 0.011319771 -0.010226572 -0.036172476 0.010883925 0.024614649
-0.009788509 -0.02528079 0.018632852 0.015335812 -0.04108727 0.031409614 0.008343795 0.01376576
0.022784496 -0.023431368 -0.0059547937 -0.030674612 -0.022317778 -0.020250924 -0.01491165 -0.016421461
-0.027880037 -0.021579443 -0.00015356099 -0.024667213 -0.008397442 -0.024543036 0.008917124 -0.026312009
0.013100575 -0.034756623 -0.010271512 -0.03173406 -0.01292913 -0.03869886 0.013678681 -0.013267318

weight f4 [10, 64]
00000000: 203c f9bd a21b 12bd 71db 84bc 8f3b 113e
00000010: caa0 2bbc b444 acbd 64d9 83bd b0e8 7cbd
00000020: 3f7e d33d 7075 493d 4cc1 b6bd 09fc 0f3e
00000030: 67a0 41bd c044 22bd d76c d7bd d2ce 583d
00000040: 35b8 6c3d 8cad c8bc 438c 0f3e 22dd 873c
00000050: 7429 ffbd 10d4 a33d 919a c8bd 23a1 8e3d
00000060: dd61 7a3d b494 a23c 470e df3d ab74 b5bd
00000070: d48b fdbc 4af1 233d dac6 99bd e6b5 f6bd
00000080: 31c7 04be 86ab 093c 3aff 5ebc deeb 523b
00000090: 5e25 cc3d 5ee7 c03d a99f c6bd 9c18 aabd
000000a0: 2568 12be 8380 f13c b8b0 a2bd 4563 863d
000000b0: b2a6 3a3d 91b5 e5bd cdb2 c8bd 4c75 b3bd
000000c0: 745e a8bd c290 ffbd 0d73 8ebd daff e33d
000000d0: 37bf a53d 8aae 9d3d 5dd7 1b3d 6e58 22bd
000000e0: 83d7 073e 59e9 973d 271b d7bb 4215 acbc
000000f0: c281 87bd b68a af3d a114 bc3d cc58 f9bd
00000100: ada0 a83d d17c 4b3d e5b0 b33d 558b 7b3d
00000110: 9ffc be3d d109 ca3d 9f9c a7bd aa53 c3bd
00000120: b72b 05bc 4967 abbd 92e3 953d c83f d2bd
00000130: 88d1 6a3d 7238 913d baff 153d 8f4c 2fbd
00000140: 1a99 41bd 4cc8 f2bd c394 cf3c 16e2 043e
00000150: 8087 793d f84e bfbc c1f7 f7bd bbb9 d2bd
00000160: cde8 79bc 671c a63d 03d6 c83c 779d f9bd
00000170: 8bda 0ebd 785e 503d db41 cabd 167f 61bc
00000180: a122 0dbc 2b19 0bbe dc5c 893d 6fef 2d3d
00000190: f7da 78bd 47ce e33d 78df 053e 0828 86bd
000001a0: e558 5b3c 0e42 10be a1be aabc 713f 033e
000001b0: 6de8 543d 1d19 c83d 04f3 9c3d 1742 13bd
000001c0: a316 86bd c301 1a3e 52bb 533d 7a24 f2bd
000001d0: a0a3 c2bd 0271 d6bc a1ab e1bd 6fb4 083e
000001e0: 6dac 933d 7d6e 043d 6527 ac3d 64c3 b6bc
000001f0: 746f e63c 52f3 f5bd 5c0e 813c b247 993d
00000200: 7416 3e3d 8723 0b3d 4fe2 bf3d c1f3 323d
00000210: 044f 57bd ed20 07bb 9c10 f93d 1c05 b4bd
00000220: 98ce e63d 684c b63d a4f2 843d 2536 9b3d
00000230: ae99 cb3d 0ff8 a13c dd8a d5bd d06f 86bd
00000240: 11a9 863d 2b92 5d3d 01e9 8bbc 6a61 cf3c
00000250: 29a7 e0bc 376e edbc 9193 cabd add2 5e3d
00000260: 57e7 5d3d 3094 d03c b43c 51bc 99ca 983d
00000270: ee46 893d 820c ca3d da14 febb 5d27 563d
00000280: 1a36 ffbd bf45 77bb 4370 d2bc 9fcf 10bd
00000290: 757f 01be d8d1 4bbc b5d8 96bc 6ef2 a6bd
000002a0: 4ae0 e0bd 57e9 d83d 2b16 08bd 048d ebbd
000002b0: 2f6a c13d 756b c4bd 607b e0bd 1a64 21bd
000002c0: 1ca4 5dbc d987 673c ead8 1c3d ddeb cabd
000002d0: 435f 8cbc 08b8 bcbd e6bf eb3d e3eb f13c
000002e0: 27a3 3bbd 25ab 47bd 29bb 913d fbb6 c4bd
000002f0: 90c4 c83d 9af4 d3bd 115d b8bd d99f 43bd
00000300: e5e0 fdbc 93bf 813c 4ea5 0bbd 7b7e a9bd
00000310: 0cfe c13d 6ae2 08be f2d4 e7bc ffb3 e3bd
00000320: 1336 0d3d b3b4 d23c 2eb0 203d b5aa ccbd
00000330: dacd 1bbb 270c c2bd c38b c43c 4ff8 8b3d
00000340: 9217 013e af8a 1d3d 2939 aabd 53d9 903c
00000350: dccf 4b3d 7705 f43d 68bf 6b3c 708f dabc
00000360: 8654 07be 7ea1 a3bc 980e fc3c d3b9 21bd
00000370: 516a 8f3d b5b7 f2bd 631b f33d 69a1 94bd
00000380: 9d9d 213d cb09 bf3d dbbb 9fbd 7900 cf3d
00000390: f896 23bd 70ac ccbb fd9f ac3d 4575 e2bd
000003a0: 68c3 0b3e 2ce2 54bd ee17 7f3d d76e 813c
000003b0: 66cf fcbd 3c8d 3f3d eeee 46bd 6c35 613d
000003c0: 1983 bebd 2a90 893d ddc4 e9bd 9dd8 b5bc
000003d0: 7574 8abc e42d a33d 47ed 8c3c 6c9c be3d
000003e0: 2975 c8bd d017 cf3d 888e 48bd a488 eb3c
000003f0: cfb8 f5bd e6ca de3c a2bd 44bd 6bff 023e
-0.12169671 -0.035670884 -0.016217919 0.14182876 -0.010475347 -0.084115416 -0.06437948 -0.061745346
0.10326814 0.049184263 -0.08923587 0.14060988 -0.047272112 -0.039616346 -0.105188064 0.052931614
0.05779286 -0.024496816 0.1401835 0.016584937 -0.124590784 0.07999432 -0.09795106 0.06964328
0.061128486 0.019846298 0.10891395 -0.08860143 -0.030950464 0.040025033 -0.07508631 -0.12046413
-0.1296661 0.008402711 -0.013610655 0.0032184045 0.09968065 0.0941913 -0.096984215 -0.08305475
-0.1429754 0.029480224 -0.07943863 0.06561903 0.04556913 -0.11216272 -0.097997285 -0.08762607
-0.082211405 -0.12478782 -0.06955538 0.11132784 0.08093112 0.07699306 0.038047183 -0.039635114
0.13265805 0.074175544 -0.006564516 -0.02100623 -0.06616546 0.08571379 0.09183622 -0.1217514
0.082337715 0.04967958 0.08773974 0.061412174 0.093255274 0.098651536 -0.0818417 -0.09537442
-0.008128098 -0.083693095 0.07318796 -0.102660716 0.05732873 0.07090844 0.036620833 -0.04279762
-0.04726515 -0.1185461 0.02533949 0.1297687 0.06092024 -0.023353085 -0.12107802 -0.102893315
-0.015253258 0.08110886 0.024516111 -0.12188237 -0.034876388 0.050871342 -0.09875842 -0.01376321
-0.008614213 -0.1358382 0.06707165 0.04246467 -0.060755696 0.11123329 0.13073528 -0.06550604
0.013387893 -0.14087698 -0.020842852 0.1281717 0.05197947 0.09770415 0.07663539 -0.0359517
-0.06547286 0.15039735 0.051692314 -0.118233636 -0.09503865 -0.026176933 -0.11019064 0.1335008
0.07210622 0.032331932 0.084059514 -0.022309966 0.028129317 -0.120093 0.015753917 0.07484378
0.04640813 0.03396943 0.09369337 0.043689493 -0.05256559 -0.002061899 0.12161371 -0.08790037
0.112698734 0.08901292 0.064915925 0.075786866 0.099414214 0.019771604 -0.10426877 -0.06564295
0.065752156 0.054094475 -0.017078878 0.025315005 -0.027423458 -0.028983219 -0.09891427 0.054400135
0.0541757 0.025461286 -0.01277082 0.074605174 0.06702982 0.09865667 -0.0077539505 0.052283634
-0.12461491 -0.003773078 -0.025688296 -0.035354253 -0.12646277 -0.012440167 -0.01841388 -0.081517085
-0.1098028 0.10591381 -0.033224266 -0.11501506 0.09444081 -0.09590808 -0.10961032 -0.039402105
-0.013527896 0.01413151 0.038292803 -0.099082686 -0.017135268 -0.09214789 0.11511211 0.029531425
-0.04580989 -0.0487472 0.07115776 -0.09605213 0.09803116 -0.103493884 -0.09002126 -0.047759864
-0.030991027 0.01583842 -0.034093194 -0.08276077 0.09472284 -0.1336762 -0.028299782 -0.11118316
0.034475397 0.02572093 0.039230518 -0.09993497 -0.002377382 -0.09474974 0.023992425 0.068344705
0.12606648 0.038462337 -0.08311684 0.017681753 0.049758777 0.11915105 0.0143888965 -0.026679724
-0.13215837 -0.019974466 0.030768678 -0.039483856 0.070027 -0.118514456 0.11870458 -0.07257349
0.039456952 0.0932804 -0.077995025 0.10107512 -0.039938897 -0.006246142 0.08428953 -0.11057524
0.1364876 -0.051973507 0.06227868 0.015799923 -0.123442456 0.04676555 -0.048567705 0.054982588
-0.09302349 0.0671695 -0.11414502 -0.022198016 -0.016901234 0.07967737 0.017202986 0.09307179
-0.097879715 0.10111964 -0.048964053 0.028751679 -0.1199814 0.027196359 -0.04803241 0.12792747

bias f4 [10]
00000000: 17a9 edbd 61ee 17bd 684e 3c3b a3a1 403d
00000010: 1883 793d 2cf1 38bd 8599 213d 126f a7bd
00000020: 593d bbbc eb09 b83d
-0.11604517 -0.03709257 0.0028733257 0.04702915 0.060916036 -0.045151874 0.03945305 -0.08175482
-0.022856401 0.08986267
