src/kiki_4.pth (torch, 588714 bytes, 10 tensors)

weight f4 [32, 3, 5, 5]
00000000: 0268 31bd 5e79 863b 85d9 c0bd 7cb6 adbd
00000010: 0a9a e83c b1ba 123d 2a55 673d 2f4d a8bd
00000020: b769 e93d cb2c 0fbd 5e05 463d 3026 dabd
00000030: 6915 3a3d fbf6 a83d 9220 4abc 23e8 d8bc
00000040: 5376 833d 030f b5bd 3137 c23c 4be2 333c
00000050: 7be3 c93c 76c0 febd 3892 a4bd 7ed0 4fbc
00000060: 0562 e3bd 261e 9f3d 4b73 d93d 411f acbc
00000070: c7e7 5e3d eee8 89bd cdb2 663d e078 c33d
00000080: 6154 b8bc 363c cb3d c8eb 20bb b3d7 c8bd
00000090: d206 993c 9a8a 2c3d d213 a0bd b1ef 62bd
000000a0: bd34 b43d 4b0b 02be 52f5 1abb 900b f9bd
000000b0: 5030 b33c b10e 69bd b049 21be 4152 7abd
000000c0: 9538 95bd 0bae 69bd 6f52 133e 748f 533d
000000d0: f5e7 1d3e ae1f cc3c 27a4 e03d 9b5b 9ebd
000000e0: bb09 9f3d 829e 1a3d 3b2c dc3d d09a 97bd
000000f0: 9c1c 50bd 156c 8f3d e37f fc3d 342c f0bc
00000100: ffb7 07bd 9407 b33d 0620 633d 6dee 723d
00000110: fc73 cbb9 82cf 973c a191 ad3d dfee 81bd
00000120: fb92 a33c ab61 1a3d f8f3 dfbd 0f82 713d
00000130: 8f60 bb3d cfcb 833c 9c1d c13c d7fc de3c
00000140: 829e d33d 5c85 1d3e 4422 d13d 24c1 0ebe
00000150: 1012 09be b98b cb3d 2a03 f63c 310a 19be
00000160: 772f a0bd 63fd 0fbe f9dd 313d 6613 17bd
00000170: 4c70 afbd 8f3f ab3d c506 0d3e e56f 323e
00000180: 9536 f33d 02c4 3dbc dc65 323d 78b8 343d
00000190: 553a 10bd 7a55 94bd 84d7 b03c 80b7 06be
000001a0: 9d93 6abd 0cea 6bbd ca48 a2bd e0ce 1ebc
000001b0: 530b 20be 8b27 3ebe 3456 f63d b202 b0bd
000001c0: cda0 26be bb0f c6bd c64b 32be f928 63bc
000001d0: a03a 34bc f607 00be 6d81 ca3c 5b8a 8e3c
000001e0: 451a 10bb 692c 453d b76e ee3d ce87 c0bd
000001f0: e0c5 523b 107e 84bd 3228 0f3d 84d6 a83d
00000200: e154 15be ce7a 28be 105f ad3d 6503 9dbd
00000210: b09e 41bb 07db 3ebc eb96 a13c e388 cebc
00000220: 88f4 a1bc 5fba 52bd 188d d8bd 3ec5 3ebe
00000230: ef08 aa3d fc23 e3bd c67a fdbd ad8f 853c
00000240: fa59 3bbc 80f7 ff3c 9072 74bc b5d4 25bd
00000250: 3b32 b23b 084b cb3d ecc8 953d 2437 3f3d
00000260: 7269 8ebd e438 e33d e835 0b3e 650d 72bd
00000270: 37f2 d13d 6990 903d a8a5 b7bd f4d0 d0bd
00000280: a9ca 37bd 6be4 473d 7ffc 92bd cd19 02be
00000290: fd23 32bd 4316 77bd bcb1 1cbd 11c9 06be
000002a0: 7aeb 8d3d e00c 973c 22a2 80bd a694 a1bd
000002b0: 7eb6 8b3d 4cbc 083e 792e 383d a129 a33d
000002c0: 1ff7 7fbd 1e20 153d 6b2f dc39 79d6 dfbd
000002d0: e777 debd 0871 b43d 261b 97bd 5c14 9f3d
000002e0: b653 dabd d2ff 753c c01b 59bd 4ddf d2bd
000002f0: 3bb6 3f3d f08f 8dbd b6de b43b bb1a afbd
00000300: 85d2 febd 713a dcbd c61b a4bd 4c86 eabd
00000310: a95b 813d 646c ef3d b340 5b3d 695b a33d
00000320: 3dae 9abd 8303 10bd 5ff9 c53d 6822 5abd
00000330: 5ffb c93d f915 9fbb 37c6 333d 5597 d63d
00000340: bb9e dc3d f5e8 16bd f1e2 47bd 0f85 c6bd
00000350: 4c85 893d 885e 933d 7afd bebd 6dde dcbd
00000360: 0443 02bd 5f60 bebc a1ca 1bb8 9432 39bd
00000370: e15c b3bd 6511 1b3d 2164 383d 5940 89bd
00000380: f6a9 6a3d f7e1 cbbd 0f2f 063c e0dc 3c3d
00000390: 316a 013c 625c f03c 5142 c13d cbf1 253c
000003a0: 6972 b93d d082 8dbd cf43 d63c 69ef f9bd
000003b0: 9ce5 f9bd a0d0 26bd e69b 92bd 2e18 fc3c
000003c0: 640d 983b 3c66 abbd fd52 a13d e4b6 dd3d
000003d0: 4633 aebd 3921 a33d 4bdd f43d 7da7 b43d
000003e0: a1df 963d ea90 e43d 39ad 8bba 8474 ecbd
000003f0: b60e afbc 976a 563d b391 b8bd 6771 b5bd
-0.04331208 0.0041038236 -0.094164886 -0.08482072 0.028393764 0.035822574 0.056477703 -0.082178466
0.11397117 -0.034954827 0.048344962 -0.10651815 0.045430575 0.08250233 -0.012336867 -0.026477879
0.06419053 -0.08840754 0.023707958 0.010979245 0.024644604 -0.12439053 -0.080357015 -0.012683986
-0.1110268 0.07769422 0.106176935 -0.021010997 0.05442026 -0.06733881 0.05632286 0.095445395
-0.022501172 0.09923594 -0.00245546 -0.09806766 0.01868001 0.04212437 -0.078162804 -0.05540437
0.087991215 -0.1269962 -0.0023644757 -0.121604085 0.021873623 -0.056898776 -0.15750766 -0.0611136
-0.07286183 -0.057050746 0.14386915 0.05165048 0.15420516 0.02491745 0.109688096 -0.07732316
0.07765528 0.03774882 0.10750624 -0.07402575 -0.050808534 0.07003037 0.1232908 -0.029317953
-0.033134457 0.0874168 0.05545046 0.05930941 -0.00038805592 0.018531565 0.08475042 -0.06344389
0.019967547 0.0376908 -0.10935205 0.058961924 0.091492765 0.016088394 0.02357369 0.027220173
0.10332967 0.15382904 0.10211614 -0.13940865 -0.13385797 0.09938759 0.030030806 -0.14945294
-0.07821553 -0.14061503 0.04342458 -0.036883734 -0.08566341 0.08361732 0.13772114 0.17425497
0.11875645 -0.011582376 0.043554172 0.044121236 -0.03521188 -0.07242866 0.02158714 -0.13155937
-0.05726968 -0.05759625 -0.0792404 -0.0096928775 -0.1562932 -0.18569772 0.12028161 -0.08594264
-0.16272278 -0.09670969 -0.17411718 -0.013864749 -0.011000305 -0.12503037 0.024719918 0.017399957
-0.0021988314 0.048138056 0.11642211 -0.09400903 0.00321614 -0.06469357 0.034950443 0.082440406
-0.1458316 -0.16453096 0.08465397 -0.07666663 -0.0029544048 -0.0116489 0.019725284 -0.025211757
-0.019769922 -0.05144727 -0.105737865 -0.1862993 0.08302485 -0.11090848 -0.12376933 0.016303862
-0.011435026 0.031245947 -0.014919892 -0.040486056 0.005438117 0.099264205 0.073137134 0.046683446
-0.06953706 0.110948354 0.13594782 -0.059094805 0.10251277 0.07058794 -0.08967143 -0.10196105
-0.044871006 0.04880182 -0.07177066 -0.12705155 -0.043491352 -0.060323965 -0.03825544 -0.13162638
0.06929679 0.018438756 -0.062809244 -0.078896806 0.06821917 0.1335308 0.044966195 0.079669245
-0.062491532 0.036407582 0.00041997 -0.10929579 -0.10862713 0.088106215 -0.07378225 0.07767555
-0.10660498 0.015014606 -0.05300498 -0.102964975 0.046804648 -0.069122195 0.0055197133 -0.0855002
-0.12442497 -0.10753334 -0.0801311 -0.11451396 0.06316311 0.11690596 0.0535285 0.079764195
-0.075527646 -0.0351596 0.096667044 -0.05325547 0.09862398 -0.0048549143 0.043890204 0.10478083
0.10772463 -0.03684326 -0.048800413 -0.09693348 0.067148775 0.07195765 -0.093256906 -0.10784612
-0.031802192 -0.023239313 -3.7143593e-05 -0.04521425 -0.087579496 0.037858386 0.045017365 -0.067017265
0.057290994 -0.09955209 0.008189931 0.04610908 0.007898853 0.029340927 0.09436477 0.010128449
0.09055025 -0.06909716 0.02615538 -0.12203867 -0.12201998 -0.040726304 -0.071586415 0.030773249
0.004640268 -0.08369109 0.07877157 0.10825899 -0.085058734 0.07965321 0.11956271 0.08821008
0.073668726 0.11160453 -0.0010656483 -0.11545661 -0.02136932 0.052347746 -0.09012165 -0.088595204

bias f4 [32]
00000000: 3ed1 993d eb4b 793e 2c76 3d3e 56df 35be
00000010: b9b0 fdbd 32ca 03be 41fb 29be 1053 08be
00000020: 9ce9 983c 7cc0 13be ad1c 7fbe 34e3 3b3d
00000030: fad9 b8bb 2e5c 2b3e 7f82 993d 1f4e 1cbe
00000040: bcb1 bd3d ece1 ddbd d0e7 463c 9606 10bd
00000050: 7559 fdbd 1f2f 783d 78bd f53d a9d9 5e3e
00000060: f6a2 133e 552f 15be b846 aabd af2b d2bd
00000070: f3fb db39 6ac0 ce3d 52a3 95bc e97b 4fbe
0.07510613 0.24345367 0.1850211 -0.17760977 -0.12387223 -0.128701 -0.16599752 -0.13312936
0.018666081 -0.14428896 -0.24913283 0.045870975 -0.005641219 0.16734383 0.07495593 -0.15264176
0.09262416 -0.10834107 0.012140229 -0.03516253 -0.12370578 0.060591813 0.11999029 0.21762718
0.14417633 -0.14568837 -0.0831427 -0.10262238 0.00041958652 0.10095294 -0.018266354 -0.20262112

weight f4 [32, 32, 5, 5]
00000000: 2d31 943c 3f20 81bc 8ee4 9d3c 6cec 91bc
00000010: d140 003d ce15 0cbd db89 bfbc bbb3 0cbd
00000020: e187 49bd 1249 09bd e2ea 2dbd 0c82 0ebd
00000030: 91f4 bdbc 2524 91bc 4bdb 26bd b374 d9bc
00000040: ec89 dd3c 73b8 d93c 2040 6abb dae3 d9bc
00000050: 9bc9 b03c 6322 15bd ea4d a83c 9bd5 603b
00000060: 40e9 1ebd e1ba 5dbc 389e f63c 07b6 233d
00000070: 371a e2bc 45bf b7ba 1e75 723c 004b 26bb
00000080: 9ed7 b83c 8782 203d f412 7ebc b7a9 8a3c
00000090: 6f81 503b 1ce3 afba 60f2 15bd 1d7e 09bd
000000a0: b5cb dcbc ca91 813c 944c e3bc f4e1 50bc
000000b0: 3282 9d3c 5eea 1d3c c6e4 f6bc 63ce 0c3d
000000c0: 660d 57bc a7e7 86bc 4426 383c 1df2 16bc
000000d0: 6de7 ae3c 4e13 a83b 2984 81bc 1fcd efbc
000000e0: 8a8b fbbc 4250 cdbb 4266 73bc 15a3 693c
000000f0: 7bb3 9f3b a558 acbb 5bd9 09bc 12f1 f1bb
00000100: 1309 f0bc 82a0 b0bc cf1c cd3b a017 f13b
00000110: 8283 7b3c e009 08bb b01e e73c 1a7b bd3c
00000120: 5aa6 02bc 3d45 013d 6e42 e8bc 7260 59bc
00000130: 0634 233c 6750 a2bb f25b 4bbc 306a 7ebc
00000140: 7bec ba3c 31b3 d0b7 1e1b 813a 58ff 0b3d
00000150: e920 b13c 3969 9fb9 8d9c c13b 6ac8 04bc
00000160: f924 d63c 9b27 1d3d dc7b f93b e1ea 693c
00000170: 5201 6a3a 3d9b 43bc 626e cb3b d6de d3bc
00000180: 74fd 053d 623f e03b 190b 06bd 82ab 82bc
00000190: 5cdb 57bc 2245 a7bc 40ec 0d3d a4c2 39bc
000001a0: 9471 213d f90d 843c 8bd5 703b a270 4ebc
000001b0: cdb4 09bd b1c6 273c 17a5 3abc 8f5c 34bd
000001c0: 4c91 a7bb 9d84 30bd d53e 81bc b094 b3bb
000001d0: d7cf dd3c 016b eb3b 7965 4d3c d7e6 f93c
000001e0: 44b0 5a3c afd0 c4bc c346 943c fd83 863c
000001f0: a9f2 e1bb 2a1f e23c aeea a43c eb75 ae3c
00000200: daf8 b53c f20e 1dbc d305 3fbc d48d 343d
00000210: 38e9 693d ac84 253d d1f3 5b3c 60d7 313d
00000220: 2914 b2bb a601 323d 4ba6 423d be47 ca3c
00000230: 5f56 f03c 4460 b0bb 7eea 293d 70f3 cd3c
00000240: e431 a3bc 059d fa3c c242 053d 4190 0f3d
00000250: 494b 5e3c 5273 52bc a020 adbb 71b8 073c
00000260: 21b1 433c 2c2c d5bc 4979 e43c 1309 523c
00000270: 5c50 7abc 6b39 69ba 1621 eb3c 180b 443b
00000280: e6b4 08bb 4cfe a3bc b778 ea3b f014 b73c
00000290: 75ff 053d a95e 173d 309b 433d 8b16 4a3c
000002a0: 88f9 3d3d 1eb5 263c a997 7ebc 95ee 183d
000002b0: 81c0 3d3d ae1e 9f3b df18 9c3c 1ff6 de3b
000002c0: d491 97bc 037d 24bc 6c84 913b a1cd a9bc
000002d0: 0ab0 0abc 9f18 ecbc 232a 01bc 93d6 a23b
000002e0: b94c 143b 2015 b83c d467 48b9 65e7 2f3d
000002f0: 9cc5 41bc 5d50 65bc 4762 5b3d 86a0 2d3d
00000300: b11a 703d aa63 473c 1125 9b3c d925 14bc
00000310: e2c1 91bc 990d ae3b 6c81 2a3d c0fa 233c
00000320: 6731 8f3c 0ee9 cb3c 666d 6dbc a495 bbbc
00000330: 1251 a93c 6bb5 ccbc 9b99 703c 576c b7ba
00000340: bbaa 3cbb ef0c d6bc 5f26 e13c a253 093c
00000350: 2271 333c cd20 a7bb c101 3abc 7c89 88bc
00000360: 578d 2d3c c17e af3c 3d22 faba fba0 9dba
00000370: 97f9 813c a32c 1cbc afcd 0d3c 5b77 fabc
00000380: 9b6d 423c 9e32 833a e5f7 943c ae85 10bc
00000390: 9110 a2bb 78f7 debb 5d27 8a3c eda4 923b
000003a0: 0270 a2bc 8f80 aebb ca0c 40bd ccfb 91bc
000003b0: 2a70 0c3c b2cb b139 e9d9 57bc 50dc b4bc
000003c0: 8f0e c63c de64 bebc d453 9b3c 3409 06bc
000003d0: b0f4 8f3c 938f 73bc adcf 6bbc 516d e6bc
000003e0: 672c fa3a a384 babc ede2 8b3a 06f1 d1bc
000003f0: e9f3 933c 7456 d7bc 67fd 26bc 8698 2dbc
0.018089855 -0.015762446 0.019274022 -0.01781293 0.031311814 -0.034200482 -0.023381164 -0.03435109
-0.04920185 -0.03351695 -0.04246033 -0.03479199 -0.023187907 -0.01771743 -0.040736478 -0.026544904
0.027043305 0.02657721 -0.0035743788 -0.026597906 0.021580508 -0.036409747 0.020544965 0.0034307006
-0.038796663 -0.013533325 0.030104741 0.039968517 -0.02760039 -0.0014018795 0.014798431 -0.0025374293
0.022563752 0.03918698 -0.015507448 0.01692663 0.003181543 -0.0013419124 -0.0366081 -0.033567537
-0.026952604 0.015816588 -0.027746476 -0.012749184 0.019227121 0.009638397 -0.030138385 0.034376513
-0.013125753 -0.016467882 0.011239592 -0.009212998 0.021350587 0.0051292544 -0.01581009 -0.029272614
-0.030706186 -0.006265671 -0.014855923 0.014260073 0.0048736907 -0.0052595907 -0.008413638 -0.007383474
-0.029301202 -0.021560911 0.006259538 0.0073575526 0.015351178 -0.002075784 0.028212875 0.023129988
-0.007974232 0.03156017 -0.028351989 -0.013267623 0.009961134 -0.0049534324 -0.012412058 -0.015528247
0.02281784 -2.4878975e-05 0.000985 0.03417906 0.021622138 -0.0003040524 0.005908555 -0.008104423
0.026140677 0.03836785 0.007613642 0.014277191 0.00089265883 -0.011938867 0.006208227 -0.025863092
0.032712415 0.0068434933 -0.032725427 -0.015950922 -0.013174858 -0.020418707 0.034649134 -0.01133791
0.039414957 0.016119944 0.0036748375 -0.012600096 -0.03361969 0.010240243 -0.0113919 -0.044033583
-0.0051137563 -0.04309522 -0.015777031 -0.0054803714 0.027076645 0.0071843867 0.0125364 0.03050558
0.013347689 -0.02402529 0.018100148 0.016420359 -0.0068953824 0.02760275 0.020131435 0.021296462
0.022213388 -0.009586083 -0.011659103 0.04408057 0.05710718 0.04040973 0.01342483 0.04341829
-0.005434532 0.043458603 0.04752187 0.024692412 0.02933806 -0.0053825695 0.041483395 0.025140494
-0.01992125 0.03059245 0.03253437 0.03504968 0.013567754 -0.012844877 -0.00528343 0.00828372
0.011944086 -0.02602204 0.027889865 0.012819546 -0.015277948 -0.00088968006 0.0287023 0.002991384
-0.0020859777 -0.02001872 0.0071555036 0.022348851 0.032714326 0.03695551 0.04775542 0.012334476
0.04638055 0.010175018 -0.015539088 0.037336905 0.046326164 0.004855952 0.019054828 0.0068042423
-0.018502153 -0.010039571 0.0044408347 -0.020727934 -0.008464823 -0.028820334 -0.007883581 0.004969427
0.0022628738 0.02247101 -0.00019112165 0.042945284 -0.011826899 -0.013996211 0.05356052 0.042389415
0.058619205 0.012169758 0.018938573 -0.009042227 -0.017792646 0.0053116796 0.041627333 0.010008514
0.017479612 0.024891403 -0.014491415 -0.022898503 0.02066854 -0.02498885 0.01468506 -0.001399408
-0.0028788287 -0.026129214 0.027484117 0.008381756 0.010952266 -0.0051003457 -0.011352957 -0.01666712
0.01059278 0.021422746 -0.001908369 -0.0012026125 0.015866084 -0.009532127 0.008654996 -0.030574491
0.011866952 0.0010009592 0.018184612 -0.008820934 -0.0049458225 -0.006804403 0.016864473 0.004475227
-0.0198288 -0.005325384 -0.046887197 -0.017820261 0.008571664 0.00033911836 -0.013174512 -0.02207771
0.024176864 -0.023241457 0.01896087 -0.008180905 0.01757273 -0.014865774 -0.0143927755 -0.028128298
0.0019086719 -0.022768324 0.0010672488 -0.025627624 0.018060641 -0.026286341 -0.010192252 -0.010595446

bias f4 [32]
00000000: 53a3 613b 8fe7 57bd fb41 1a3c 62ca e33c
00000010: 9ec1 b7bd 6060 86bd 9688 943c 04b7 993c
00000020: 7dc2 e13a 1739 debc 4641 9f3c 7117 f4bb
00000030: d559 b3bd bb47 973c ec4b 88bd 0cff 8ebd
00000040: 5be9 453c 64ff 37bd b05f 43bb 7dde bfbc
00000050: 3f01 5bbd deea b53c 3f33 3bbd 8386 913c
00000060: 12dd 37bd 1e27 3cbc b873 cfbb 403c 27bd
00000070: 00af 983c a443 6fbc 2148 78bc 2047 a3bd
0.0034429624 -0.052711066 0.009415145 0.027806465 -0.089724764 -0.06561351 0.018131536 0.018764026
0.00172241 -0.027126832 0.019440304 -0.0074490835 -0.087573685 0.018466821 -0.06655106 -0.0698224
0.012079562 -0.044921294 -0.0029811673 -0.02342152 -0.053467985 0.02220672 -0.04570317 0.017764335
-0.044888563 -0.011483936 -0.0063309334 -0.040828943 0.018638134 -0.014603529 -0.015153916 -0.079725504

weight f4 [64, 32, 5, 5]
00000000: 5dff a73c 9823 8e3c b46f 533c d469 3cbc
00000010: feed bfbc dc08 7fbc 81c1 80bc 41db e6bb
00000020: 75e7 0c3c c95e f53b a946 023d d1af f7ba
00000030: ea9d e1bc 88d8 563c a8e7 8c3b 57b2 1ebc
00000040: 5df3 a93c bf2e 523c e057 0e3d 6217 05bc
00000050: beb5 c7bc 7d94 0ebd c813 58bc fac9 c639
00000060: f3b1 1d3c 35a6 0ebb 38b6 fabc 67aa e43c
00000070: 24d4 d43c 6aa6 dabc 51dd bcb9 3f98 81bc
00000080: 01c1 92bc 1e6b e5ba 77b2 c7bc 5bed 51bc
00000090: ef48 573c af23 c3bc ed54 a93c 4f42 453c
000000a0: b775 5fbb eec2 033d 87ac 6cbb 0804 f73b
000000b0: 0960 0c3c 4e15 1abd 9a90 dd3c 3ca5 633c
000000c0: c095 58bc 890a 8b3c a262 9cbc 5701 55bd
000000d0: b663 0fbd fc81 09bc 60bf 98bc c545 4f3d
000000e0: 4593 0d3c 51cc 35bd 89ca 14bb 4f3d dcbc
000000f0: 5e1c ed3c 5308 613d e493 9a3c 7245 f6bc
00000100: 3505 d0bc b46e 64bc a9b6 603d 4437 093d
00000110: 7f36 3b3c b772 043d f317 95bc c868 9abb
00000120: a297 653c c000 6c3c 7e97 043d 9ddc 9b3c
00000130: 05dd 04bc 81be e03c cb90 9d3c a7c3 c4bc
00000140: c18d d13c 1077 33bc 151c a13c 6ee3 933a
00000150: 3285 debc 17ca 5fbc 09a1 c73c e6be dd3c
00000160: 322f 243c dd5c eabb 2535 09bd eb79 fabc
00000170: 0233 d239 0aa6 b8bc af71 b5bc 74d9 fb3c
00000180: 51a2 5ebc 170b f4bc fcfb 49bc 9e25 9e3c
00000190: 3cc3 063c a65c 063c 7120 92bc eb1f 043b
000001a0: 99c4 953c d23f 33bb 9c1b c1bc e128 2b3c
000001b0: bcc2 15bd 9ca1 473c e149 83bc 9de4 fdbc
000001c0: b8ce 9fba 8214 d9bc eeed 533c b66b 5c3c
000001d0: 925f 7cbc 57e2 023c 4b18 fc3c 9f74 1a3d
000001e0: 05d5 873b 3ad4 0c3a fc52 20bd 8c26 2bbd
000001f0: ace0 43bd fe64 5abc 6e6a 0d3d 8f19 16bd
00000200: 725d 1cbc f41c 05bd a110 063d 7afb c6bc
00000210: b53a cabc 31c4 5e3c 9e97 b1bc 1203 4abc
00000220: a214 1cbd d42e 21bb 3f34 f0bb b277 b63b
00000230: 839b 613c b85f ddbc f95f 9cbc f32f 28bc
00000240: f0f2 93bc 23d3 c0bc 7239 d3bc 3c17 fbbc
00000250: dd41 02bd 6187 97bc 9098 89bc 2f01 9ebc
00000260: a55e ca3c b52e f83c 6274 853c e772 4fbc
00000270: eed2 ef3c fefc ecbc a552 f7bc 490c d1bc
00000280: 0063 de3c 22cc ffbc 00e2 913c f2e4 af3c
00000290: 0700 7fbc 8ff9 1c39 1bc5 df3a aab1 03bc
000002a0: 620a 07bc 1a68 783c f750 a6bc e482 cb3b
000002b0: 259f fbbc 6611 9cbc 15bc 47ba 5762 113d
000002c0: 52dd b03c a5c9 8b3c a024 40bc 23a1 b7bc
000002d0: cfdf 463c 1886 513b 8300 02bd d007 1dbd
000002e0: bc00 b73c 0928 9abc b9a0 963c 74e3 863b
000002f0: 52d1 353b c0d9 84bc c4e0 83bc 0d00 e83c
00000300: cbc7 2e3b e49f 2a3b 1d7f 5f3c e101 ff3c
00000310: 723f 0cbd 0001 dc3c f9e5 9dbc 6e19 d6bc
00000320: dda8 073d 2efd 6a3c e32b da3c a3c6 163d
00000330: 15bf 02bc 6b1b 7f3c f436 5fbc e931 463c
00000340: 30de bd3c e842 54bc baae f93b 8c2f d9bc
00000350: c7ae 7fbc 7797 883b fcd9 a3bb 7976 893c
00000360: b733 a7bb 51f0 80bc 4e0f 2fbb bb06 12bd
00000370: 817b ec3c d0b8 ba3b 2508 d7bc 6d39 88bb
00000380: ab07 acba 9c6b bb3a 4fb3 873b ec29 b1bb
00000390: 68bc 023d cae0 99bc 54d7 75bc e87e 293d
000003a0: fe9b e2bb 670f 23bc 39a4 edbc 8386 1abd
000003b0: 0cee 0f3c 18e8 f4bc 0947 3fbc 1d22 00bd
000003c0: 39f7 13bd 4258 ad3c 901c e73c a154 223d
000003d0: b864 553c c4bf 703c a942 0bbd 09c4 923c
000003e0: be78 983c 244e 903c 5514 8bbb 3ad8 0a3d
000003f0: 0ac0 4abc dc14 973c c4da 0dbd a56d a8bc
0.020507509 0.017350957 0.01290505 -0.011499841 -0.023428913 -0.015566077 -0.01571727 -0.00704518
0.0086001055 0.007488106 0.031805668 -0.0018897002 -0.02754112 0.0131131485 0.0043000765 -0.009686074
0.020745927 0.012828528 0.034751773 -0.008123251 -0.024378654 -0.03480958 -0.01318831 0.00037915987
0.009624946 -0.0021766548 -0.030604467 0.027913285 0.025980063 -0.02669068 -0.00036023048 -0.015819667
-0.017914297 -0.0017503237 -0.02437709 -0.012812938 0.013139947 -0.023820726 0.020670379 0.012039735
-0.0034097263 0.03216832 -0.0036113576 0.0075383224 0.008567818 -0.037617974 0.02704649 0.013894375
-0.013219297 0.016972797 -0.01909 -0.05200323 -0.0350072 -0.008392807 -0.018645942 0.050603647
0.008641069 -0.044384304 -0.0022703728 -0.026884703 0.02894419 0.05493958 0.018869348 -0.030062411
-0.025393108 -0.013942409 0.0548617 0.03349997 0.011426567 0.032335963 -0.018199896 -0.004712198
0.014013203 0.014404476 0.032371037 0.019026095 -0.008109336 0.02743459 0.019234082 -0.024019076
0.025580289 -0.01095368 0.01966671 0.0011282989 -0.027163122 -0.013659022 0.02436878 0.027068567
0.010021018 -0.0071521834 -0.03349795 -0.030575713 0.00040092325 -0.022540111 -0.022148935 0.030743338
-0.013588504 -0.029790444 -0.012328144 0.019305047 0.008225258 0.0082008 -0.017837735 0.0020160626
0.018282222 -0.0027351272 -0.023572735 0.010446758 -0.036562666 0.012184527 -0.01602644 -0.0309928
-0.0012192344 -0.026499037 0.012935145 0.013453415 -0.015403645 0.007988534 0.030773303 0.037708875
0.004145267 0.00053722004 -0.03914164 -0.041784808 -0.047821686 -0.0133297425 0.034525327 -0.03664547
-0.0095437635 -0.032498315 0.032730702 -0.024289835 -0.024686197 0.01359658 -0.021678742 -0.012329834
-0.038105614 -0.0024594562 -0.007330447 0.005568468 0.013769987 -0.027023181 -0.019088732 -0.010265338
-0.018060178 -0.023538178 -0.025784228 -0.030650727 -0.031801093 -0.01849717 -0.01679638 -0.019287674
0.024703333 0.03029571 0.016290847 -0.012661672 0.029275384 -0.02892923 -0.030190775 -0.025518553
0.027146816 -0.031225268 0.01780796 0.021471474 -0.015563971 0.00014970287 0.0017072292 -0.008037964
-0.008242222 0.0151615385 -0.020302279 0.0062106717 -0.030715534 -0.019051265 -0.0007619274 0.035494175
0.021589909 0.017063925 -0.011727482 -0.022415703 0.012138321 0.0031970795 -0.03173877 -0.03833753
0.022339217 -0.018817918 0.018387185 0.00411647 0.0027743173 -0.016217113 -0.016098388 0.028320337
0.002666938 0.0026035244 0.013641146 0.031128826 -0.034240194 0.026855946 -0.019274699 -0.026135173
0.033120025 0.014342589 0.026632255 0.03681053 -0.007980128 0.015570502 -0.013623942 0.01209686
0.023177236 -0.012955405 0.007619706 -0.02651193 -0.015605635 0.0041684466 -0.005000351 0.016780125
-0.0051026004 -0.015739592 -0.0026712003 -0.03565095 0.028867485 0.005698301 -0.026249 -0.0041572363
-0.0013124844 0.0014299038 0.0041412483 -0.005406609 0.03191796 -0.018783946 -0.0150049515 0.041380793
-0.0069155684 -0.009952403 -0.029008972 -0.037725937 0.008784782 -0.029895827 -0.011674651 -0.031282533
-0.03612444 0.021160249 0.028211862 0.03963149 0.0130245015 0.014694158 -0.03399912 0.017915742
0.018612262 0.017615385 -0.004244367 0.033897616 -0.012374887 0.018442564 -0.03463246 -0.020560095

bias f4 [64]
00000000: a8b0 c13c e8d7 bbbc 1b69 c93c ad23 afbc
00000010: 8536 0fbd 0724 18bd cacf c53b 5107 af3b
00000020: c341 0abd e441 953c 8b72 ecbc 35a3 5dbb
00000030: 1b8d c4bc 6cae 9c3b cd0e 2fbc 0245 073c
00000040: 969b b33b a1b9 35bc 4ae4 68bd 28c1 ce3b
00000050: 17f3 44bd cbf1 24bd 5d45 44bc 3114 8bbc
00000060: 1f46 0f3d 941e 21bd abd8 83bd 0830 19bd
00000070: 087e e33c 6621 493c 8985 133d 0e47 813c
00000080: d5c0 ffbb 60f4 d1bc 66e1 1bbd 160d 4ebd
00000090: 2670 48bc c79a 073d d7d0 373c a26b 923b
000000a0: fe4b 4fbd 0578 20bd 5a0f 483c 986f a6bc
000000b0: ac8a 2939 608a 323b 3a4f 053d 170b f3bc
000000c0: 08dc bbbc b5a5 bcbc 264b 65bd e193 dbbc
000000d0: af10 223d cc92 d43a 75b9 37bd b59e 44bd
000000e0: b56c bdbc b651 e0bc aa49 4d3c 8c63 29bd
000000f0: ec0b 09bd 37e9 c33b 8614 1dbb 3637 31bd
0.023643807 -0.0229301 0.024586251 -0.021379316 -0.034964103 -0.037143733 0.0060367333 0.0053414484
-0.03375412 0.018219896 -0.028863212 -0.0033819203 -0.023993066 0.004781535 -0.010684681 0.008256199
0.005481194 -0.011091621 -0.05685834 0.006309647 -0.04808339 -0.040269654 -0.011979428 -0.016977401
0.034978982 -0.039335802 -0.064378105 -0.03739932 0.027770057 0.012276029 0.03601602 0.015780952
-0.00780497 -0.025629222 -0.038056754 -0.05030545 -0.0122337695 0.03310659 0.011219225 0.0044683972
-0.05060958 -0.03917696 0.012210691 -0.020316884 0.00016168755 0.0027243122 0.03254626 -0.029668374
-0.022932068 -0.023028234 -0.05597987 -0.026803913 0.039566692 0.0016218065 -0.0448546 -0.048002917
-0.023123125 -0.027382713 0.01252977 -0.0413547 -0.033458635 0.005978729 -0.0023968532 -0.043265544

weight f4 [64, 1024]
00000000: 1ae9 a33c a459 c13c fcbd 1a3d 3bd8 7b3c
00000010: 1a5a 913c 9de2 1fbd 5711 07bc 5ae3 953b
00000020: a786 95bc 72fa 6d3c efd2 5d3c 8955 df3c
00000030: c0fb bbbc 6ce9 21bc e6d8 a13c 8915 913c
00000040: 5c6e 703c 04fe 9fbc ce99 c73b ceea 2fbc
00000050: 2aa6 55bc a641 f43c bda4 3b3c 4e8c 33bc
00000060: ec19 f4b9 7be8 edbc be5d acbb 71bf 43bc
00000070: d4dc 883c fc1e 833c ac98 bf3c 7f9e 403c
00000080: b15a 5bbc 961e b03c faf7 703c a175 f9bc
00000090: 37ed 183d e984 04bc 0264 ee3c 6aa3 9b3c
000000a0: c92a 3d3d bf7e 0f3d 46c5 123d b299 e5bb
000000b0: 5fd3 e9b9 4a2e 803c 0583 6d3b 36d3 a23c
000000c0: 5f5c b8bc ef65 febc b749 c73c 6526 ee39
000000d0: d918 2b3c 59cc cf3c 73bb c43c 1b29 c1bb
000000e0: 4c02 ed3c fa21 92bc 26a9 9cbb 62ea 8abc
000000f0: 9e1e 213b f4bd bd3c 40c0 eb3b b49f 8638
00000100: 394c 8e3b 81a5 51bc 1ed5 a5bc adf5 09bd
00000110: 23d8 0bbd f62e a13c aaba 6bbc 3614 053b
00000120: 677d 463c 02c3 00bd 6113 bcbc 6829 123c
00000130: 914b 08bc 0198 debc 7e74 f53b 039e 93bc
00000140: 5ff2 d23c f9f8 5abc b0a9 c33b 1fb5 0cbc
00000150: 2773 02bd 46f6 55bc 1653 823c ee62 e5bc
00000160: 2a69 d8bc 5a51 f53c 36e0 12bd 4011 323b
00000170: 601c bf3c 488d de3c 696c edbc bdc9 7f3c
00000180: a352 d0bc cda0 94bc ba34 e3ba ce09 893c
00000190: b30f d13b 3cbb cabc 9710 dcb9 9c94 02bd
000001a0: 1e52 9bbc c768 113c 6ccd 23bd 4239 e53c
000001b0: 6016 b53b 0624 5dbc 0a14 c8bc 47ed e33c
000001c0: 1b7d 8dbb e5bd b53c 5ba2 0c3d da7a df3c
000001d0: 0843 38bc 8058 8b3a ac0f 1c3c a26c 683c
000001e0: 5316 c93b dfa4 bc3c d6db 873c 80f1 d7ba
000001f0: 8334 633c 8a90 e8bc 2e92 45bc 04bb d63c
00000200: 5cc5 533c 7e5c ac3a a03b 72bc b8df 8f3c
00000210: 4065 ebbc b32d 24bd 52b3 03bc 9723 033a
00000220: 1320 ee3c 8114 c63b eba2 f83c a6c3 e33b
00000230: 7747 073c 3391 b3bb 8d22 d3ba 9344 da3c
00000240: 6a6e 823c 14b2 02bc d64a 7dbc d13d a0bc
00000250: 47be dc3c d5f3 193d 8cbf 933c ec59 293d
00000260: c1ba ae3c 8271 17bd 85fe bbbb 88f1 6cba
00000270: 0e46 dc3b f7d8 ff3b 3007 6dbb 65f2 07bd
00000280: 2fca c6bc 2510 b03c 07af 3e3c df3f 07bc
00000290: cb7f f43c fc14 003c 8b68 07bd 7d2d fc3c
000002a0: 8b63 803b 460f af3c 9375 003c a7ea acbb
000002b0: 7171 253d 5ecd fe3c 35f7 a3bc c625 973a
000002c0: 9b6e 9d3c ad7b 713a 7589 f23b 3cc3 1cbc
000002d0: b72f 763c 83f3 14bd e322 b7ba d70c 08bd
000002e0: f7c6 b8bc e3a6 aebc 3e3c 7c3c 6dd0 8bbc
000002f0: e014 94bc 2021 5fbc fbc8 d93b f171 ac3c
00000300: 3a3d 583c 2cba fa3c ca43 6abc f3f7 a3bc
00000310: e64c bfbc 2caa c8bc c568 283c 7730 96bc
00000320: c485 8bbb 0e90 313d d04f 62ba cc4c c43b
00000330: 5667 c33c b553 303c 8859 cebc a44a 8cbb
00000340: 2a9e c43c 4e2a eabc 51a2 20bb 5efe 803c
00000350: 65c2 243c 4242 75bb ec8c 673c 5b28 73bc
00000360: e3af 02bc ca10 b9ba d47b e9bc db2e 19bc
00000370: 8182 043d d817 c13c 18cc 143d cc93 863c
00000380: 8fd3 b03c 7609 10bc cbc8 103c ba81 8a3c
00000390: 21d5 39bc df8f 49bc ee32 023d 3e6e 943c
000003a0: 5ff2 ec3b 7911 91bc 71f3 00bd 866f 403c
000003b0: 1593 02bd 07d2 1cbd 8da4 91bb 401c 9dbc
000003c0: 6e77 c23c da23 83bc 3f5d afbb 13d2 143d
000003d0: 9f2d bdbc caa7 b0bc 1da4 e23c 2794 e13a
000003e0: 64ec 5bbc 9e6c 353d 1a60 c63c 76ec 9abc
000003f0: dedd 5739 8854 38bb d331 cf3c c138 843c
0.020008612 0.023602314 0.03777884 0.015371378 0.01774316 -0.039034475 -0.00824388 0.0045742216
-0.018252684 0.014525043 0.01353906 0.027262466 -0.022947192 -0.009882312 0.019756746 0.017710464
0.014674749 -0.019530304 0.006091333 -0.010737134 -0.013040105 0.02981646 0.011452851 -0.010958744
-0.0004655862 -0.02904152 -0.0052601984 -0.011947499 0.016706862 0.016005985 0.02338823 0.011756538
-0.013388322 0.02149896 0.01470756 -0.030451598 0.0373356 -0.008088329 0.029100422 0.01899882
0.04618338 0.035032984 0.035832666 -0.0070068473 -0.00044598707 0.015647072 0.0036241424 0.019876104
-0.022504983 -0.031054465 0.024327142 0.00045423504 0.010442936 0.025365995 0.024015164 -0.0058947927
0.02893176 -0.017838467 -0.0047809063 -0.016957466 0.00245849 0.023161866 0.007194549 6.419365e-05
0.0043425825 -0.012795807 -0.020243224 -0.03368156 -0.03414167 0.019675713 -0.014387766 0.0020306236
0.012114859 -0.031435974 -0.02295846 0.008921005 -0.008318798 -0.02717209 0.0074906936 -0.018019682
0.025750337 -0.013365024 0.005971156 -0.0085881045 -0.0318481 -0.013059204 0.01590876 -0.028001275
-0.026417334 0.029946018 -0.035858355 0.0027170926 0.02332896 0.027166978 -0.028982358 0.015612063
-0.02543003 -0.018143082 -0.0017334439 0.016728308 0.0063800453 -0.024747483 -0.0004197403 -0.031880006
-0.018960055 0.0088750785 -0.039990827 0.027981404 0.005526349 -0.013497358 -0.024423618 0.027823104
-0.0043178922 0.022185275 0.03433452 0.02728026 -0.01124645 0.0010631233 0.009525221 0.014186056
0.0061366945 0.023027835 0.016584318 -0.0016475171 0.0138675 -0.028389234 -0.012058778 0.026212223
0.012925472 0.0013150123 -0.0147847235 0.017562732 -0.028734803 -0.040082645 -0.008038359 0.0005002557
0.029068029 0.0060449247 0.030351123 0.0069508133 0.008256785 -0.0054799556 -0.0016108319 0.026644027
0.01592179 -0.007977027 -0.015459737 -0.019560726 0.0269462 0.037586052 0.018035673 0.04134552
0.021329286 -0.036973484 -0.005737128 -0.00090386765 0.0067222184 0.0078078466 -0.0036167614 -0.03319015
-0.02426633 0.021492073 0.011638409 -0.008254974 0.029846093 0.007817503 -0.033058684 0.03078341
0.0039181164 0.021369588 0.007840532 -0.005276996 0.04039139 0.031103786 -0.020015338 0.0011531643
0.01921778 0.00092118495 0.00740164 -0.009568032 0.015026025 -0.036365043 -0.0013972189 -0.03321537
-0.022555811 -0.021319812 0.015395222 -0.017067159 -0.01807636 -0.013618737 0.006646273 0.021050425
0.013198191 0.030606352 -0.014298389 -0.020015692 -0.023352098 -0.024495207 0.010278885 -0.018333657
-0.0042578895 0.043350272 -0.0008633109 0.0059906 0.023852985 0.010762145 -0.025189176 -0.004281359
0.0240012 -0.028584626 -0.002451081 0.015746292 0.010056113 -0.0037423526 0.0141327195 -0.014841164
-0.007976505 -0.0014119383 -0.028501429 -0.00934955 0.03235102 0.02357094 0.03632745 0.016427897
0.021585254 -0.008791318 0.008836935 0.016907562 -0.011342318 -0.012302368 0.03178685 0.018118974
0.0072310413 -0.017708527 -0.031482164 0.011745339 -0.03187855 -0.038286235 -0.004444665 -0.01917851
0.02373859 -0.016008306 -0.005351692 0.036333155 -0.023093043 -0.021564383 0.027666146 0.001721029
-0.013423059 0.04429304 0.024215747 -0.018911581 0.0002058665 -0.0028126556 0.025292313 0.016140344

bias f4 [64]
00000000: 7e43 cb3c a1ec 8a3c 3ddc 663c b32f 9b3a
00000010: c4cb 8bba 1463 8ebc ce80 733c 0bbb 3c3c
00000020: 7685 4c3c a953 e8bc 3a67 88bc 2f4a 0dbd
00000030: 2bae 423c 1f72 d13c 6822 da3a d7c2 2f3c
00000040: ecdc f3bc b013 973c 55a1 b0bc 05b7 bfbc
00000050: 467e e63c 221e 9f3c 258e a63c fc46 b83c
00000060: a5ad 72bd 8aec d2bb bb24 463c e54f d93c
00000070: 0846 29bc c16f 44bd e869 ab3c 1179 653c
00000080: 8518 2bbc 3e37 d3bc b44e cd3c 15da 633c
00000090: 6883 dbbc 64f5 513b 1c5d 773c b3da 5c3c
000000a0: 2f76 113c fda0 afbc 8808 df3a 6e7e 59bd
000000b0: 7cc4 00bd d4e4 0fbc 0fa2 27ba ba58 b2bb
000000c0: 51f3 fcbc 409c 1cbd b635 0e3c 5026 c0bc
000000d0: 830d ff3a 8cf3 bbbc a7d7 9c3c c20b a8bc
000000e0: d66b 113c 2436 0ebd f103 dcbb 6a32 04bd
000000f0: 6ab6 43bc acb4 02bd 3edb 8c3b d730 60ba
0.024812456 0.016958537 0.014090595 0.0011839777 -0.0010665585 -0.017381229 0.014862252 0.011519204
0.012482991 -0.028360205 -0.016650785 -0.034494575 0.011882345 0.025567112 0.0016642334 0.010727606
-0.02976843 0.018442005 -0.021561304 -0.0234027 0.028136384 0.019423548 0.020331452 0.022494785
-0.05924763 -0.006436889 0.012093718 0.026527354 -0.010331638 -0.04795814 0.020924523 0.014005915
-0.010442858 -0.025783177 0.025061943 0.013906975 -0.026796058 0.0032037133 0.015097883 0.013479876
0.008878275 -0.02143907 0.0017016092 -0.05309909 -0.031437382 -0.008782584 -0.0006394693 -0.005442706
-0.030877741 -0.03823495 0.008679798 -0.023455769 0.0019458983 -0.02294328 0.0191458 -0.020513419
0.008875808 -0.0347196 -0.006714337 -0.03227464 -0.011945346 -0.031910583 0.0042985966 -0.00085521996

weight f4 [10, 64]
00000000: 52d0 02be fa98 bbbc 12a5 58bb 59af 373e
00000010: c6cf 50bc f512 c0bd 9fa9 e4bd a555 c9bd
00000020: 9e3e be3d 76da 883d 6653 c5bd 7a4b 0f3e
00000030: 3ed0 87bd 001f afbc aba5 00be 9967 063d
00000040: d76b 1e3d 209e 72bd f28a 523e 97c8 0f3d
00000050: 5da4 16be 47ae bd3d 40b5 20be 1441 7c3d
00000060: c279 903d c169 2e3d 13df 073e 89bd f0bd
00000070: 1bcf dcbc 70dc 633d b3a4 cebd 9657 1fbe
00000080: 8af2 2dbe 9a36 7ebb d542 d03a 0d14 c1bc
00000090: 1b79 093e 1336 dd3d adc4 d0bd 6775 04be
000000a0: 5ea7 2abe be97 3f3d f44f f9bd 2023 e53d
000000b0: 2761 bf3d 509f c8bd d768 9abd 4838 fcbd
000000c0: 2d4e a8bd 264a 11be e81c 8fbd 9236 f23d
000000d0: 60b4 a33d 9e95 bd3d b12d 553c ddeb 1239
000000e0: 542c 533e fb30 053e 3dc3 983c 7090 28bd
000000f0: a6c7 7fbd 1aef 733d 38df 063e 6ea8 20be
00000100: 809c 1b3e 6cd9 d83d 04ab e03d d2a2 ec3d
00000110: d84b c53d 3511 223e a428 02be 678c 12be
00000120: 29b2 8939 4807 afbd e661 e43d 7514 0dbe
00000130: 5c6d 0f3d 76df dc3d 576f 8e3d 1edd 91bd
00000140: d27d b1bd 8707 84be f65b 853d a48f 363e
00000150: 63e1 963d 811f 74bc 9912 44be fcd4 2cbe
00000160: d7d2 8cbb e5b6 1a3e b9ce a73d bdc1 0cbe
00000170: cf6e 95bd c284 ab3d 45af 18be 8a75 e0bc
00000180: 7344 483c 243e 3abe aa6e be3d 757a 7e3d
00000190: ae29 80bd 5a96 1b3e bd77 443e 8aa4 9abd
000001a0: ca0f 66bc b80b 43be bd4e 8dbd fa9b 603e
000001b0: 5123 bb3d 0976 3f3e fec7 083e 3889 c6bd
000001c0: ca7b aebd 3d86 563e e822 bb3d 440e 2ebe
000001d0: edf3 f4bd f669 2c3c 8e1f 24be 50a6 3b3e
000001e0: 68bf 1e3e 1403 8d3d f5d3 db3d 4e65 82bd
000001f0: 3723 853c 8750 46be 562c 983d ba31 bd3d
00000200: fea7 8b3c 4489 1a3d 89d5 f13d 64db 3c3d
00000210: 4fa9 54bd 3df0 a0bd b1c8 213e c725 46bd
00000220: 99c2 193e 970e fe3d c336 6c3d e34a e23d
00000230: d9bc 0d3e cec7 28bc b587 c6bd 207e c1bd
00000240: b3ac cb3d b29d d63d 388d a9bb 028e 9fbc
00000250: 6de0 1ebc eb22 39bd 314a 02be 0cb6 873d
00000260: dfb5 243d 77e3 f03c d973 12bd 66b5 dd3d
00000270: edb6 b53d 4cef 9a3d 6957 dcbb 24f3 a93d
00000280: eeed 1bbe e41b 6e3d 6def 8bbd ee1d 43bd
00000290: fa23 3cbe c029 70bc e687 17bd 780e 0bbe
000002a0: 80c5 adbd 849d 1a3e 706b 0abd 7301 20be
000002b0: dee7 de3d ffe4 1fbe fe3e 2dbe d7da 09bc
000002c0: b7d6 d2bb b758 ed3c 9cd5 5fbc 437c 02be
000002d0: d9db c2bc 265a b4bd 7639 173e 49f4 0ebb
000002e0: 71ab 15be 130e 6ebd 8713 d63d da97 fdbd
000002f0: ae05 bc3d fbdc 1bbe 8104 28be 71e7 21bd
00000300: 218f 75bd 05ca e23b 00d5 07bd eb12 bbbd
00000310: 761b ee3d 4abe 31be 9abd b3bc 6f42 c1bd
00000320: 00ad 5c3d 9e05 9c3b 201c ec3c 060b ebbd
00000330: 4d81 103c 4490 08be cde3 193d cd19 9a3d
00000340: 73c6 1f3e ee6c ba3d 7e6d ecbd ee19 a1bc
00000350: 60eb 913d 4e73 f13d b41e 2a3d e6c4 33ba
00000360: b572 25be 60d8 71bd 1da9 fcbb d3b0 1dbd
00000370: b5a9 da3d 9c75 1ebe ece8 0c3e 0b7d 6bbd
00000380: e95b 393d 0bf5 fe3d 0d79 ddbd 669e e23d
00000390: 4619 83bd a2bb c3bc 60be 9d3d 3607 d5bd
000003a0: 2ca9 263e e2ae 58bd 815c da3d d17a 90bc
000003b0: 401b 0dbe db86 e33c ce11 99bd dbd4 d33d
000003c0: 70ac c5bd 43f0 653d 0834 1abe 48f2 babc
000003d0: 647c 64bc da72 af3d b3aa 413d 0d08 9a3d
000003e0: 4655 26be 6dcd bd3d 4d9a 4bbd d4f7 1e3d
000003f0: e4a6 0abe b665 503d 65dc a8bd 4573 1c3e
-0.1277478 -0.022900093 -0.0033057374 0.17937984 -0.01274485 -0.09378616 -0.11165165 -0.098307885
0.09289287 0.06682293 -0.096350476 0.13993636 -0.06631516 -0.021377087 -0.12563197 0.032813642
0.038677063 -0.05923283 0.20560816 0.035103407 -0.14711137 0.092617564 -0.15694141 0.0615855
0.070544735 0.042581324 0.1326869 -0.11754901 -0.026954224 0.055630147 -0.10090008 -0.15560755
-0.16987053 -0.003878987 0.0015889058 -0.023569131 0.13425104 0.108013295 -0.10193763 -0.1293541
-0.16665408 0.046775572 -0.12173453 0.1118834 0.09344702 -0.097960114 -0.07539528 -0.12315422
-0.08218036 -0.14188442 -0.06987935 0.11826815 0.07993388 0.09257053 0.013011382 0.00014011511
0.20622379 0.13006966 0.018647784 -0.04115337 -0.06244626 0.059554197 0.13171089 -0.15689251
0.15196419 0.10588345 0.10970119 0.11554493 0.09633607 0.15826876 -0.12710816 -0.14311372
0.00026263416 -0.08546311 0.11151485 -0.13777335 0.035016403 0.10784809 0.0695483 -0.07122253
-0.086665764 -0.25786993 0.06511681 0.17828232 0.07367208 -0.014900089 -0.1914772 -0.16878122
-0.004297595 0.15108831 0.08193726 -0.1374578 -0.07296526 0.08374931 -0.1491061 -0.027399797
0.012223351 -0.18187767 0.09298451 0.062128503 -0.0625795 0.15194073 0.19186302 -0.075509146
-0.01404185 -0.19047439 -0.06899784 0.219345 0.091375954 0.1869737 0.13357541 -0.09694141
-0.08519705 0.20949645 0.09137517 -0.1699763 -0.11960588 0.01052331 -0.16027662 0.18325162
0.15502703 0.06885353 0.10733787 -0.063669786 0.016252143 -0.19366656 0.074303314 0.09238
0.017047878 0.037728563 0.11808307 0.046107665 -0.051919278 -0.07858322 0.15799214 -0.04837587
0.1501564 0.124051265 0.057669412 0.1104944 0.13841571 -0.010301543 -0.09693853 -0.094478846
0.09945049 0.10479297 -0.0051743053 -0.019476894 -0.009697062 -0.045199316 -0.12723614 0.066265196
0.04021251 0.029405339 -0.035755012 0.10825615 0.08872781 0.075651735 -0.0067242873 0.082983285
-0.15227482 0.058132067 -0.06832776 -0.047635965 -0.18373099 -0.0146583915 -0.036994837 -0.13579738
-0.08484936 0.1509915 -0.033793867 -0.15625553 0.10884069 -0.15614699 -0.16918561 -0.008413992
-0.0064342874 0.028972967 -0.013661768 -0.12742715 -0.023786472 -0.08806257 0.14768013 -0.0021813086
-0.14616181 -0.05811889 0.10452943 -0.12382479 0.09180771 -0.15221016 -0.16407968 -0.03952736
-0.05995095 0.0069210553 -0.033162117 -0.09134468 0.116263315 -0.17357746 -0.021940995 -0.09436499
0.053875923 0.004761412 0.028822005 -0.11476712 0.00881989 -0.13336283 0.037570763 0.07524452
0.15603046 0.09102808 -0.115443215 -0.019665685 0.07124972 0.11789571 0.041533187 -0.0006857648
-0.16157039 -0.059044242 -0.0077105896 -0.03849871 0.106769 -0.15474552 0.13760728 -0.057492297
0.045253668 0.12449082 -0.10814104 0.11065368 -0.06401305 -0.023893181 0.07702327 -0.10401766
0.16275471 -0.052901156 0.10662175 -0.017636688 -0.13779926 0.027774265 -0.07474099 0.10343333
-0.096520305 0.056137335 -0.15058911 -0.022820607 -0.013945673 0.08566828 0.047281932 0.07521067
-0.16243467 0.092676975 -0.0497077 0.038810566 -0.13540226 0.05087825 -0.08245162 0.15278347

bias f4 [10]
00000000: 7d1c 1fbe 5f39 60bd fe7d 533c e7fe 963d
00000010: 5672 fd3d d04f adbd ac15 833d 1a38 e1bd
00000020: 3837 413b 5151 843d
-0.15538211 -0.054742213 0.012908457 0.073728375 0.123753235 -0.08462489 0.06400618 -0.10997029
0.0029482376 0.064608224
