src/kiki_7.pth (torch, 588714 bytes, 10 tensors)

weight f4 [32, 3, 5, 5]
-0.04446547 0.004754865 -0.10313424 -0.09196311 0.018434186 0.024609007 0.053763125 -0.08926326
0.11183658 -0.052479476 0.034283467 -0.111299954 0.04716625 0.07628628 -0.024447046 -0.024454331
0.058276884 -0.094869465 0.012805898 0.007846076 0.01989502 -0.14546035 -0.09838665 -0.025807817
-0.12258922 0.08727061 0.117956765 -0.020619698 0.054292552 -0.07280953 0.055939827 0.10453888
-0.019224213 0.104732625 -0.014762238 -0.10160261 0.025138216 0.05351836 -0.07765386 -0.062324934
0.10047626 -0.12294099 -0.0004143434 -0.12648393 0.02354238 -0.052449953 -0.16983098 -0.071504
-0.080026545 -0.06451613 0.15265661 0.062457394 0.15485457 0.024593059 0.102824144 -0.078366235
0.08558708 0.040889706 0.112169534 -0.08785863 -0.054123394 0.07666827 0.13522981 -0.028548403
-0.04123642 0.09919471 0.060108315 0.062270474 -0.004623328 0.018562257 0.089821145 -0.073542856
0.0122104995 0.032568086 -0.11700412 0.07569676 0.109091945 0.029141624 0.02330493 0.028021064
0.12964971 0.17512281 0.10637321 -0.15634061 -0.1447179 0.12409288 0.039904017 -0.16373444
-0.10139178 -0.15113924 0.05932239 -0.03171424 -0.09305392 0.07963991 0.15065888 0.18178837
0.12038936 -0.0155203305 0.040223986 0.05332854 -0.021080032 -0.064037226 0.020070909 -0.14667442
-0.068456076 -0.032503314 -0.06616241 -0.017712357 -0.18444578 -0.20508377 0.14587112 -0.08143203
-0.18554363 -0.12692434 -0.18956701 0.0040360186 -0.0088956 -0.13857444 0.015423596 0.026424365
0.006696616 0.047128193 0.106441356 -0.1034777 0.007048016 -0.0425289 0.050223902 0.08859437
-0.15152103 -0.16571206 0.11816427 -0.056086384 -0.0015795258 -0.028381778 0.01203386 0.0071392553
-0.009238032 -0.06749666 -0.12849854 -0.19431993 0.10993962 -0.10080119 -0.12962952 0.014266183
0.0045594415 0.04799875 -0.0088970885 -0.04421402 0.0014703698 0.10794474 0.06692676 0.043047722
-0.072904006 0.111603305 0.13939036 -0.06982371 0.10691511 0.07152799 -0.095120914 -0.11514332
-0.045774017 0.043576464 -0.086375006 -0.13761728 -0.05259271 -0.07274391 -0.058015082 -0.15341455
0.06288545 0.025628405 -0.07878767 -0.07980736 0.08079613 0.1498516 0.066206604 0.0768706
-0.064275 0.03627112 0.0038657337 -0.10413148 -0.11154548 0.09880894 -0.065084085 0.08052748
-0.1131513 0.026748851 -0.04701272 -0.10589827 0.048723 -0.066950925 0.006091053 -0.092583716
-0.13397178 -0.10217004 -0.061830938 -0.116855755 0.07600441 0.14240685 0.08192407 0.11265772
-0.081666656 -0.039423514 0.094831124 -0.050665885 0.10434514 -0.011147298 0.051911853 0.11263295
0.11104357 -0.041804522 -0.040924247 -0.09273971 0.06434749 0.073943496 -0.090887904 -0.109915935
-0.03999897 -0.034029674 0.0029005161 -0.029352888 -0.094262205 0.04592439 0.06401803 -0.04558587
0.084434785 -0.10935404 0.0071141548 0.05341976 0.006880602 0.03045089 0.08846713 0.0121064875
0.09763033 -0.07158935 0.026535962 -0.13804056 -0.13340311 -0.046021417 -0.07775313 0.027868452
-0.003988231 -0.08426861 0.08622128 0.11407151 -0.07952185 0.08800415 0.13656567 0.10941714
0.089755 0.12508924 -0.00817311 -0.11478893 -0.011752863 0.0563048 -0.08338941 -0.090621516
00000000: 6d21 36bd b3ce 9b3b 0b38 d3bd 2857 bcbd
00000010: 4a03 973c d498 c93c b936 5c3d a8cf b6bd
00000020: 940a e53d b8f4 56bd d26c 0c3d 3bf1 e3bd
00000030: 6631 413d fb3b 9c3d 2c45 c8bc 7354 c8bc
00000040: beb3 6e3d ec4a c2bd d4cf 513c d48c 003c
00000050: e2fa a23c 8ff3 14be f17e c9bd ea6a d3bc
00000060: 0f10 fbbd efba b23d 5193 f13d a4ea a8bc
00000070: de61 5e3d 2a1d 95bd 2921 653d 7b18 d63d
00000080: 197c 9dbc 0f7e d63d 50dd 71bc 0715 d0bd
00000090: a9ee cd3c 1136 5b3d fd08 9fbd 6e48 7fbd
000000a0: 7fc6 cd3d 7cc8 fbbd 3b3c d9b9 0185 01be
000000b0: f3db c03c c3d5 56bd 2ce8 2dbe b070 92bd
000000c0: f5e4 a3bd 0821 84bd 0452 1c3e 53d3 7f3d
000000d0: 3292 1e3e 6277 c93c 7795 d23d 7a7e a0bd
000000e0: 4748 af3d f77b 273d 24b9 e53d 3aef b3bd
000000f0: 7eb0 5dbd 4104 9d3d af79 0a3e 57de e9bc
00000100: 85e7 28bd 9926 cb3d 2334 763d 530f 7f3d
00000110: 497f 97bb e00f 983c 26f4 b73d a39d 96bd
00000120: 8c0e 483c 1d66 053d db9f efbd e706 9b3d
00000130: 996b df3d 6aba ee3c fbe9 be3c 6e8c e53c
00000140: e5c2 043e 6553 333e 33da d93d c117 20be
00000150: ee30 14be 6824 fe3d 6572 233d 00aa 27be
00000160: 7ea6 cfbd 3fc4 1abe 09fc 723d cae6 01bd
00000170: 0e93 bebd 401a a33d 5246 1a3e bb26 3a3e
00000180: b28e f63d fc48 7ebc e8c1 243d 076f 5a3d
00000190: 08b0 acbc f325 83bd bf6b a43c d231 16be
000001a0: b332 8cbd 3222 05bd 2880 87bd 8119 91bc
000001b0: 5bdf 3cbe 7b01 52be 3d5f 153e d6c5 a6bd
000001c0: 26ff 3dbe 74f8 01be db1d 42be 9440 843b
000001d0: dabe 11bc 75e6 0dbe 40b3 7c3c e977 d83c
000001e0: 496f db3b 7e09 413d edfd d93d 1eec d3bd
000001f0: 0bf3 e63b c932 2ebd 94b7 4d3d f770 b53d
00000200: 5428 1bbe 6cb0 29be 1c00 f23d d6ba 65bd
00000210: 1708 cfba e780 e8bc ab29 453c 6af0 e93b
00000220: 1d5b 17bc b03b 8abd 1f95 03be cefb 46be
00000230: 0628 e13d db70 cebd 9abd 04be b5bc 693c
00000240: 5e67 953b 569a 443d 18c5 11bc c319 35bd
00000250: 6cb9 c03a 2212 dd3d e610 893d cf52 303d
00000260: b24e 95bd 4690 e43d 59bc 0e3e bcff 8ebd
00000270: 4ff6 da3d 447d 923d c1ce c2bd 43d0 ebbd
00000280: 897d 3bbd 3c7d 323d 61e5 b0bd 8beb 0cbe
00000290: 746b 57bd c2fa 94bd 39a1 6dbd b418 1dbe
000002a0: 16ca 803d a9f2 d13c 6e5b a1bd 0b72 a3bd
000002b0: 7178 a53d b372 193e 5497 873d 556e 9d3d
000002c0: 9ca2 83bd 0791 143d 4058 7d3b e342 d5bd
000002d0: f571 e4bd 575c ca3d ce4a 85bd 97eb a43d
000002e0: debb e7bd 6820 db3c 6990 40bd 31e1 d8bd
000002f0: c591 473d 911d 89bd 7597 c73b 889c bdbd
00000300: e62f 09be 873e d1bd 7042 7dbd 1252 efbd
00000310: 33a8 9b3d 1ad3 113e cfc7 a73d 17b9 e63d
00000320: d940 a7bd 8d7a 21bd d236 c23d 0887 4fbd
00000330: e8b2 d53d 28a3 36bc 86a1 543d 1bac e63d
00000340: d06a e33d 383b 2bbd 2fa0 27bd 51ee bdbd
00000350: 9ec8 833d b06f 973d 7023 babd 9b1b e1bd
00000360: f6d5 23bd b362 0bbd 9616 3e3b 7875 f0bc
00000370: 8b0c c1bd 371b 3c3d e31b 833d 40b8 3abd
00000380: 25ec ac3d 03f5 dfbd db1d e93b aece 5a3d
00000390: ac76 e13b 2574 f93c 412e b53d 4a5a 463c
000003a0: 69f2 c73d 709d 92bd f261 d93c 815a 0dbe
000003b0: d39a 08be f480 3cbd 083d 9fbd 614c e43c
000003c0: b5af 82bb 0595 acbd c894 b03d 539e e93d
000003d0: 5adc a2bd 853b b43d dfd7 0b3e 1816 e03d
000003e0: 78d1 b73d 6517 003e 82e8 05bc 7516 ebbd
000003f0: 158f 40bc dd9f 663d 11c8 aabd c697 b9bd

bias f4 [32]
0.09536178 0.30094746 0.21956795 -0.2075247 -0.0982478 -0.17549032 -0.19180308 -0.16139513
0.011970598 -0.14648779 -0.28742686 0.07462524 -0.009763559 0.1879993 0.09030709 -0.17186064
0.08258834 -0.11405169 0.012772351 -0.05594128 -0.09564994 0.07711193 0.14961632 0.2170805
0.14076245 -0.1738063 -0.07487462 -0.104733564 0.0036107525 0.14392889 -0.021182707 -0.24458931
00000000: 094d c33d c915 9a3e 6cd6 603e 5b81 54be
00000010: 2436 c9bd bcb3 33be 0768 44be c444 25be
00000020: 5420 443c e500 16be 9d29 93be 1ed5 983d
00000030: 56f7 1fbc e382 403e ecf2 b83d 3cfc 2fbe
00000040: 1324 a93d ef93 e9bd 1f43 513c af22 65bd
00000050: 1ee4 c3bd dcec 9d3d 0535 193e 5a4a 5e3e
00000060: 0824 103e 47fa 31be dd57 99bd 8d7e d6bd
00000070: 60a2 6c3b 1862 133e 5b87 adbc 9f75 7abe

weight f4 [32, 32, 5, 5]
0.01802682 -0.014578693 0.021802245 -0.0165576 0.033174194 -0.034241762 -0.028314395 -0.041435987
-0.05802835 -0.039420046 -0.04237928 -0.03622736 -0.025304036 -0.021668842 -0.04203747 -0.033548422
0.021045797 0.02404769 -0.004434452 -0.02478393 0.016512478 -0.041272894 0.015654106 -0.0021932197
-0.042382333 -0.010324873 0.032431874 0.040568262 -0.031617653 0.0006764221 0.020078786 0.0031042155
0.028472533 0.043629747 -0.01170931 0.016251566 -0.0010272652 -0.005246735 -0.04573021 -0.03682704
-0.022220246 0.01240648 -0.031014668 -0.018628402 0.020383008 0.00862344 -0.03596411 0.033020776
-0.013423236 -0.016274763 0.010479489 -0.0075380406 0.024360804 0.0070130615 -0.012954261 -0.028855655
-0.029096736 -0.003966008 -0.012187322 0.013084302 0.0048004 -0.00609008 -0.013913587 -0.015005622
-0.03678836 -0.021915149 0.008124419 0.0068514273 0.0154972095 -0.0023536817 0.02313855 0.019441782
-0.011559214 0.02822634 -0.03251122 -0.010250719 0.013461189 -0.000868642 -0.008702354 -0.01227166
0.023671286 0.0033532265 0.0077283266 0.042053364 0.027751656 0.0021659217 0.009076809 -0.0050310013
0.028833155 0.03920658 0.010585965 0.018641228 0.004547801 -0.009195731 0.0055527748 -0.027133286
0.032614347 0.0063200556 -0.03216252 -0.015492444 -0.0066756685 -0.011054542 0.04511081 -0.0024006364
0.048676267 0.020203216 -0.0004039162 -0.021409163 -0.044997927 0.0007480196 -0.006172514 -0.04323211
-0.00730789 -0.047718216 -0.01687832 -0.0065013394 0.026294408 0.010004078 0.020049354 0.040161774
0.017611703 -0.019932695 0.021621041 0.018701794 -0.0050464305 0.024580183 0.013975525 0.017368438
0.01714753 -0.012232085 -0.0108578615 0.045900684 0.06107121 0.044712186 0.015662536 0.042429242
0.0006239182 0.055236373 0.05904382 0.03240675 0.030314334 -0.0030382643 0.042598948 0.025867602
-0.020223474 0.030204928 0.03346341 0.036043774 0.013999848 -0.015192342 -0.0056237276 0.0077301473
0.013639252 -0.024640644 0.029151518 0.0141783375 -0.014110053 0.0019889916 0.03128815 0.005290688
0.0020488577 -0.016371392 0.0126422485 0.027112504 0.0368448 0.040014878 0.053002805 0.02007057
0.054013316 0.014552375 -0.014367578 0.039165813 0.05082579 0.009013148 0.022988506 0.001005718
-0.024545962 -0.015954826 -0.0007865092 -0.024542585 -0.00819292 -0.031615935 -0.011684904 -0.00017654698
-0.0036270355 0.030906659 0.0080063725 0.050346497 -0.005933746 -0.010801542 0.059893776 0.050117586
0.0676103 0.020937534 0.026329229 -0.0050224396 -0.013494818 0.008261869 0.044843793 0.011454752
0.017486323 0.023464799 -0.013864182 -0.0260721 0.020699162 -0.02413876 0.014429473 -4.5666817e-05
-0.0036662284 -0.026462259 0.026922323 0.0071660914 0.01174657 -0.0058171037 -0.009162134 -0.017108325
0.009260868 0.022733008 -0.0013295459 0.00264307 0.014751085 -0.010762559 0.0114539685 -0.029050827
0.012784048 0.006155714 0.025486609 -0.0006643254 0.0018271186 -0.0010686943 0.017094394 -0.0019838724
-0.026424944 -0.012242704 -0.050360013 -0.012895152 0.0064806556 -0.0072724046 -0.022994641 -0.02542798
0.023497919 -0.02302736 0.026006311 0.0018508644 0.025757857 -0.016906798 -0.016976021 -0.029639436
9.93057e-05 -0.024701012 0.006099119 -0.024458876 0.020862466 -0.025149547 -0.00804593 -0.0029423097
00000000: fbac 933c 78db 6ebc 9f9a b23c cea3 87bc
00000010: aae1 073d 1741 0cbd 97f3 e7bc c8b8 29bd
00000020: 23af 6dbd ea76 21bd e595 2dbd 2463 14bd
00000030: 694a cfbc db82 b1bc 7b2f 2cbd 126a 09bd
00000040: 3c68 ac3c a9ff c43c e14e 91bb ab07 cbbc
00000050: 2d45 873c c40d 29bd 0a3d 803c 1fbc 0fbb
00000060: 1999 2dbd a829 29bc 49d7 043d e82a 263d
00000070: 8381 01bd eb51 313a 447c a43c 1870 4b3b
00000080: 3b3f e93c 1bb5 323d 68d8 3fbc 0122 853c
00000090: 4da5 86ba ceec abbb 9a4f 3bbd f3d7 16bd
000000a0: 3c07 b6bc 8c44 4b3c 7912 febc 979a 98bc
000000b0: 44fa a63c 5449 0d3c 1a4f 13bd cb40 073d
000000c0: 22ed 5bbc a752 85bc 2ab2 2b3c ab01 f7bb
000000d0: 4f90 c73c d3cd e53b 1c3e 54bc b262 ecbc
000000e0: 475c eebc 49f5 81bb 55ad 47bc 8a5f 563c
000000f0: ad4c 9d3b 4b8f c7bb d0f5 63bc 24da 75bc
00000100: 64af 16bd 6687 b3bc 481c 053c f081 e03b
00000110: 02e8 7d3c 3a40 1abb 0e8d bd3c 5f44 9f3c
00000120: dc62 3dbc ed3a e73c 7c2a 05bd a2f2 27bc
00000130: 528c 5c3c 94b5 63ba 5194 0ebc 130f 49bc
00000140: 49ea c13c cec1 5b3b e73d fd3b 2640 2c3d
00000150: 7157 e33c 23f2 0d3b e5b6 143c 19db a4bb
00000160: 8233 ec3c 1497 203d c170 2d3c 7db5 983c
00000170: b805 953b b1a9 16bc 0df4 b53b a046 debc
00000180: 9f96 053d 7818 cf3b d9bc 03bd 05d4 7dbc
00000190: 91bf dabb 1c1e 35bc 1dc6 383d ff53 1dbb
000001a0: c460 473d 3781 a53c b7c4 d3b9 4562 afbc
000001b0: bf4f 38bd bf16 443a cd42 cabb 2714 31bd
000001c0: 0677 efbb 2d74 43bd 6744 8abc 3009 d5bb
000001d0: 5f67 d73c 25e8 233c 8b3e a43c ac80 243d
000001e0: 6b46 903c e449 a3bc 9c1e b13c 8134 993c
000001f0: 875c a5bb 615c c93c 9af9 643c 4148 8e3c
00000200: fa78 8c3c 1569 48bc 2ce5 31bc 5b02 3c3d
00000210: ce25 7a3d 2024 373d b84e 803c 49ca 2d3d
00000220: 718e 233a 893f 623d efd7 713d f1bc 043d
00000230: c455 f83c 9e1d 47bb 3c7c 2e3d 4be8 d33c
00000240: b3ab a5bc 5370 f73c ee10 093d a3a2 133d
00000250: 9e5f 653c 4de9 78bc 3f47 b8bb 2d4d fd3b
00000260: 2b77 5f3c 2ddb c9bc 2acf ee3c 424c 683c
00000270: da2d 67bc be59 023b 0128 003d 825d ad3b
00000280: 2146 063b 4c1d 86bc 6f21 4f3c 0b1b de3c
00000290: 93ea 163d a4e6 233d 7819 593d 096b a43c
000002a0: 113d 5d3d 166d 6e3c fd65 6bbc 556c 203d
000002b0: b42e 503d e2ab 133c 6452 bc3c 4cd2 833a
000002c0: 9d14 c9bc b2b3 82bc bd2d 4eba 880d c9bc
000002d0: 993b 06bc b67f 01bd 0a72 3fbc 781f 39b9
000002e0: 8fb3 6dbb f62f fd3c 292d 033c 2138 4e3d
000002f0: df6f c2bb f3f8 30bc 2d53 753d 1948 4d3d
00000300: 4577 8a3d 3185 ab3c 65b0 d73c 4793 a4bb
00000310: 5e19 5dbc ca5c 073c 20ae 373d b6ac 3b3c
00000320: 7a3f 8f3c 4039 c03c 9826 63bc 2895 d5bc
00000330: 4a91 a93c a6be c5bc 9969 6c3c 5f8a 3fb8
00000340: 1b45 70bb 61c7 d8bc 348c dc3c 88d1 ea3b
00000350: af74 403c 679d bebb c61c 16bc c226 8cbc
00000360: e5ba 173c 933a ba3c 2844 aeba 5b37 2d3b
00000370: 89ae 713c 7255 30bc 6da9 3b3c 00fc edbc
00000380: 2f74 513c dfb5 c93b 4bc9 d03c 1f26 2eba
00000390: ed7b ef3a 6e13 8cba 8b09 8c3c db03 02bb
000003a0: 2079 d8bc 9f95 48bc 4d46 4ebd 3046 53bc
000003b0: ae5b d43b 5a4d eebb 425f bcbc 574e d0bc
000003c0: b57e c03c e0a3 bcbc 300b d53c b498 f23a
000003d0: 2402 d33c 2080 8abc 4c11 8bbc 67ce f2bc
000003e0: 5742 d038 c759 cabc 1edb c73b fb5d c8bc
000003f0: c3e7 aa3c 6c06 cebc 14d3 03bc c4d3 40bb

bias f4 [32]
-0.009542303 -0.05221495 0.020556271 -0.0027892957 -0.1332119 -0.076286964 0.008149132 0.0073779677
-0.020931153 -0.026504684 0.025452992 -0.03160422 -0.10597002 0.013132236 -0.108242214 -0.07873896
-0.0062228288 -0.06519807 -0.017178185 -0.061148655 -0.07551289 0.01354405 -0.038487747 0.0072889845
-0.051614806 0.00057204865 -0.0042539104 -0.051457867 0.027348042 -0.02653076 -0.02048094 -0.11019869
00000000: 5257 1cbc 58df 55bd a065 a83c 9ecc 36bb
00000010: b368 08be 573c 9cbd f083 053c e1c2 f13b
00000020: cf77 abbc 5a20 d9bc cb82 d03c 6d73 01bd
00000030: cf06 d9bd 9728 573c 18ae ddbd e441 a1bd
00000040: dfe8 cbbb 9186 85bd 44b9 8cbc 0377 7abd
00000050: 81a6 9abd dde7 5d3c 54a5 1dbd 6fd8 ee3b
00000060: 0c6a 53bd 89f5 153a 6364 8bbb 7cc5 52bd
00000070: 0009 e03c 0957 d9bc a5c7 a7bc daaf e1bd

weight f4 [64, 32, 5, 5]
0.022617836 0.01808407 0.0113911405 -0.012797538 -0.022752782 -0.009693246 -0.0147773 -0.00838797
0.009414101 0.0079153245 0.04010052 -0.004168374 -0.0383697 0.0034167022 -0.0040018316 -0.01154165
0.01815601 0.010670879 0.035831936 -0.0016257227 -0.025493128 -0.034099616 -0.0082573285 0.006663298
0.0149663 -0.0041766353 -0.033122662 0.026819931 0.024022875 -0.026302882 0.0030348653 -0.016120661
-0.020947902 -0.0037149955 -0.022655847 -0.008205955 0.016257435 -0.027757581 0.011355891 0.005999055
0.00012137055 0.03271934 -0.008126013 0.0034741198 0.0112298075 -0.033016775 0.029349672 0.010363019
-0.015389704 0.01817021 -0.01796218 -0.05841851 -0.036418665 -0.006154854 -0.014569141 0.06943507
0.01647895 -0.045401882 -0.008718035 -0.026138317 0.035116103 0.06285594 0.02699918 -0.0378164
-0.038894504 -0.0043562907 0.06586302 0.040495276 0.013474157 0.025830569 -0.013621364 0.0014789219
0.009949359 0.0066465116 0.03633064 0.015323808 -0.0029540444 0.024297018 0.01883205 -0.024509225
0.016914774 -0.008966504 0.017555624 0.006873916 -0.026366955 -0.022241376 0.025028067 0.024404896
0.018714564 -0.00012281259 -0.04000261 -0.028817795 0.0008638667 -0.019080965 -0.015019163 0.023772873
-0.017394409 -0.02817085 -0.011126524 0.018052325 0.01349936 0.012815518 -0.01385101 0.0018529217
0.01429057 -0.0058645294 -0.019614713 0.017959923 -0.027677432 0.013282891 -0.0222189 -0.031460702
0.0010389677 -0.01827082 0.019608125 0.010392573 -0.018126836 0.0036709604 0.033033423 0.04504591
-4.6283047e-05 -0.0031832734 -0.041499738 -0.046927627 -0.05639395 -0.019367646 0.025694402 -0.046773124
-0.0119396625 -0.030912971 0.028976137 -0.031969592 -0.03418818 0.010798445 -0.024700714 -0.0115912175
-0.044693615 -0.008540783 -0.007280459 0.005689576 0.011500122 -0.030433383 -0.016121617 -0.0047944286
-0.014292726 -0.02440245 -0.024875324 -0.02830162 -0.03411241 -0.023343157 -0.01180381 -0.017231295
0.02644023 0.035505477 0.017682096 -0.010529093 0.033944897 -0.02216294 -0.023679473 -0.02460238
0.026677331 -0.030684419 0.022762978 0.031515867 -0.01259651 -0.0037519755 0.0007916645 -0.008600345
-0.0036211796 0.020275662 -0.024234444 0.0045056394 -0.027371699 -0.015336188 0.00079699885 0.03401241
0.012350114 0.015154116 -0.015161388 -0.017880902 0.018135581 -0.004703782 -0.036550228 -0.043928947
0.027370514 -0.018889027 0.013933742 -0.001726648 -0.011993507 -0.028386628 -0.015091228 0.036512688
0.004999779 -0.011170589 0.0051509794 0.041283008 -0.020730047 0.032740887 -0.019163718 -0.020336213
0.035619274 0.013938786 0.02614759 0.03827514 -0.006961678 0.017266018 -0.014910273 0.008197705
0.021039417 -0.015449389 0.0062850104 -0.02724254 -0.014053498 0.005536541 -0.0055516427 0.015523808
-0.005945604 -0.010336136 0.005368311 -0.030942775 0.02783016 0.00233692 -0.028612908 -0.0034718986
-0.0014893408 0.0027893253 0.0013649759 -0.007955507 0.033307742 -0.015730124 -0.003894077 0.050957132
-0.002321587 -0.0111342305 -0.026623512 -0.03890486 0.007933654 -0.035149015 -0.019952813 -0.036568634
-0.03536495 0.020717878 0.022169145 0.03631299 0.016979706 0.018502684 -0.032656513 0.016121708
0.020246414 0.024160234 -0.004521703 0.035069823 -0.010129732 0.023473782 -0.030031325 -0.024635479
00000000: 0a49 b93c 0b25 943c e8a1 3a3c c4ac 51bc
00000010: 0b64 babc 6cd0 1ebc 7d1c 72bc b26d 09bc
00000020: 9a3d 1a3c 47af 013c 7140 243d db96 88bb
00000030: 8c29 1dbd c0ea 5f3b cc21 83bb 3019 3dbc
00000040: eabb 943c e9d4 2e3c 82c4 123d 3416 d5ba
00000050: f7d6 d0bc 0aac 0bbd bf49 07bc cb57 da3b
00000060: 3635 753c 28dc 88bb a1ab 07bd 79b5 db3c
00000070: 9fcb c43c 2479 d7bc 97e4 463b 7a0f 84bc
00000080: ef9a abbc 4877 73bb c198 b9bc 4572 06bc
00000090: 502e 853c de63 e3bc 0f0e 3a3c b993 c43b
000000a0: 5188 fe38 b704 063d f822 05bc 0fae 633b
000000b0: 3afd 373c 993c 07bd b96e f03c a7c9 293c
000000c0: 1925 7cbc b1d9 943c 6c25 93bc 3f48 6fbd
000000d0: bd2b 15bd a8ae c9bb 68b3 6ebc f933 8e3d
000000e0: ddfe 863c 53f7 39bd 17d6 0ebc 0620 d6bc
000000f0: e7d5 0f3d 9dba 803d 622d dd3c 5fe5 1abd
00000100: d84f 1fbd 37bf 8ebb 31e3 863d 60de 253d
00000110: b6c2 5c3c a19a d33c 242c 5fbc 62d8 c13a
00000120: a302 233c fbca d93b 70cf 143d b610 7b3c
00000130: a498 41bb 8a0a c73c ac45 9a3c 92c7 c8bc
00000140: da90 8a3c 3ee8 12bc d0d0 8f3c 963e e13b
00000150: 83ff d7bc 8c33 b6bc a907 cd3c c7ec c73c
00000160: 494f 993c 41c7 00b9 c7d9 23bd 4c13 ecbc
00000170: 1d75 623a af4f 9cbc ef12 76bc 54bf c23c
00000180: b87e 8ebc 8ec6 e6bc 064c 36bc 78e2 933c
00000190: 6b2c 5d3c 2ef8 513c 59ef 62bc bcdd f23a
000001a0: ff22 6a3c 3d2b c0bb 09af a0bc b020 933c
000001b0: c8bb e2bc 7ca0 593c 6904 b6bc f0dc 00bd
000001c0: f92d 883a b0ac 95bc 38a1 a03c 9c45 2a3c
000001d0: bb7e 94bc 7f94 703b 0e4e 073d 0f82 383d
000001e0: 0b20 42b8 779e 50bb a1fb 29bd 2f37 40bd
000001f0: 58fd 66bd e6a8 9ebc 117d d23c 2d95 3fbd
00000200: 939e 43bc 333d fdbc 5d5f ed3c 8cf2 02bd
00000210: e808 0cbd f6eb 303c 2759 cabc 17e9 3dbc
00000220: a710 37bd a4ee 0bbc eb90 eebb 9f6f ba3b
00000230: 026b 3c3c 6e4f f9bc 7b11 84bc 951a 9dbb
00000240: 0a2c 6abc a6e7 c7bc 56c7 cbbc cdd8 e7bc
00000250: 74b9 0bbd 263a bfbc c464 41bc a528 8dbc
00000260: 2e99 d83c 316e 113d 0bda 903c 3882 2cbc
00000270: ce09 0b3d 0e8f b5bc 74fb c1bc ee8a c9bc
00000280: 6b8a da3c e45d fbbc 6d79 ba3c c816 013d
00000290: 9861 4ebc b4e3 75bb b587 4f3a 76e8 0cbc
000002a0: 5051 6dbb 2519 a63c 5087 c6bc 0ba4 933b
000002b0: 9d3a e0bc a244 7bbc b0ed 503a 9950 0b3d
000002c0: 2258 4a3c f848 783c 7867 78bc f87a 92bc
000002d0: 1291 943c 2f22 9abb b1b5 15bd d7ee 33bd
000002e0: 2138 e03c 29bd 9abc 5a4a 643c b150 e2ba
000002f0: 6a80 44bc 138b e8bc 3341 77bc 548e 153d
00000300: 30d5 a33b d904 37bc 8cc9 a83b 5f18 293d
00000310: 0fd2 a9bc 4f1b 063d 3bfd 9cbc 2198 a6bc
00000320: 84e5 113d 825f 643c 7833 d63c 65c6 1c3d
00000330: ca1e e4bb 7771 8d3c 384a 74bc ab4f 063c
00000340: db5a ac3c 6f1f 7dbc 7df2 cd3b bf2b dfbc
00000350: a540 66bc df6b b53b 8eea b5bb 9257 7e3c
00000360: 57d3 c2bb e658 29bc a8e8 af3b b47b fdbc
00000370: 13fc e33c 0327 193b 9e65 eabc cb88 63bb
00000380: fc35 c3ba 1dcd 363b fee8 b23a d157 02bc
00000390: b36d 083d 76dc 80bc c533 7fbb 6db8 503d
000003a0: c425 18bb 596c 36bc 8d19 dabc b45a 1fbd
000003b0: 28fc 013c 6af8 0fbd 1574 a3bc fec8 15bd
000003c0: d6da 10bd 8ab8 a93c 119c b53c eebc 143d
000003d0: 0619 8b3c f192 973c d6c2 05bd ac11 843c
000003e0: cfdb a53c afeb c53c cb2a 94bb 60a5 0f3d
000003f0: 2df7 25bc 174c c03c 4104 f6bc 58d0 c9bc

bias f4 [64]
0.02745808 -0.028029015 0.03058541 -0.018368348 -0.04984915 -0.046791922 0.0034802945 0.008269999
-0.040629543 0.008667143 -0.03032862 -0.0113828825 -0.039306235 -0.0049223686 -0.04285863 0.0065594777
-0.01217032 -0.029202905 -0.079240456 -0.00042797768 -0.05413247 -0.04914789 -0.024681447 -0.013708138
0.028803088 -0.056704182 -0.07817134 -0.038236015 0.023079718 0.0036665166 0.031375214 0.012004203
-0.0033741826 -0.017194888 -0.04066846 -0.058542043 -0.025909938 0.024409294 0.0031066395 0.009556255
-0.05831628 -0.041154284 0.009787778 -0.040907506 -0.007557293 -0.009490206 0.030534813 -0.039182156
-0.02643979 -0.02683647 -0.055281874 -0.03221705 0.03378958 -0.0009950247 -0.053032584 -0.059219617
-0.031380028 -0.0389137 -0.008204555 -0.04412753 -0.04798133 -0.0040316237 -0.0006977028 -0.057582278
00000000: c4ef e03c 1b9d e5bc 418e fa3c 3879 96bc
00000010: 9f2e 4cbd e3a8 3fbd a715 643b e47e 073c
00000020: 2a6b 26bd a200 0e3c ba73 f8bc 457f 3abc
00000030: 93ff 20bd d24b a1bb 888c 2fbd e3f0 d63b
00000040: 0666 47bc ee3a efbc d248 a2bd 3162 e0b9
00000050: 02ba 5dbd 4c4f 49bd bf30 cabc 1998 60bc
00000060: 74f4 eb3c a542 68bd 4c18 a0bd 5e9d 1cbd
00000070: ad11 bd3c f149 703b 4c83 003d 47ad 443c
00000080: 6421 5dbb 4bdc 8cbc f993 26bd c8c9 6fbd
00000090: 1441 d4bc 00f6 c73c c398 4b3b d791 1c3c
000000a0: 0ddd 6ebd 6591 28bd eb5c 203c a18e 27bd
000000b0: 2ba3 f7bb cf7c 1bbc 2524 fa3c 787d 20bd
000000c0: 4298 d8bc 28d8 dbbc 3f6f 62bd 07f6 03bd
000000d0: f166 0a3d 7d6b 82ba b238 59bd 4590 72bd
000000e0: 5888 00bd f963 1fbd 666c 06bc 12bf 34bd
000000f0: 1288 44bd b61b 84bb 0be6 36ba 65db 6bbd

weight f4 [64, 1024]
0.017824871 0.019847328 0.039602846 0.019198183 0.016050035 -0.0485406 -0.0057279197 0.013343216
-0.012806089 0.015516156 0.013653557 0.028508753 -0.020472066 0.0034602222 0.025184058 0.015667645
0.015140688 -0.026767217 -0.00068475585 -0.012433021 -0.01648527 0.026997894 0.006379502 -0.011488288
-0.010481729 -0.030839477 -0.0050456757 -0.014737018 0.023996694 0.013328312 0.023509271 0.015445125
-0.01297885 0.021223858 0.013928244 -0.029624324 0.039198954 -0.00805963 0.032598555 0.024842864
0.045887142 0.041203007 0.040936716 -0.006119516 -0.0029115838 0.021581916 0.009995371 0.019841053
-0.020890906 -0.03520057 0.022211032 -0.004824262 0.007973979 0.020278666 0.029381769 -0.0030432758
0.029837213 -0.014563552 -0.0035058968 -0.01052335 0.008043463 0.018465728 0.0019870005 -0.00090119557
0.0028156156 -0.012603546 -0.019054977 -0.03127582 -0.031240817 0.021161012 -0.022000583 -0.0061830506
0.017269094 -0.030890761 -0.024423415 0.0013511655 -0.009493683 -0.027840968 0.01616524 -0.020348702
0.022679476 -0.011927579 0.010079127 -0.00963465 -0.035490297 -0.011065688 0.017286994 -0.032414358
-0.034300502 0.033269346 -0.036995668 0.0005185948 0.025347378 0.02856809 -0.028899545 0.013279056
-0.029382821 -0.019440858 0.0030445924 0.01930234 0.012968149 -0.026329111 -0.0047439574 -0.031576436
-0.017357597 0.009990169 -0.037016362 0.029304689 0.0046924907 -0.010610173 -0.025167532 0.030106032
-0.002137857 0.018843736 0.035367507 0.031226672 -0.010031729 0.0013029951 0.013781771 0.015364327
0.0060307467 0.02205755 0.015906606 -0.0024524329 0.007538173 -0.039438754 -0.018007744 0.026762336
0.01146728 0.004592875 -0.0144246835 0.02164305 -0.02804376 -0.046820585 -0.01793129 0.0046046483
0.028986135 0.010639239 0.036109548 0.011893174 0.004477404 -0.013628048 -0.0019168735 0.034131445
0.016371515 -0.008754957 -0.0141799 -0.019994823 0.027299382 0.03837347 0.021127429 0.0471888
0.019604567 -0.038727924 -0.005481926 -0.0017803258 0.006703875 0.004828038 -0.010027991 -0.03737919
-0.019558525 0.02032593 0.009101906 -0.010650256 0.03700805 0.0012718935 -0.028874816 0.03477205
0.004912207 0.023122035 0.012971599 -0.002406342 0.044048335 0.041168723 -0.011714338 -0.0018969186
0.017649522 0.0022824365 0.0070566395 -0.008745725 0.010824099 -0.043364335 -0.0012749259 -0.03672744
-0.022865072 -0.020106334 0.01875257 -0.022648942 -0.017074373 -0.011159028 0.015420211 0.016041407
0.0080900155 0.038147345 -0.023123961 -0.022296708 -0.033375412 -0.020410595 0.00940919 -0.017401457
-0.0049476367 0.051168717 0.0011905179 0.00016247958 0.024954721 0.0115741305 -0.024609637 -0.010332861
0.019282082 -0.031139307 0.0007830475 0.02348703 0.0018168105 -0.003388217 0.009500854 -0.009259828
-0.006391838 0.0010137482 -0.023894137 -0.010275799 0.04109862 0.024713932 0.034353685 0.011130283
0.023778504 -0.014953082 0.010061451 0.020264862 -0.011648563 -0.015674157 0.041519746 0.015143832
0.012031324 -0.026310071 -0.036891915 0.011427163 -0.031956825 -0.03972726 -0.015161303 -0.024068225
0.02623215 -0.011580295 -0.0026196418 0.038719274 -0.028220845 -0.021229008 0.03004062 -0.001643658
-0.014746935 0.05200337 0.027707148 -0.023757575 -0.005703249 0.0036881652 0.031875234 0.014609216
00000000: 7705 923c dd96 a23c 9836 223d 8245 9d3c
00000010: 5d7b 833c 82d2 46bd 46b1 bbbb 819d 5a3c
00000020: a1d0 51bc 7a37 7e3c 2bb3 5f3c 308b e93c
00000030: 09b5 a7bc e5c4 623b cc4e ce3c 6f59 803c
00000040: a610 783c ec46 dbbc 3081 33ba dfb3 4bbc
00000050: 1e0c 87bc b02a dd3c 240b d13b 5f39 3cbc
00000060: 8fbb 2bbc 12a3 fcbc 3256 a5bb 8973 71bc
00000070: b794 c43c fe5e 5a3c 8496 c03c 8d0d 7d3c
00000080: 3ea5 54bc a8dd ad3c 4a33 643c b6ae f2bc
00000090: 158f 203d 8a0c 04bc 1086 053d 4383 cb3c
000000a0: 28f4 3b3d 7cc4 283d 42ad 273d 3986 c8bb
000000b0: 45d0 3ebb 8fcc b03c a0c3 233c b489 a23c
000000c0: 6823 abbc 792e 10bd e9f3 b53c d814 9ebb
000000d0: 4ba5 023c 721f a63c 09b2 f03c b271 47bb
000000e0: 2c6d f43c f79b 6ebc 30c3 65bb 216a 2cbc
000000f0: bbc8 033c 7045 973c 5638 023b 363e 6cba
00000100: 3186 383b 1a7f 4ebc 2f19 9cbc 131b 00bd
00000110: beec ffbc dc59 ad3c 913a b4bc 309b cabb
00000120: ea77 8d3c 9f0e fdbc 9d13 c8bc 9719 b13a
00000130: 658b 1bbc be12 e4bc f76c 843c 52b2 a6bc
00000140: 4fca b93c e46b 43bc ec22 253c a7da 1dbc
00000150: 465e 11bd dc4c 35bc 749d 8d3c ebc4 04bd
00000160: af7e 0cbd 7045 083d c588 17bd 4ff2 073a
00000170: 4ea5 cf3c a107 ea3c bdbe ecbc 6690 593c
00000180: 3eb4 f0bc 6f42 9fbc c987 473b f11f 9e3c
00000190: 5c78 543c 26b0 d7bc 3373 9bbb 4b56 01bd
000001a0: 8531 8ebc cead 233c 789e 17bd 6310 f03c
000001b0: 77c3 993b 4bd6 2dbc 242c cebc eda0 f63c
000001c0: 4a1b 0cbb 2e5e 9a3c 85dd 103d 14cf ff3c
000001d0: 1f5c 24bc 43c9 aa3a f0cc 613c a8ba 7b3c
000001e0: 929d c53b 09b2 b43c 924e 823c ffb8 20bb
000001f0: c702 f73b 888a 21bd fa84 93bc b03c db3c
00000200: 42e1 3b3c d47f 963b 8255 6cbc c44c b13c
00000210: 07bc e5bc f1c6 3fbd a4e4 92bc 97e2 963b
00000220: 5574 ed3c 3450 2e3c 9be7 133d 96db 423c
00000230: 30b7 923b 2d48 5fbc 9a3f fbba 6acd 0b3d
00000240: 8e1d 863c f370 0fbc d052 68bc 2fcc a3bc
00000250: f4a2 df3c 802d 1d3d 6e13 ad3c 0b49 413d
00000260: c299 a03c 2ca1 1ebd baa1 b3bb d259 e9ba
00000270: 2eac db3b 8534 9e3b 714c 24bc ec1a 19bd
00000280: 3339 a0bc 9182 a63c 2920 153c 697e 2ebc
00000290: c195 173d aab5 a63a e18a ecbc 236d 0e3d
000002a0: 94f6 a03b 6c6a bd3c d486 543c b8b3 1dbb
000002b0: 076c 343d 89a0 283d 7fed 3fbc 07a2 f8ba
000002c0: bb95 903c ee94 153b 623b e73b 3b4a 0fbc
000002d0: 9057 313c cd9e 31bd 6a1b a7ba 836f 16bd
000002e0: 884f bbbc 0ab6 a4bc fd9e 993c 468a b9bc
000002f0: 8edf 8bbc 5bd4 36bc 0da5 7c3c 4569 833c
00000300: fc8b 043c 6440 1c3d 766e bdbc 96a7 b6bc
00000310: a8b4 08bd 1f34 a7bc 0129 1a3c 808d 8ebc
00000320: c91f a2bb 4a96 513d 270b 9c3a 485f 2a39
00000330: d86d cc3c 6ca1 3d3c 269a c9bc 294b 29bc
00000340: 75f5 9d3c dc17 ffbc 6e45 4d3a df67 c03c
00000350: 0b22 ee3a d90c 5ebb 78a9 1b3c 89b6 17bc
00000360: a072 d1bb bfdf 843a a3bd c3bc d35b 28bc
00000370: 0757 283d df74 ca3c 73b6 0c3d ca5b 363c
00000380: 23cb c23c c6fd 74bc c9d8 243c 7f02 a63c
00000390: 9dd9 3ebc 1767 80bc 9c10 2a3d d61d 783c
000003a0: 081f 453c 3888 d7bc fa1b 17bd ff38 3b3c
000003b0: 29e5 02bd 0db9 22bd 1d67 78bc ba2a c5bc
000003c0: cee4 d63c 47bb 3dbc 4cae 2bbb 1a98 1e3d
000003d0: 672f e7bc 75e8 adbc bf17 f63c 0370 d7ba
000003e0: 219d 71bc 7c01 553d 1afa e23c 3f9f c2bc
000003f0: 52e2 babb 25b5 713b 9b8f 023d 7e5b 6f3c

bias f4 [64]
0.02805283 0.0093161035 0.010218426 -0.004743377 -0.005066021 -0.014793733 0.0102748005 0.014593376
0.008850515 -0.03749964 -0.01954016 -0.033646494 0.009859167 0.024234915 0.0011411553 0.011452004
-0.037397806 0.023636835 -0.024310103 -0.023491608 0.030484412 0.01577806 0.024512568 0.027391793
-0.06100104 -0.010915897 0.012003868 0.028368434 -0.016318966 -0.04928903 0.020391304 0.008856094
-0.009189753 -0.033251077 0.030278353 0.01485101 -0.015558452 -0.005356893 0.018054549 0.01791772
0.0046733855 -0.023807663 0.006706086 -0.061095905 -0.035467744 -0.006549174 0.0076560266 -0.0029278137
-0.027875124 -0.04778221 0.012836274 -0.016389176 0.007888327 -0.022971462 0.018729258 -0.021889774
0.014521949 -0.036505632 -0.009612448 -0.025394289 -0.008745788 -0.023939798 0.0045800926 0.001529372
00000000: 0ccf e53c 92a2 183c 2f6b 273c 556e 9bbb
00000010: dd00 a6bb 6a61 72bc a357 283c 0e19 6f3c
00000020: c001 113c 3999 19bd b012 a0bc e8d0 09bd
00000030: 5888 213c 4d88 c63c d192 953a 30a1 3b3c
00000040: 712e 19bd 09a2 c13c fb25 c7bc 7971 c0bc
00000050: 72ba f93c fd40 813c 95ce c83c c164 e03c
00000060: 3adc 79bd 97d8 32bc dfab 443c eb64 e83c
00000070: 5aaf 85bc 4be3 49bd aa0b a73c 2719 113c
00000080: 9e90 16bc 4832 08bd 4f0a f83c a751 733c
00000090: e1e8 7ebc e088 afbb 22e7 933c 2fc8 923c
000000a0: 3323 993b 4a08 c3bc babe db3b b33f 7abd
000000b0: a046 11bd 749a d6bb 68df fa3b 90e0 3fbb
000000c0: 5f5a e4bc 47b7 43bd 3c4f 523c 9842 86bc
000000d0: 0b3e 013c a62e bcbc 1a6e 993c 2f52 b3bc
000000e0: 78ed 6d3c ee86 15bd 877d 1dbc af07 d0bc
000000f0: 7e4a 0fbc 651d c4bc 9a14 963b 3575 c83a

weight f4 [10, 64]
-0.15477155 -0.01433668 -0.002822132 0.20421155 -0.02103455 -0.13178812 -0.10375326 -0.11748651
0.09324475 0.09211976 -0.12996602 0.15347011 -0.087355904 -0.026247876 -0.13460755 0.037758306
0.051993255 -0.04484568 0.23979402 0.018978396 -0.19449198 0.1297309 -0.1764897 0.07339282
0.054765347 0.06368813 0.1316004 -0.13224836 0.0014396468 0.049318574 -0.09612108 -0.14751685
-0.20424311 0.031679958 0.008991042 -0.04891556 0.12615778 0.12135683 -0.13881372 -0.13556497
-0.18913743 0.077820666 -0.13765465 0.11484656 0.10626997 -0.11667727 -0.1196191 -0.12381164
-0.102475576 -0.15449862 -0.092889346 0.1128224 0.08342782 0.09847414 0.024156412 -0.0044734115
0.20147078 0.1491998 0.023309113 -0.08490054 -0.07743334 0.06369517 0.14057492 -0.19697662
0.16478617 0.11652477 0.10508357 0.109327614 0.123511605 0.19530073 -0.14389083 -0.14812751
-0.006103052 -0.098402835 0.13349925 -0.17243314 0.03647591 0.12005354 0.08571529 -0.09480748
-0.099172845 -0.2997895 0.05921153 0.19350895 0.09618602 -0.025179073 -0.19382048 -0.20063801
-0.009521477 0.16983603 0.08877294 -0.13984926 -0.087795086 0.081684165 -0.16061887 -0.020721404
0.038942557 -0.20346804 0.11837902 0.070703335 -0.07269464 0.16657168 0.22149163 -0.05947983
0.0011314178 -0.21856664 -0.08116327 0.25649604 0.08786154 0.22842984 0.15975054 -0.09349885
-0.08989645 0.23598884 0.12177357 -0.20649925 -0.13807319 0.013605789 -0.19021681 0.19545472
0.1666404 0.0635093 0.12547523 -0.0569851 -0.0012061242 -0.21388555 0.08181081 0.10549949
0.034734216 0.02658412 0.11310053 0.06073478 -0.06380644 -0.10221295 0.17521486 -0.056995112
0.14032768 0.13558643 0.0574896 0.13395862 0.14233626 -0.019955397 -0.10032238 -0.113354445
0.11585448 0.1320767 -0.011894628 -0.032634616 -0.02003962 -0.040991697 -0.1345229 0.08748912
0.02888615 0.03590467 -0.04807802 0.12503424 0.10864055 0.092892334 0.00023715527 0.08288055
-0.17879736 0.06365133 -0.06638301 -0.07257786 -0.18896894 -0.030966092 -0.040870037 -0.14136279
-0.10356282 0.17371285 -0.028888742 -0.17919075 0.11422905 -0.16600348 -0.17775947 -0.0006540443
0.0013916338 0.017482135 -0.01384888 -0.1348255 -0.023906855 -0.08346332 0.17393763 0.007789735
-0.15892181 -0.070917465 0.105416015 -0.15534939 0.1070863 -0.15928052 -0.17574985 -0.04316667
-0.058253516 0.0068280217 -0.04729443 -0.0900987 0.11132965 -0.17865404 -0.028992834 -0.10092713
0.057238203 -0.004799521 0.027687257 -0.10474416 0.009785415 -0.14698006 0.034210503 0.07170879
0.1539667 0.10242156 -0.11381632 -0.014707944 0.07737199 0.11897189 0.045663472 -0.0016366303
-0.16192098 -0.07629469 -0.016460579 -0.04032118 0.10982089 -0.14951605 0.14648944 -0.062303938
0.043188643 0.1351108 -0.11969513 0.114888705 -0.04695892 -0.04147387 0.083737336 -0.11611053
0.16284555 -0.04446919 0.11497134 -0.009370247 -0.13001645 0.03251808 -0.061079916 0.105700836
-0.10911458 0.044134073 -0.15586966 -0.00892596 -0.0006286989 0.094417766 0.050105643 0.07921781
-0.14675488 0.10683355 -0.053996205 0.046526268 -0.1412157 0.057392076 -0.07578048 0.15327233
00000000: 6f7c 1ebe 65e4 6abc 85f3 38bb d51c 513e
00000010: a650 acbc 77f3 06be 977c d4bd c49c f0bd
00000020: 1af7 be3d 49a9 bc3d d015 05be 4527 1d3e
00000030: a7e7 b2bd c905 d7bc 90d6 09be 74a8 1a3d
00000040: e1f6 543d 1bb0 37bd 908c 753e 9578 9b3c
00000050: e828 47be 2dd8 043e b7b9 34be fa4e 963d
00000060: a151 603d ec6e 823d 41c2 063e 1d6c 07be
00000070: 88b2 bc3a 4602 4a3d 21db c4bd a80e 17be
00000080: 1b25 51be d8c2 013d 2a4f 133c af5b 48bd
00000090: 812f 013e ee89 f83d 2f25 0ebe 8bd1 0abe
000000a0: 3ead 41be 7160 9f3d 57f5 0cbe ac34 eb3d
000000b0: 12a4 d93d 7ef4 eebd dcfa f4bd f590 fdbd
000000c0: b7de d1bd e334 1ebe c53c bebd 6e0f e73d
000000d0: 34dc aa3d cfac c93d abe3 c53c b295 92bb
000000e0: 5b4e 4e3e d5c7 183e c1f2 be3c 56e0 adbd
000000f0: 5f95 9ebd 9d72 823d dff2 0f3e 3db4 49be
00000100: b5bd 283e 8aa4 ee3d 0e36 d73d 28e7 df3d
00000110: a7f3 fc3d eafc 473e 1e58 13be bdae 17be
00000120: 1cfc c7bb 6d87 c9bd 07b4 083e 5092 30be
00000130: c467 153d a1de f53d 7f8b af3d 6d2a c2bd
00000140: 221b cbbd 027e 99be ca87 723d 3627 463e
00000150: 2dfd c43d 5844 cebc e078 46be 0d74 4dbe
00000160: f8ff 1bbc 7fe9 2d3e 96ce b53d a534 0fbe
00000170: e9cd b3bd 074a a73d 4679 24be efbf a9bc
00000180: 3b82 1f3d ed59 50be b370 f23d e9cc 903d
00000190: ede0 94bd c491 2a3e b4ce 623e 1fa1 73bd
000001a0: 154c 943a efcf 5fbe ee38 a6bd 7353 833e
000001b0: c0f0 b33d 83e9 693e a595 233e 537c bfbd
000001c0: a11b b8bd 0fa7 713e 6c64 f93d 8a74 53be
000001d0: 0f63 0dbe d1ea 5e3c 32c8 42be 4825 483e
000001e0: c8a3 2a3e 2a11 823d 947c 003e 3569 69bd
000001f0: d016 9eba d004 5bbe 6d8c a73d 1e10 d83d
00000200: 7745 0e3d f1c6 d93c 40a1 e73d 08c5 783d
00000210: f3ac 82bd 0655 d1bd 866b 333e b573 69bd
00000220: 0fb2 0f3e 2bd7 0a3e 377a 6b3d 732c 093e
00000230: 99c0 113e 8079 a3bc d275 cdbd 6026 e8bd
00000240: 1d45 ed3d 1d3f 073e b0e1 42bc e0ab 05bd
00000250: 212a a4bc e9e6 27bd 5fc0 09be 7f2d b33d
00000260: a6a2 ec3c c610 133d 75ed 44bd fa08 003e
00000270: f07e de3d 563e be3d e2ac 7839 47bd a93d
00000280: a816 37be a15b 823d d1f3 87bd b3a3 94bd
00000290: 1381 41be 9aac fdbc 5767 27bd 68c1 10be
000002a0: be18 d4bd c8e1 313e 15a8 ecbc c87d 37be
000002b0: ecf0 e93d d1fc 29be 9406 36be 2c74 2bba
000002c0: 7b67 b63a b236 8f3c 6ae6 62bc b20f 0abe
000002d0: 4fd8 c3bc d1ee aabd b51c 323e 0941 ff3b
000002e0: 66bc 22be 2d3d 91bd 5ae4 d73d e913 1fbe
000002f0: 1050 db3d 6f1a 23be c5f7 33be 89cf 30bd
00000300: 3d9b 6ebd 99bd df3b ceb7 41bd ab85 b8bd
00000310: cd00 e43d 16f1 36be 6182 edbc e2b2 cebd
00000320: 9b72 6a3d 4d45 9dbb 63d0 e23c 1b84 d6bd
00000330: 0153 203c f181 16be 5020 0c3d 0fdc 923d
00000340: 72a9 1d3e 65c2 d13d 8818 e9bd 97f9 70bc
00000350: 3575 9e3d 89a7 f33d 9f09 3b3d 3384 d6ba
00000360: 9dce 25be 6440 9cbd 56d8 86bc d227 25bd
00000370: c6e9 e03d bc1a 19be 5401 163e 6a32 7fbd
00000380: 93e6 303d 7c5a 0a3e b822 f5bd c54a eb3d
00000390: ff57 40bd 81e0 29bd 7b7e ab3d 5ccb edbd
000003a0: fcc0 263e 5325 36bd 1876 eb3d aa85 19bc
000003b0: 0823 05be ae31 053d ef2e 7abd ae79 d83d
000003c0: 7777 dfbd eec5 343d 4c9c 1fbe 313e 12bc
000003d0: 45cf 24ba 1a5e c13d 933b 4d3d f23c a23d
000003e0: e946 16be 8ccb da3d 202b 5dbd 5492 3e3d
000003f0: d99a 10be f413 6b3d cc32 9bbd 6cf3 1c3e

bias f4 [10]
-0.16591974 -0.06401999 -0.006882121 0.068140164 0.14825442 -0.08604987 0.07434266 -0.1055888
0.021211509 0.05374572
00000000: dde6 29be ea1c 83bd 6a83 e1bb 128d 8b3d
00000010: 02d0 173e ea3a b0bd f740 983d f13e d8bd
00000020: c2c3 ad3c 7924 5c3d
