src/kiki_2.pth (torch, 588714 bytes, 10 tensors)

weight f4 [32, 3, 5, 5]
000000 f6 29 43 bd 32 66 ed ba 1e 3b c7 bd 70 1c b3 bd
       -0.04764744 -0.0018112122 -0.097280726 -0.087456584
000010 49 33 ea 3c e3 fe 14 3d b9 a1 5c 3d a6 0d a9 bd
       0.028588908 0.03637589 0.05386517 -0.08254556
000020 4f 84 e6 3d a0 6b fc bc 32 5f 51 3d f2 9c da bd
       0.112557046 -0.030813038 0.051116176 -0.10674466
000030 ff 34 3b 3d dd 43 ac 3d c9 52 10 bc c5 b1 e7 bc
       0.045704838 0.084113814 -0.0088088 -0.02828301
000040 8d 41 83 3d 45 33 ad bd 94 b0 eb 3c fd 18 61 3c
       0.06408987 -0.084570445 0.028770722 0.013738868
000050 88 25 f0 3c 57 fa ec bd a7 d8 8c bd c6 83 be ba
       0.029314771 -0.11571186 -0.06877261 -0.0014535121
000060 3e 0c ce bd f5 e3 89 3d d4 d2 c0 3d 1a cf f1 bc
       -0.10060929 0.067329325 0.09415212 -0.029517699
000070 67 8e 44 3d 80 8c 8d bd 70 12 52 3d 21 70 b1 3d
       0.047987368 -0.06911564 0.051287115 0.08663965
000080 0e 1d e9 bc b3 19 c1 3d eb f6 82 b9 07 40 cd bd
       -0.028456237 0.0942873 -0.000249795 -0.10021978
000090 35 37 58 3c 12 e6 1b 3d c0 cd a0 bd b9 f2 58 bd
       0.013196756 0.03806121 -0.07851744 -0.052965853
0000a0 43 65 a4 3d 67 c5 07 be 14 34 44 bb 24 d2 f3 bd
       0.08027127 -0.13258897 -0.0029938268 -0.119053155
0000b0 af 8f ba 3c f2 44 70 bd 75 b2 1e be f6 12 61 bd
       0.022773592 -0.0586595 -0.15497763 -0.054949723
0000c0 bb b0 86 bd 9e 3b 4c bd a0 dc 09 3e 84 c2 25 3d
       -0.065766774 -0.049861543 0.13463068 0.040468708
0000d0 c0 86 14 3e d9 2e 94 3c a0 31 de 3d 7e dd a7 bd
       0.14504528 0.018088745 0.10849309 -0.08196543
0000e0 2f 02 8d 3d 6e 8a f8 3c 88 f5 cf 3d 38 82 93 bd
       0.06885182 0.030339446 0.10154253 -0.07202572
0000f0 37 cb 5f bd 91 57 7e 3d 2d c1 ec 3d 78 32 06 bd
       -0.05463716 0.06209523 0.11560283 -0.032762975
000100 ec 27 05 bd 52 91 9d 3d 6e 85 3b 3d 03 ba 5a 3d
       -0.032508776 0.07693733 0.045781545 0.05340005
000110 a3 5b 24 bb 32 2a 87 3c cd fc a2 3d e5 49 86 bd
       -0.0025079034 0.016499612 0.07958374 -0.06557063
000120 0e 28 a7 3c c2 78 21 3d 5d dc d8 bd df 5d c9 3c
       0.020404842 0.039421804 -0.10588906 0.024580894
000130 03 06 80 3d 92 bf 0c bb 97 2f 9e 3c ea 45 c1 3c
       0.06251147 -0.002147649 0.019309802 0.023592908
000140 1b 93 8a 3d 3d 7c 05 3e ab 82 c8 3d 07 b9 00 be
       0.067663394 0.13035674 0.09790548 -0.12570582
000150 24 2b fc bd 18 d0 8c 3d f0 ee ac 3c 62 42 08 be
       -0.12312916 0.06875628 0.021110028 -0.13306573
000160 46 eb 61 bd 7c 9f 01 be 64 da 9e 3c eb c7 2d bd
       -0.055156015 -0.12658495 0.019391246 -0.042426985
000170 d1 1c 9d bd af 23 b6 3d 08 79 06 3e 7e f6 1c 3e
       -0.07671512 0.08893525 0.13132107 0.15328404
000180 2e 98 e2 3d 22 9d 31 bc ed 4e 2f 3d 2e 46 12 3d
       0.11064182 -0.010840686 0.04279988 0.03571146
000190 55 bc 6e bd c9 b2 b0 bd fa 48 ab 3c 9b e7 f2 bd
       -0.058285076 -0.086278506 0.020908821 -0.118605815
0001a0 2d 1b 3a bd 8b 71 ac bd 19 c2 b7 bd 70 ca 14 3a
       -0.045436073 -0.08420094 -0.08972568 0.00056759175
0001b0 2f 00 05 be d7 07 28 be 94 6e c3 3d 9f c5 af bd
       -0.12988351 -0.1640924 0.095425755 -0.08582615
0001c0 a9 8b 0b be 54 f1 85 bd a5 fd 1c be f3 07 0f bd
       -0.13627495 -0.0654017 -0.15331133 -0.03491969
0001d0 f7 41 35 bc 29 25 e0 bd 04 01 12 3d 39 c7 81 3c
       -0.0110630905 -0.10944588 0.0356455 0.015842067
0001e0 3b b3 b0 bc aa 73 32 3d f9 75 fa 3d 23 7e b8 bd
       -0.021569839 0.043567337 0.12229533 -0.09008434
0001f0 dc 6e 31 ba 5e 01 b6 bd 95 35 9b 3c 86 4e a2 3d
       -0.00067685335 -0.088869795 0.018946448 0.079251334
000200 13 ed 0b be eb 6c 20 be ca ac 61 3d f1 07 bb bd
       -0.13664655 -0.15666549 0.055096425 -0.09132374
000210 ad 01 17 3b b1 87 06 3c c4 11 0f 3d 0c 31 57 bd
       0.002304177 0.008211062 0.034929052 -0.05253701
000220 6f 74 bc bc 41 cc e8 bc 04 38 a1 bd 8e 92 2d be
       -0.023004739 -0.028417708 -0.07872012 -0.16950437
000230 7b c2 75 3d 24 9d e7 bd 70 c7 df bd 26 48 d3 3c
       0.059999924 -0.11309269 -0.109267116 0.025791239
000240 dc b0 6a bc 8f 26 3e 3c fe 7c a1 bc a9 a4 08 bd
       -0.014324393 0.011605873 -0.019712921 -0.033360157
000250 e6 d8 2b 3c 6f ea c5 3d 63 a5 81 3d 2a 72 15 3d
       0.010488724 0.09663855 0.06330373 0.03648583
000260 60 fa 9d bd 75 01 d3 3d 62 8f ff 3d ab 97 7a bd
       -0.07713771 0.10303012 0.1247852 -0.061179798
000270 7a 38 c3 3d ac 64 89 3d 83 86 b6 bd 2a 99 cc bd
       0.095322564 0.06708655 -0.08912375 -0.09990151
000280 01 52 37 bd 5c 2b 55 3d 10 ed 81 bd 94 ae f5 bd
       -0.04475594 0.052043304 -0.06344044 -0.11996189
000290 bd d1 23 bd 43 e4 5a bd fd 6c de bc 2e ea f4 bd
       -0.039994944 -0.053440344 -0.027151579 -0.11958729
0002a0 74 d9 98 3d ed fb 6c 3c 26 0e 6d bd 9e 1f a4 bd
       0.07463351 0.014464361 -0.05787482 -0.08013843
0002b0 0f 2b 78 3d 0b e7 fc 3d a4 15 f8 3c 52 80 94 3d
       0.06058794 0.123487554 0.030283757 0.07251038
0002c0 09 75 8d bd 5b 30 ff 3c 15 b0 99 bb 25 b6 ef bd
       -0.06907088 0.031150987 -0.00469018 -0.11704663
0002d0 aa 82 e6 bd 34 d7 a3 3d 90 28 a3 bd 06 71 9a 3d
       -0.11255391 0.08000031 -0.07966721 0.07541089
0002e0 01 bb d9 bd bd 83 0a 3c df 6b 63 bd ec 46 cf bd
       -0.10631371 0.00845426 -0.055522796 -0.10120949
0002f0 11 0b 40 3d a0 eb 92 bd 68 27 1e 3b 2d 18 ac bd
       0.046885554 -0.07173848 0.0024132375 -0.08403049
000300 4d d4 f9 bd d2 11 e4 bd 31 11 be bd 2a fa f7 bd
       -0.12198696 -0.111362115 -0.09280623 -0.12108262
000310 2a 9e 4e 3d a4 96 c9 3d d3 44 08 3d 77 9e 61 3d
       0.050443806 0.098431855 0.03326876 0.055082764
000320 7b d0 9f bd 21 80 1b bd bd bf c1 3d 24 0f 63 bd
       -0.07803436 -0.03796399 0.09460399 -0.05543436
000330 a7 05 c0 3d 33 64 dc bb 23 a0 17 3d bd 8a ca 3d
       0.09376078 -0.006725812 0.037017953 0.098897435
000340 a8 a0 d6 3d eb 1e 17 bd be ea 5c bd 59 aa cb bd
       0.104798615 -0.03689472 -0.053934805 -0.099446006
000350 49 ea 8a 3d 4a 47 91 3d 9d a5 c4 bd e8 46 df bd
       0.067829676 0.070936754 -0.09601901 -0.10902196
000360 85 8c f0 bc a4 92 a1 bc ac de 18 bb 5d b1 63 bd
       -0.02936388 -0.019723244 -0.0023326082 -0.05558907
000370 5f 66 b9 bd 8d 6d eb 3c 73 7d ff 3c 49 cf a8 bd
       -0.09052729 0.028738761 0.031187749 -0.082426615
000380 e7 7a 19 3d 3a 36 b9 bd df f6 41 3c 09 3e 3b 3d
       0.037470724 -0.09043546 0.011838644 0.04571346
000390 ee af dd 3b 63 9b e9 3c e5 bc d3 3d 11 8d 6f 3c
       0.006765357 0.028516477 0.10338763 0.014621035
0003a0 60 94 bb 3d dd c8 8b bd f7 0c e7 3c d0 57 df bd
       0.0915916 -0.06825421 0.028204424 -0.10905421
0003b0 6d 87 e7 bd 61 9e 0c bd c7 de 88 bd a5 df 06 3d
       -0.11305127 -0.03433073 -0.066831164 0.032928128
0003c0 5f af 2c 3c 8e 7a aa bd e8 62 9e 3d 57 66 d8 3d
       0.010539859 -0.08324157 0.077337086 0.10566395
0003d0 3c 53 b6 bd d8 4e 9c 3d 84 11 e4 3d a3 2b 9b 3d
       -0.089025944 0.07632226 0.11136153 0.075766824
0003e0 b8 eb 7a 3d 22 f3 d2 3d da 83 0d 3c e5 b8 e1 bd
       0.061259955 0.1030028 0.008637393 -0.11021594
0003f0 da e4 a7 bc 6d ad 50 3d 47 27 bb bd dd aa a2 bd
       -0.020494867 0.05094664 -0.09138351 -0.07942746

bias f4 [32]
000000 14 3e 80 3d 1e 72 45 3e f1 f8 1e 3e f1 7e 11 be
       0.062618405 0.19281814 0.15524651 -0.1420858
000010 42 db 0e be 7f 73 a2 bd 80 27 06 be c8 9e da bd
       -0.13950828 -0.079321854 -0.13101006 -0.10674816
000020 f0 51 ad 3c 18 81 04 be b1 34 51 be c3 13 d0 3c
       0.021157235 -0.1293987 -0.20430256 0.025400048
000030 d9 c3 c2 b9 a7 00 0e 3e c7 2b 7b 3d 5d 32 02 be
       -0.0003714848 0.13867436 0.061321046 -0.12714525
000040 e2 ed cf 3d 56 0b b9 bd 11 57 8d 3c 13 47 e4 bb
       0.101527944 -0.09035365 0.01725343 -0.0069664805
000050 be b0 0c be 62 db 52 3d 3f ee aa 3d 07 94 54 3e
       -0.13739297 0.05147875 0.08346223 0.20759593
000060 5d 9f 10 3e ae b2 f8 bd 5c fa b9 bd 09 c2 ba bd
       0.14123292 -0.121434554 -0.090809554 -0.091190405
000070 7b 52 12 3b 0b 27 8d 3d 0b fa 37 bc 9c 6b 1a be
       0.0022326994 0.068922125 -0.0112290485 -0.15080112

weight f4 [32, 32, 5, 5]
000000 f3 b4 8d 3c d0 29 97 bc 9c 38 74 3c 95 f1 a4 bc
       0.017298197 -0.018452555 0.014906075 -0.020134727
000010 d0 6a fc 3c 48 8b fe bc 25 10 97 bc 71 7b ea bc
       0.03081265 -0.031072274 -0.018440315 -0.028623315
000020 6d 62 2c bd 24 dd d6 bc 93 a4 23 bd c9 4f 04 bd
       -0.042086054 -0.026228495 -0.039951872 -0.03230265
000030 61 f0 a6 bc 73 30 5d bc fa 99 14 bd 63 8b b4 bc
       -0.020378293 -0.013500321 -0.036279656 -0.022039121
000040 fa c5 f2 3c 4e 12 e6 3c 39 b8 f7 ba 68 e3 c9 bc
       0.029635418 0.0280849 -0.0018899507 -0.024644569
000050 07 fd e8 3c e7 30 ef bc a3 59 ec 3c f9 a7 56 3c
       0.028440965 -0.029198123 0.028851336 0.013101571
000060 bc c4 fd bc e4 b2 45 bc de ce 08 3d 5b c5 30 3d
       -0.0309776 -0.012066577 0.03340041 0.043156963
000070 67 ee d7 bc 32 92 84 bb 63 ae 3f 3c 67 a6 c4 bb
       -0.026358796 -0.004045748 0.011699292 -0.006001282
000080 ca 64 9b 3c 59 41 08 3d 51 30 ab bc eb 85 98 3c
       0.018968958 0.033265445 -0.020897062 0.018618545
000090 c2 f0 01 3c a2 63 8e 3b 83 b1 03 bd 28 43 f0 bc
       0.007930936 0.0043453733 -0.03215171 -0.029328898
0000a0 6b 85 dd bc 7f 15 9e 3c 9d 5a c4 bc c6 a9 08 bc
       -0.027041158 0.01929736 -0.023968989 -0.008341258
0000b0 1f 5b c5 3c cf 0d ef 3b 20 75 04 bd 5c e7 00 3d
       0.024091301 0.0072953473 -0.03233826 0.03147064
0000c0 88 1f 67 bc 85 46 6f bc be b2 0a 3c 15 d4 57 bc
       -0.014106639 -0.0146042155 0.008465467 -0.013173123
0000d0 90 3e 83 3c 64 b3 f2 3a 4b 3c a0 bc 7a 03 fa bc
       0.016021043 0.0018516597 -0.01956 -0.030519236
0000e0 76 73 04 bd c4 40 09 bc 5a c1 84 bc 3e 96 68 3c
       -0.032336675 -0.008377258 -0.016205478 0.014195977
0000f0 bf 97 b6 3b 09 f0 89 bb d1 cb a1 bb 0f 0f 3a bb
       0.0055722888 -0.0042095226 -0.004937627 -0.0028390323
000100 76 91 c9 bc e3 41 b0 bc a4 59 75 3b 88 84 99 3b
       -0.024605494 -0.021515792 0.0037437463 0.0046849884
000110 7c 7f 4d 3c 95 92 7c bb 9f 91 ee 3c 6f 44 b6 3c
       0.012542602 -0.0038539518 0.029122172 0.022249429
000120 f9 52 28 bc f2 80 00 3d cd f7 e2 bc 36 79 87 bc
       -0.0102736885 0.03137297 -0.027706051 -0.01653729
000130 69 a9 c8 3b 47 23 08 bc 9f 1a 75 bc e8 8c 94 bc
       0.006123711 -0.008309192 -0.01495996 -0.018133596
000140 b8 d8 9d 3c fa 67 9e bb 41 d4 aa bb a7 e8 e6 3c
       0.019268379 -0.0048341723 -0.005213291 0.02818711
000150 41 39 80 3c 32 f2 47 bb 8d c0 59 3b 3b 23 36 bc
       0.0156523 -0.003050935 0.0033226341 -0.011116798
000160 29 c9 c1 3c 9f 2c 12 3d b1 e9 d7 3b 54 08 55 3c
       0.023655491 0.035687085 0.0065891375 0.013002474
000170 74 a3 19 ba 1f 71 62 bc 1a 9c 9a 3b 58 81 d0 bc
       -0.0005860843 -0.0138209155 0.004718316 -0.0254523
000180 53 9f 04 3d 2e 12 c2 3b ec 52 0e bd e9 75 96 bc
       0.032378506 0.0059225773 -0.03474705 -0.01836677
000190 d1 38 85 bc 53 7d dc bc b1 b3 de 3c a6 5d 9e bc
       -0.016262444 -0.026915228 0.027185293 -0.019331764
0001a0 7c 39 0b 3d 5e 0b 9b 3c 43 9f 29 3c b1 ba 77 bb
       0.03399037 0.018926319 0.010352912 -0.0037800486
0001b0 0f 12 cc bc aa e5 a4 3c c5 d2 2f bc e6 d2 2a bd
       -0.024910955 0.020129044 -0.010731404 -0.041705035
0001c0 56 1e e0 ba 54 0d 22 bd a3 b8 29 bc 07 c5 d0 bb
       -0.0017098885 -0.039563492 -0.010358962 -0.0063711437
0001d0 09 86 c5 3c 22 a7 27 3b bf fe c7 3b 91 c2 dc 3c
       0.024111765 0.0025581797 0.006103366 0.026948245
0001e0 48 59 4e 3c 06 a1 d4 bc 73 fd 91 3c ac f5 94 3c
       0.0125945285 -0.025955688 0.01782105 0.018183552
0001f0 f8 63 58 bb 26 df 00 3d 08 bc df 3c 16 96 c9 3c
       -0.003301857 0.03146281 0.02731134 0.0246077
000200 38 55 e6 3c 55 24 b1 bb 6e 29 7a bc c2 59 28 3d
       0.028116807 -0.0054059424 -0.015268667 0.041101225
000210 84 f0 4f 3d 72 9a 14 3d da 8f 1b 3c 49 ec 26 3d
       0.050766483 0.036280103 0.009494746 0.040752683
000220 1a 5c 33 bc 78 99 07 3d c4 f5 1d 3d 15 09 82 3c
       -0.010947252 0.033105344 0.03856446 0.015873471
000230 6b c8 e6 3c 82 63 d9 bb 78 27 1d 3d eb 0b c6 3c
       0.028171739 -0.0066341767 0.03836772 0.024175605
000240 10 dd bc bc d7 1c fb 3c 59 df 06 3d 83 b2 01 3d
       -0.02305463 0.0306534 0.032927845 0.031664383
000250 24 c6 4b 3c 56 28 60 bc 40 67 08 bc be bf ab 3b
       0.012437377 -0.013681492 -0.008325398 0.0052413633
000260 3d d0 df 3b b4 7f e6 bc d5 88 dc 3c fb af 2a 3c
       0.006830244 -0.028137065 0.026920715 0.010417934
000270 9f 78 90 bc ed 67 b4 bb e3 98 da 3c 27 51 ab 3a
       -0.017635642 -0.005505553 0.02668423 0.001307045
000280 34 6e d3 bb b6 7b c9 bc c8 9f 18 3a cf 89 93 3c
       -0.006452346 -0.024595123 0.0005822149 0.018010048
000290 f2 2d e9 3c 60 b8 05 3d 30 15 2d 3d 6b 32 86 3b
       0.028464291 0.032646537 0.042256534 0.0040953658
0002a0 36 60 23 3d 92 e5 8a 3b 05 9f 8b bc d6 22 16 3d
       0.039886676 0.0042387927 -0.0170436 0.036654316
0002b0 53 89 2e 3d 9a b6 f6 3a e1 e6 78 3c 6e 61 ff 3b
       0.04261143 0.001882273 0.015191765 0.007793597
0002c0 9f 74 8d bc 69 e4 06 bc ff 66 ec 3b 33 54 9f bc
       -0.017267523 -0.008233168 0.0072144265 -0.019449329
0002d0 24 91 1e bc 3e b5 e8 bc c6 70 e5 bb 0f 07 de 3b
       -0.009678159 -0.028406736 -0.007001969 0.006775744
0002e0 80 7a 89 3b 73 09 71 3c e1 18 fc bb 69 f9 0d 3d
       0.0041955113 0.0147117255 -0.0076933955 0.034661684
0002f0 72 0b 9f bc 93 22 a7 bc 1e 42 36 3d 34 79 02 3d
       -0.019414637 -0.020402228 0.044496648 0.03185387
000300 9f 95 3d 3d c3 f7 eb b8 30 55 f1 3b df f6 6b bc
       0.046285268 -0.000112518224 0.0073648915 -0.01440212
000310 fc b2 c0 bc 6a fb 88 ba d2 a6 0f 3d d9 b6 5f 3b
       -0.023522846 -0.0010450904 0.0350712 0.0034136085
000320 ff 6d 9a 3c 91 de e3 3c 40 c3 78 bc 19 2a b7 bc
       0.018851278 0.027816089 -0.01518327 -0.02235894
000330 6c 35 a8 3c 2b 8c d3 bc 53 ed 7a 3c bd a0 86 bb
       0.020533286 -0.025823673 0.015315372 -0.004108517
000340 f4 b5 94 bb 7b 99 dd bc 13 0a dc 3c f2 b1 14 3c
       -0.004538292 -0.027050724 0.026860273 0.009075629
000350 1b e0 13 3c 03 32 c8 bb 79 e5 3c bc 3b b9 92 bc
       0.009025599 -0.0061094775 -0.01152932 -0.01791059
000360 d1 46 21 3c 99 d8 93 3c f4 dc 54 bb 20 4d e7 ba
       0.009843544 0.018047618 -0.003248033 -0.0017646886
000370 81 94 6d 3c e1 6d 25 bc 63 80 a6 3b 7d bf ff bc
       0.014500738 -0.010096998 0.005081223 -0.031219238
000380 d0 b3 4b 3c 41 60 6d bb a0 3d 30 3c 1f 9a 82 bc
       0.012433007 -0.0036220702 0.01075688 -0.015942631
000390 9b 58 2f bc 8a c1 06 bc 79 3a b0 3c 10 65 36 3c
       -0.0107022775 -0.008224854 0.021512257 0.011132494
0003a0 ca 6b 4b bc a5 6f 0e 3b 5d a8 1c bd 7b b8 8a bc
       -0.012415836 0.0021734026 -0.0382465 -0.01693367
0003b0 68 a3 38 3c b8 4f 95 3b 6a 16 d2 bb cc f3 75 bc
       0.011269428 0.0045566224 -0.0064113634 -0.015011739
0003c0 1c b0 bc 3c 04 b8 dc bc 8b 7d 4a 3c bb 0b 6b bc
       0.023033194 -0.026943214 0.012359033 -0.0143460585
0003d0 d5 83 6f 3c 19 88 20 bc 2a 9e 08 bc 0a 46 a9 bc
       0.014618834 -0.009798073 -0.0083384905 -0.02066328
0003e0 a9 39 2b 3c 35 dd 6a bc 23 a2 6b 39 4f 2b cd bc
       0.010450759 -0.014334966 0.00022471747 -0.025045065
0003f0 0c c3 83 3c 69 44 de bc 07 e9 21 bc f0 4d 78 bc
       0.016084217 -0.02713223 -0.009882218 -0.0151553005

bias f4 [32]
000000 6b 9e 9f 3c f8 0f 4c bd 88 d1 e2 ba d3 93 1c 3d
       0.01948472 -0.049819916 -0.0017304877 0.038226914
000010 a8 77 89 bd 7a 13 4f bd 4b 39 8b 3c 50 91 a9 3c
       -0.06712276 -0.050555684 0.016995093 0.020699173
000020 01 08 90 3c b0 17 7c bc 5e e9 c9 3c a7 11 85 3c
       0.017581942 -0.015386507 0.024647411 0.016243769
000030 62 6b a3 bd 3e 85 c5 3c 52 5b 34 bd 04 a4 6b bd
       -0.07979466 0.024111386 -0.044032402 -0.057529464
000040 bf 94 bf 3c 2d 1e a4 bc 70 8b 04 bb bc 4d c7 ba
       0.023386357 -0.02003392 -0.0020224713 -0.0015205662
000050 89 65 21 bd c4 8f ae 3c 72 3f 36 bd e3 ea f4 3c
       -0.039403472 0.021308787 -0.0444941 0.029897159
000060 b6 8b 0e bd fc 71 8b bc a8 48 19 bc 7f e0 e5 bc
       -0.034801207 -0.017022125 -0.0093557015 -0.02806115
000070 62 67 a2 3c 5b d8 a7 39 71 fb 3f bc 11 a8 7d bd
       0.019824687 0.0003201392 -0.011717663 -0.06192786

weight f4 [64, 32, 5, 5]
000000 51 79 98 3c 4b 04 84 3c 5d e8 64 3c 87 63 36 bc
       0.018612536 0.016115328 0.013971415 -0.011132128
000010 23 87 cc bc 47 cb 89 bc c9 f7 7b bc 50 b7 c5 bb
       -0.024966782 -0.016820563 -0.015378901 -0.0060338154
000020 b4 48 f4 3b 14 8f cb 3b 7f 99 d8 3c ec 01 16 bb
       0.007454956 0.0062121246 0.02644038 -0.002288933
000030 7b 78 c5 bc 2d ae 8a 3c cd 4f 11 3c f7 4e 4c bc
       -0.024105301 0.016928757 0.008869124 -0.012469999
000040 a2 e6 b4 3c 85 dc 63 3c 1a d2 05 3d 1f 1e 39 bc
       0.02208263 0.013907556 0.03267107 -0.011298685
000050 32 65 c3 bc ea 27 09 bd 35 b2 60 bc 46 82 25 bb
       -0.023851965 -0.03348533 -0.013714363 -0.002525465
000060 f5 3f f5 3b a2 ef 67 bb 13 3c fe bc 30 db e3 3c
       0.007484431 -0.0035390635 -0.031034505 0.027814478
000070 7b 10 e4 3c 17 9c c3 bc 79 f1 41 bb ed 70 8f bc
       0.02783989 -0.02387814 -0.0029593392 -0.017509902
000080 e2 98 89 bc b6 62 58 3a ac ff b5 bc 08 7b 6d bc
       -0.016796533 0.0008254455 -0.02221664 -0.014494665
000090 e8 c3 21 3c 8b 46 bc bc c8 05 c4 3c 9c 0e 67 3c
       0.009873368 -0.022982856 0.023928538 0.014102604
0000a0 94 ab 79 bb d0 63 f6 3c d6 c2 9e bb 2b fe ba 3b
       -0.0038096653 0.030076891 -0.0048450036 0.0057065687
0000b0 11 78 93 3b 77 10 1a bd 4f d4 e6 3c d0 35 93 3c
       0.004500397 -0.03761336 0.028177409 0.017969996
0000c0 e2 8c 31 bc 83 bf 8d 3c 14 b5 ac bc 1a 81 36 bd
       -0.010836812 0.017303234 -0.021082439 -0.044556715
0000d0 66 ae e4 bc 8f 36 d0 bb 7e 2b 88 bc 6a c1 f5 3c
       -0.02791519 -0.00635416 -0.016622301 0.029999454
0000e0 35 54 98 38 2d e1 2f bd e3 84 19 3b 2b e1 bb bc
       7.2636096e-05 -0.042939354 0.0023425154 -0.022934517
0000f0 96 55 8b 3c 1b 19 35 3d 28 26 87 3c 8c 33 ac bc
       0.017008584 0.044213396 0.016497687 -0.021020673
000100 03 bb 8d bc cd 46 6c bc f2 0d 3f 3d 9c 8a d1 3c
       -0.017301088 -0.014421177 0.04664416 0.02557879
000110 0e a4 fa 3b 71 53 fe 3c c7 11 7f bc 38 79 a6 bb
       0.0076489514 0.031045647 -0.015568203 -0.0050803684
000120 78 f0 62 3c 9e 89 3d 3c 0c 88 cb 3c 94 59 a6 3c
       0.0138512775 0.011568455 0.024845146 0.020306386
000130 41 42 2d bc bd b4 ea 3c a9 cc 93 3c f4 2b bc bc
       -0.010574878 0.028650636 0.018041926 -0.022970177
000140 34 d7 f3 3c 96 66 50 bc d0 40 a6 3c 01 6e da ba
       0.029765703 -0.012719771 0.020294577 -0.0016664864
000150 a0 c4 d5 bc 52 6f 2f bc 1f 31 cd 3c 21 90 ec 3c
       -0.026094735 -0.010707693 0.025047837 0.02887732
000160 dc 41 b6 3b 43 75 02 bc 67 95 0d bd e0 48 f8 bc
       0.0055620503 -0.007962528 -0.03456631 -0.030308187
000170 b0 4e 2c 3b 70 8a d5 bc 84 29 c6 bc a0 69 f4 3c
       0.0026292019 -0.026066989 -0.024189718 0.029835522
000180 e8 2e 4f bc f0 68 e5 bc 60 e5 61 bc 5b e4 aa 3c
       -0.012645461 -0.02800414 -0.013787597 0.020860841
000190 6c 31 0a 3b 47 5f ff 3a d7 6a bf bc b0 9e ac 3a
       0.0021086587 0.0019483351 -0.023366375 0.0013169851
0001a0 bd a5 ad 3c 54 9a a9 39 04 d8 c0 bc c6 54 1a 3c
       0.021197194 0.00032349175 -0.023540504 0.009419626
0001b0 3a d4 12 bd 53 96 73 3c b2 43 0b bc c8 27 ef bc
       -0.035846926 0.014867383 -0.008500027 -0.029193774
0001c0 45 09 5a bb a8 4f ef bc 41 ac 3e 3c 82 ab 85 3c
       -0.0033269685 -0.029212788 0.011637748 0.016317133
0001d0 de 8d 7e bc 32 cf bd 3b 32 62 da 3c 1e 41 03 3d
       -0.015536753 0.005792522 0.026658151 0.032044522
0001e0 a7 6c 0e 3c ca d8 97 3b 95 40 0c bd d9 69 08 bd
       0.008692897 0.0046339976 -0.034241278 -0.03330407
0001f0 27 df 27 bd a5 d4 4a bc 61 9a 17 3d ee b0 03 bd
       -0.0409843 -0.0123798 0.03701246 -0.032151155
000200 7c 00 f1 bb cb 6c 07 bd a9 18 0c 3d 88 29 a1 bc
       -0.007354794 -0.033062737 0.034203205 -0.019673124
000210 99 35 9f bc c5 f9 7c 3c e4 b9 a6 bc a0 6f 81 bc
       -0.019434737 0.015440409 -0.020352311 -0.015800297
000220 b6 90 10 bd 76 8c 84 3a c4 2a d0 bb 67 aa f7 3b
       -0.035294257 0.0010112661 -0.0063527543 0.0075581553
000230 ba 77 52 3c 1d 3e c8 bc fb 79 ad bc d1 b9 59 bc
       0.012845928 -0.02444368 -0.021176329 -0.013288931
000240 9e 13 94 bc b1 d2 ba bc 23 bc cb bc 19 85 06 bd
       -0.01807576 -0.022805544 -0.024869984 -0.032841776
000250 40 97 0b bd 93 68 9c bc 61 0d a6 bc 1c dd a9 bc
       -0.03407979 -0.019092834 -0.020270051 -0.020735316
000260 de bf cb 3c 24 3e f5 3c f5 6c 77 3c 64 3d 90 bc
       0.024871763 0.029936858 0.015101661 -0.017607398
000270 5f de d2 3c bb ed 03 bd 67 a2 02 bd f1 1e e2 bc
       0.0257408 -0.03220914 -0.03189316 -0.027602645
000280 93 cb ea 3c 7d 00 fc bc 29 6f 60 3c 5b 05 9b 3c
       0.028661525 -0.030761952 0.013698378 0.018923452
000290 18 d0 6a bc bf ec 22 3b 08 b0 bd 3b d7 fd 18 bc
       -0.01433184 0.002486035 0.005788807 -0.009337864
0002a0 6d b4 3a bc 53 a4 64 3c 9b 42 a1 bc fe 61 ee 3b
       -0.011395556 0.013955194 -0.01968508 0.007274865
0002b0 ec fa 00 bd 32 ca a2 bc cb 36 94 ba 95 9d 04 3d
       -0.031489298 -0.019871805 -0.0011307833 0.032376844
0002c0 ac 32 d8 3c 78 0a a3 3c d5 bc 32 bc 56 64 ae bc
       0.02639135 0.019902453 -0.010909279 -0.021288078
0002d0 18 61 61 bb 2c cb 17 bb 22 ae 0b bd f7 e0 14 bd
       -0.0034390148 -0.0023161871 -0.034101613 -0.036347356
0002e0 47 a0 c5 3c 6f 8e c7 bc 3e fd 5b 3c 1b 83 26 3b
       0.024124278 -0.02435991 0.013427077 0.0025407735
0002f0 a6 6b 58 3c 0b e9 14 bc 28 b8 65 bc 35 e0 c0 3c
       0.013209259 -0.009088765 -0.014020957 0.02354441
000300 63 91 cf b5 11 14 91 3b 7a dc 3a 3c c3 99 e3 3c
       -1.5465015e-06 0.004427441 0.011405105 0.02778328
000310 49 66 25 bd 22 43 bb 3c e9 ff a2 bc 14 88 f8 bc
       -0.04038075 0.02285916 -0.019897418 -0.030338325
000320 09 4a fc 3c 58 6e 5e 3c a1 2c db 3c 93 66 16 3d
       0.030797021 0.013576113 0.02675468 0.036718916
000330 ad 27 0a bc fd 61 6b 3c 23 23 51 bc 28 e5 5c 3c
       -0.008432311 0.014366624 -0.012764725 0.0134823695
000340 69 ec c3 3c a7 20 47 bc 2c 0b fc 3b cf cd c6 bc
       0.02391644 -0.012153781 0.0076917615 -0.024268059
000350 d6 b8 7c bc ef ec 58 3b 86 81 89 bb b9 ba 86 3c
       -0.015424928 0.0033100208 -0.0041963486 0.016446458
000360 6d b0 5b bb 60 7d 93 bc 1a 08 da bb bd 92 19 bd
       -0.0033521906 -0.01800412 -0.006653798 -0.037493456
000370 70 51 f0 3c d4 79 0b 3c 11 e8 d5 bc 02 3b a4 bb
       0.029335707 0.008512933 -0.026111634 -0.005011917
000380 8a cb 36 b9 22 1e 79 ba bd a0 85 3b e6 fb 8f bb
       -0.00017432697 -0.00095030863 0.0040779994 -0.0043940423
000390 df 40 03 3d 87 99 94 bc 9a aa cf bc 9b 14 10 3d
       0.032044288 -0.018139614 -0.025349904 0.0351759
0003a0 2b 09 05 bc b0 8e 04 bc 48 eb e6 bc be 46 0f bd
       -0.008119862 -0.00809066 -0.028188363 -0.034979574
0003b0 53 87 12 3c 54 8d ee bc b3 0e f2 bb a0 57 da bc
       0.008943397 -0.029120125 -0.007387006 -0.026653111
0003c0 02 80 0c bd 68 86 b2 3c b1 4c c8 3c 01 dd 06 3d
       -0.034301765 0.021792606 0.024450632 0.03292561
0003d0 25 45 d0 3b 79 12 66 3c 85 dc 04 bd 69 ec a1 3c
       0.006355899 0.01404249 -0.032436866 0.01976605
0003e0 87 03 91 3c 0e dc 70 3c 6b a6 9a bb 11 41 06 3d
       0.017701877 0.014700903 -0.0047195456 0.032776896
0003f0 8b 64 58 bc 26 60 8c 3c 94 35 12 bd 0e 2d 95 bc
       -0.013207565 0.01713569 -0.035695627 -0.01820996

bias f4 [64]
000000 ed e5 98 3c 17 b2 8d bc 0f 25 c8 3c 0c ab ba bc
       0.018664325 -0.017296834 0.024431733 -0.02278664
000010 c6 f0 e8 bc bc 83 ee bc 54 af bc 3b 62 52 d0 3a
       -0.028435122 -0.02911555 0.0057582054 0.0015893693
000020 c2 91 07 bd d3 d4 f0 3c 57 05 fb bc 24 5e 75 3a
       -0.03309799 0.029398357 -0.030642195 0.00093600363
000030 6b 38 a2 bc b5 01 14 3c c5 30 95 3b 57 c3 ee 3b
       -0.019802293 0.00903361 0.004552933 0.00728647
000040 b3 c4 8e 3c 25 e5 eb ba 40 4f 41 bd 42 0a 14 3c
       0.017427778 -0.0017997368 -0.04719472 0.009035649
000050 c6 ce 23 bd 49 6a 0c bd ac 93 9c ba b8 c8 cf bc
       -0.039992116 -0.03428105 -0.0011945865 -0.025364265
000060 0f c1 0c 3d e1 67 e9 bc f0 95 53 bd 51 96 10 bd
       0.034363803 -0.028491916 -0.051656663 -0.035299603
000070 59 88 ff 3c 37 1e ab 3c e8 8f 0e 3d a8 7b a2 3c
       0.031192945 0.020888431 0.03480521 0.019834355
000080 ba 73 f0 bb 74 0c f7 bc 9c 61 26 bd 6e 0d 3a bd
       -0.0073380144 -0.030157305 -0.04062043 -0.045422964
000090 ab f0 f5 bb 61 5f 1f 3d 0b 3a b5 3c 5a 61 96 bb
       -0.0075054965 0.03890932 0.022122404 -0.004589242
0000a0 70 f9 22 bd 1a 9d 20 bd 82 63 96 3c 91 4a f5 ba
       -0.039788663 -0.039212324 0.018357996 -0.0018714239
0000b0 76 a8 6c 3b 74 3f 70 3c 97 e1 e9 3c f9 78 9d bc
       0.0036111153 0.014663566 0.028549952 -0.019222723
0000c0 6e 25 61 bc 6b 2f 6d bc f7 41 49 bd e8 fa f6 bc
       -0.013741834 -0.014476637 -0.049135175 -0.030148938
0000d0 ed d1 27 3d 83 3f 78 3b 12 a7 1c bd 48 97 0e bd
       0.040971685 0.0037879653 -0.03824527 -0.03481224
0000e0 63 22 99 bc 8c 49 9f bc b0 f6 c2 3c 1a 93 18 bd
       -0.018693155 -0.01944425 0.02379927 -0.037249662
0000f0 50 46 a8 bc 65 84 55 3c 84 40 09 bc 1f e9 14 bd
       -0.02054134 0.013032054 -0.008377198 -0.036355134

weight f4 [64, 1024]
000000 d3 6c 97 3c 5f 04 c9 3c 00 a0 09 3d 40 17 47 3c
       0.018484509 0.024538217 0.033599854 0.012151539
000010 32 77 81 3c 32 6c 04 bd ad ab 00 bc 19 8e 3b b9
       0.015803907 -0.032329746 -0.007853431 -0.00017886645
000020 e4 7c a1 bc 46 e9 31 3c 05 e4 81 3c 7c c4 db 3c
       -0.019712873 0.010858839 0.015855798 0.02682709
000030 c8 35 ba bc f6 85 49 bc ac 27 9e 3c 74 e4 a1 3c
       -0.022730723 -0.012300005 0.019306026 0.019762255
000040 d8 87 86 3c 2e 3d 73 bc 23 ac 39 3c f6 4c 08 bc
       0.016422197 -0.014846129 0.0113325445 -0.00831913
000050 3f 9b 68 bc b5 6a dc 3c 1a 17 28 3c 54 05 5b bc
       -0.01419717 0.02690635 0.010259414 -0.01336797
000060 63 29 b1 ba ab 6c 00 bd c8 48 0a bc 5d bd 53 bc
       -0.0013516363 -0.031353634 -0.008440204 -0.012923566
000070 3d 9b 17 3c 1e 20 76 3c 65 96 b1 3c d8 69 fa 3b
       0.00925332 0.015022306 0.021678159 0.007642012
000080 b6 50 8c bc 8b ed 95 3c 94 4e 2a 3c 65 69 05 bd
       -0.01712833 0.018301746 0.010394711 -0.032571215
000090 85 83 0a 3d 7e 48 46 bc bf 48 cf 3c 6e ad 74 3c
       0.033816833 -0.012102244 0.025303243 0.014933927
0000a0 57 e9 12 3d 97 61 be 3c e1 6e e0 3c a1 36 67 bc
       0.03586706 0.023239894 0.027396621 -0.014112146
0000b0 c1 93 d9 38 f9 81 f8 3b 44 b3 0a bb f3 3c 89 3c
       0.00010374888 0.0075838533 -0.002116398 0.016752696
0000c0 b0 b6 b6 bc ac 72 ca bc 37 e1 e7 3c d7 b2 8a 3b
       -0.022303909 -0.024712883 0.028305633 0.004232745
0000d0 0d 12 27 3c d8 52 d4 3c f9 87 b1 3c 3c 46 1f bc
       0.010197175 0.02591841 0.021671282 -0.009721335
0000e0 0b 40 e6 3c 9b 1d cc bc e7 73 71 bc 9b 73 bf bc
       0.02810671 -0.02491646 -0.014737106 -0.023370555
0000f0 cf c8 2a bb 24 10 ac 3c d7 3c 9f 3b c1 df b0 ba
       -0.0026059633 0.02100379 0.0048595476 -0.0013494418
000100 a1 18 f0 3b 2c 77 22 bc 60 2c 87 bc cb a4 03 bd
       0.0073271547 -0.009916108 -0.016500652 -0.03213958
000110 17 16 06 bd 9c 66 9a 3c ca 7a 36 bc 76 22 be 3b
       -0.03273591 0.018847756 -0.011137674 0.005802448
000120 ab 09 87 3c 72 66 d4 bc 8f 47 94 bc 21 0b 8b 3c
       0.016484102 -0.025927756 -0.018100528 0.01697308
000130 fb 4b 39 bb 81 2d ce bc 54 98 e7 3b 6c 99 51 bc
       -0.0028274048 -0.025168182 0.0070677195 -0.012792926
000140 5d 94 ea 3c 2f c6 5a bc fc 41 c2 3b 26 da aa bb
       0.028635198 -0.013352915 0.005928276 -0.0052139936
000150 60 1b f0 bc d5 a4 68 bc bc 7e 8d 3c 21 8c cb bc
       -0.029309928 -0.014199455 0.017272346 -0.024847092
000160 46 f0 b3 bc 31 3e f7 3c 71 69 02 bd 5d 4a 74 3b
       -0.021965157 0.030181022 -0.031838838 0.003727577
000170 93 e2 c2 3c b0 73 cc 3c ad 05 d4 bc 61 b2 8c 3c
       0.02378968 0.024957508 -0.025881613 0.017174901
000180 39 2c b5 bc a9 22 8f bc 17 41 45 bb 24 b7 73 3c
       -0.022115814 -0.017472582 -0.003009861 0.014875207
000190 55 5d 68 3b a8 34 c6 bc b9 d0 4b 3b e1 7a fb bc
       0.003545602 -0.02419503 0.003109975 -0.030698242
0001a0 e2 3b 98 bc 04 78 17 3c de 25 1f bd 3e e4 e1 3c
       -0.018583242 0.009244923 -0.038854472 0.027574655
0001b0 3d 30 a3 3b 6c be 5f bc 75 9c b7 bc ad 33 da 3c
       0.0049801157 -0.01365624 -0.022413472 0.026635969
0001c0 01 c9 d5 bb a0 29 b6 3c 36 17 00 3d 23 5f bb 3c
       -0.0065242057 0.022236645 0.031272136 0.022872513
0001d0 ee ad 74 bc 1a fc 3b bb dd f1 0d 3b 78 bc 48 3c
       -0.014934046 -0.00286842 0.0021659054 0.012251966
0001e0 b1 8f 85 3b a9 59 c2 3c a7 b4 74 3c 20 96 4c bb
       0.0040759672 0.023724394 0.014935649 -0.003121741
0001f0 be 78 8e 3c 40 2f cb bc 25 e3 1f bc d1 be ce 3c
       0.017391559 -0.024802804 -0.009758745 0.025237473
000200 07 90 83 3c 4b 98 af 3b 0d f4 6c bc 9d a0 76 3c
       0.016059889 0.005358731 -0.014462483 0.015052942
000210 fa 3c df bc 49 86 01 bd de b5 3a bb 1f bd 7e ba
       -0.027250756 -0.031622205 -0.002848975 -0.00097175123
000220 2d 87 ec 3c a1 8d d0 3b 7f 93 eb 3c 8f 34 a3 3b
       0.02887305 0.0063645397 0.028756855 0.0049806307
000230 f0 e5 75 3c ae 45 f8 3a fb 93 31 bb 0d 3f c8 3c
       0.015008435 0.0018941665 -0.002709626 0.024444127
000240 54 e4 65 3c d7 fb 24 bc 55 b4 97 bc 06 a8 a7 bc
       0.014031488 -0.010069809 -0.018518606 -0.020465862
000250 f6 08 d2 3c 67 d8 12 3d dd 0f 80 3c b4 99 15 3d
       0.025639039 0.03585091 0.015632564 0.036523536
000260 45 9f 90 3c ca 3b 11 bd 7e 9e af bb 37 67 87 bb
       0.01765407 -0.03545741 -0.00535947 -0.004132177
000270 e1 4d fc 3b 0b 2a 2e 3c 39 ab af 3b 3f 22 f5 bc
       0.0076997136 0.010630141 0.0053609875 -0.029923556
000280 4b e1 e0 bc f4 d3 a6 3c 1e 5c 5f 3c 12 b0 03 bc
       -0.027451178 0.020364739 0.013632802 -0.008037584
000290 a6 56 e4 3c ba 72 4a 3c bd fe de bc a5 c0 f0 3c
       0.027873348 0.0123564545 -0.027221078 0.029388735
0002a0 9e f6 a6 3b b5 8b c7 3c c7 55 05 3b a4 df 72 bb
       0.005095317 0.02435861 0.0020345317 -0.003705957
0002b0 7e 4c 11 3d 7d 73 dd 3c 4c 8e cb bc ca 39 aa 3b
       0.03547334 0.027032608 -0.024848126 0.0051948773
0002c0 76 71 9c 3c 9d b2 03 3a 5e e1 f1 3b 0d 92 0e bc
       0.019097071 0.0005023869 0.007381602 -0.008701813
0002d0 d4 46 c2 3c f8 b5 e2 bc 23 78 e6 3a ba 18 e5 bc
       0.023715414 -0.02767466 0.0017583411 -0.027965892
0002e0 b1 cd a3 bc 4d d4 9f bc 12 9a 8c 3c 7d 3b 5a bc
       -0.019995542 -0.019510413 0.01716331 -0.013319847
0002f0 78 c5 97 bc ca ee 4a bc 08 7b a5 3b ab 41 e0 3c
       -0.018526778 -0.012386033 0.005050067 0.027375063
000300 a3 9d 5f 3c cf d3 c4 3c 33 74 81 bc b6 71 ba bc
       0.013648423 0.02402678 -0.015802478 -0.0227593
000310 4d 49 ac bc e0 b1 af bc ea c9 0f 3c 2d 91 93 bc
       -0.021031046 -0.021447122 0.008776167 -0.018013561
000320 c1 67 dc bb 9a 54 1f 3d 62 2b 81 bb 1f 55 1c 3c
       -0.0067262356 0.03889904 -0.003941939 0.009541779
000330 42 2a c8 3c e1 1b 50 3c 7e de c5 bc 50 02 ce 39
       0.024434213 0.012701959 -0.024153944 0.00039293105
000340 cc 28 c3 3c 5c d6 f7 bc 35 ec 09 bb ec 47 4f 3c
       0.023823164 -0.030253582 -0.0021045331 0.012651425
000350 eb aa 78 3c 49 0e 03 3a 3f d2 9f 3c bc 25 7d bc
       0.015177469 0.0004999382 0.019509433 -0.015450891
000360 a9 56 f9 bb b4 c2 e4 3b 8d e6 d6 bc d5 2f f0 bb
       -0.0076092076 0.0069812182 -0.026232982 -0.007329921
000370 02 b0 0a 3d d8 be e0 3c e3 7b 19 3d b5 af 99 3c
       0.03385926 0.027434751 0.037471663 0.018760541
000380 ed 63 b7 3c 97 ec 79 bb bd e9 0e 3c 6a 20 70 3c
       0.022386516 -0.0038135403 0.00872272 0.014656166
000390 12 fb 1b bc 6e c6 00 bb 31 b4 fc 3c 32 0d ae 3c
       -0.009520309 -0.0019649523 0.03084764 0.021246526
0003a0 f7 63 2c 3c 50 53 a9 bb d9 9d b8 bc 24 46 59 3c
       0.01052188 -0.0051674023 -0.022536205 0.013261352
0003b0 26 27 bb bc d5 50 de bc ae 7f d2 3b 17 46 15 bc
       -0.022845816 -0.027138153 0.006423912 -0.009110949
0003c0 bd b1 a5 3c 95 95 c3 bc cb 66 4b bc 3f 4a 01 3d
       0.020226354 -0.023875037 -0.0124146445 0.031564947
0003d0 30 72 bb bc 44 99 d2 bc 9a 31 cf 3c 33 57 d7 ba
       -0.022881597 -0.025707848 0.025292207 -0.0016429186
0003e0 d8 a1 60 bc a3 18 17 3d 8b 4f 9b 3c 38 ea aa bc
       -0.013710462 0.03688873 0.018958827 -0.020863637
0003f0 5a 08 eb 3a b8 c9 d2 bb b1 3e b0 3c d0 71 83 3c
       0.0017931566 -0.006432738 0.021514269 0.016045481

bias f4 [64]
000000 03 f7 a1 3c 97 b9 b2 3c d2 e4 a1 3c 57 e2 23 3c
       0.019771105 0.021817012 0.01976243 0.010002694
000010 a8 6c b1 39 c6 c7 81 bc b7 23 80 3c 2d 10 35 3c
       0.00033841026 -0.01584233 0.01564203 0.01105122
000020 bb 81 74 3c dd c6 a6 bc 06 d8 81 bc 19 b1 03 bd
       0.014923508 -0.020358497 -0.015850078 -0.032151315
000030 8a 62 59 3c 08 33 f7 3c 10 9e 7e 3a 94 51 27 3c
       0.013268122 0.0301757 0.0009712884 0.010212321
000040 80 2c cb bc eb 0e 24 3c 81 07 86 bc e3 ec ac bc
       -0.024801493 0.010013322 -0.016361 -0.02110905
000050 e2 4a c2 3c 80 d8 ae 3c 17 1a 7c 3c 5a 5b 99 3c
       0.023717348 0.02134347 0.01538708 0.018720318
000060 52 dd 52 bd ac 99 85 bb 4a e6 4f 3c 9f 7b ae 3c
       -0.0514806 -0.004077157 0.012689183 0.021299182
000070 56 7c 06 bc 08 80 2c bd 83 fd 79 3c fa b7 9c 3c
       -0.008208355 -0.042114288 0.015258196 0.019130696
000080 80 f3 66 bc e1 79 c1 bc 72 18 b4 3c d5 22 3e 3c
       -0.014096141 -0.023617687 0.021984313 0.011604984
000090 66 aa 10 bd de 8d 83 3c 3e 3a 2f 3c 53 cf 2a 3c
       -0.035318755 0.016058858 0.010695038 0.0104254065
0000a0 39 03 28 3c a8 7d a1 bc 6d 01 b8 bb 2f 36 33 bd
       0.010254675 -0.019713238 -0.0056154043 -0.043752845
0000b0 97 23 bf bc b5 af 68 bc 30 87 0d bc f7 83 33 bc
       -0.0233324 -0.014202048 -0.008638188 -0.010956756
0000c0 30 40 05 bd 42 e4 01 bd 7c a4 be 3b d3 73 dc bc
       -0.032531917 -0.031711824 0.005817948 -0.026910698
0000d0 d1 4a e3 ba b5 52 c9 bc f9 fa 83 3c bb 46 b4 bc
       -0.0017341023 -0.02457557 0.016110884 -0.022006383
0000e0 dd c2 2a 3c 0e 5e 0d bd 0c 29 87 bb 3d 74 17 bd
       0.010422436 -0.034513526 -0.004124766 -0.036976088
0000f0 bb dd 3f bc 16 80 24 bd 12 8b d8 3b 6f 1f 1b bc
       -0.0117105795 -0.040161215 0.0066083753 -0.009467944

weight f4 [10, 64]
000000 1d a9 fe bd 5b b9 1a bd 04 2f 66 ba bc 7c 23 3e
       -0.124345995 -0.037774425 -0.00087808096 0.15965551
000010 5f 5c 5f bc 38 b3 9a bd 7e ef c5 bd 62 e7 96 bd
       -0.013632863 -0.075537145 -0.0966482 -0.073683515
000020 1e 61 b4 3d 93 8f 74 3d 73 b1 ba bd f3 0b 14 3e
       0.08807586 0.059707236 -0.09115877 0.14457683
000030 20 f9 5a bd 0c 40 c9 bc a4 eb e4 bd 4c ac 24 3d
       -0.05346024 -0.024566673 -0.111777574 0.040203378
000040 87 f0 45 3d 15 82 6c bd 01 c4 29 3e bd 55 21 3d
       0.048325088 -0.057741243 0.16578676 0.039388407
000050 a6 65 03 be 27 1e 9a 3d 70 fe ff bd f1 a3 6d 3d
       -0.12831745 0.07525282 -0.12499702 0.058017675
000060 ca a7 b3 3d ef 16 c2 3c 48 5e fd 3d 28 65 de bd
       0.087722376 0.023692576 0.12371498 -0.10859138
000070 e5 ee 14 bd 53 2a 84 3d 7d 8c d6 bd 04 97 0b be
       -0.03636064 0.06453385 -0.10476015 -0.13631827
000080 10 24 16 be f5 4e 5e bc 72 37 20 bc e0 bf 81 bb
       -0.14662194 -0.0135686295 -0.009778844 -0.003959641
000090 01 5a f6 3d 34 af e9 3d 27 21 b6 bd 77 86 d8 bd
       0.12028886 0.114103705 -0.08893042 -0.10572522
0000a0 d1 3e 13 be a8 26 10 3d 8b 12 d0 bd 16 5f c7 3d
       -0.14379431 0.035193115 -0.10159787 0.09734933
0000b0 8c 3b 9e 3d e8 11 e0 bd 68 4c 9b bd ee d1 f7 bd
       0.077262014 -0.10940915 -0.07582933 -0.12100588
0000c0 54 34 90 bd 5d 30 04 be f8 ed 84 bd 87 7c f8 3d
       -0.07041231 -0.12909074 -0.064907014 0.12133127
0000d0 d0 18 aa 3d 38 0e 9b 3d 50 83 21 3c 3d 16 b0 bc
       0.08305514 0.075710714 0.0098579675 -0.021494979
0000e0 27 fe 3c 3e 21 b1 c8 3d 44 3f 7a 3b b8 b1 97 bc
       0.18456326 0.0979941 0.0038184682 -0.01851736
0000f0 59 42 4e bd 8b fc 8b 3d b3 c4 e8 3d 19 01 14 be
       -0.050356243 0.06835278 0.113656424 -0.14453544
000100 24 f0 e6 3d b6 a8 a2 3d 54 39 e3 3d 75 39 be 3d
       0.11276272 0.07942335 0.11094919 0.09288303
000110 f8 b2 c2 3d 5a 57 ff 3d fd 4d dd bd a4 3b ed bd
       0.09506792 0.12467833 -0.10805891 -0.11583641
000120 61 48 f2 bb 31 93 95 bd e7 0e b4 3d 75 ff f9 bd
       -0.007393882 -0.07303465 0.08791905 -0.12206928
000130 ea 0d 58 3d b0 41 c1 3d cc f7 7a 3d b5 f2 69 bd
       0.052747644 0.09436357 0.061271474 -0.05711623
000140 06 a3 5d bd 51 2b 47 be c7 e9 3f 3d 93 bc 1c 3e
       -0.05411055 -0.19450118 0.046853807 0.1530631
000150 2e 9b 8a 3d 31 a2 83 bc 7b b5 21 be b8 84 10 be
       0.067678794 -0.01606855 -0.15791886 -0.14113128
000160 43 89 f4 bb a2 15 dd 3d 12 70 51 3d 98 09 0a be
       -0.007462652 0.10795142 0.05113227 -0.13480222
000170 81 d9 34 bd 11 45 88 3d 0e 7d 03 be 6d 5a 5a bc
       -0.04415274 0.06653798 -0.12840673 -0.013327223
000180 c1 90 7f bb 51 c9 22 be 3c ee 8c 3d e6 bb 65 3d
       -0.0038996192 -0.15897109 0.06881377 0.056087397
000190 f8 87 8f bd 33 2a 16 3e e9 89 2b 3e 22 81 9c bd
       -0.07008356 0.14664535 0.16751827 -0.07641818
0001a0 66 b0 07 3c a4 4b 2a be b1 48 53 bd b4 32 36 3e
       0.008281803 -0.16630417 -0.051582996 0.17792779
0001b0 ac e2 a9 3d 4c 09 0b 3e d5 39 c6 3d 64 d8 96 bd
       0.08295187 0.13577765 0.09678999 -0.07365492
0001c0 98 08 a4 bd b4 28 3c 3e e2 69 60 3d f5 92 13 be
       -0.08009452 0.18374902 0.054788478 -0.14411528
0001d0 df cf d3 bd 38 06 42 bc 7c c1 14 be a3 dd 1a 3e
       -0.10342383 -0.011842303 -0.14526933 0.1512361
0001e0 12 56 ea 3d d1 c6 64 3d 12 bc c5 3d 3c cf 40 bd
       0.11442198 0.05585367 0.09655012 -0.047072634
0001f0 16 62 c1 3c ed ef 2f be 18 fa 12 3d 0e 1b 97 3d
       0.023606341 -0.17181368 0.03588304 0.07378207
000200 fa 70 fd 3c 91 dd 26 3d 8c 11 d7 3d 3b b7 34 3d
       0.03093766 0.040738646 0.10501394 0.044120055
000210 c4 8c 7d bd 3b 1f 4a bd 47 18 09 3e c9 ef 84 bd
       -0.061901823 -0.04934619 0.13388167 -0.06491048
000220 9d 23 10 3e 43 bc d7 3d f9 c2 80 3d 27 d9 c9 3d
       0.14076085 0.10533955 0.06287188 0.09855872
000230 70 01 fd 3d 97 6a 2b 3c 85 8d d2 bd 73 2e b9 bd
       0.1235379 0.010462425 -0.10280899 -0.090420626
000240 ec e5 93 3d 1b 58 b2 3d 84 79 c7 b9 d7 c5 20 3b
       0.072215885 0.08708211 -0.00038046774 0.0024531984
000250 5a 5f 64 bc c6 0a 20 bd 27 9c fc bd ff 78 78 3d
       -0.013938749 -0.039072774 -0.12334471 0.060662266
000260 a5 4d 3b 3d 61 4b 04 3d b5 e0 e1 bc 38 19 cf 3d
       0.045728344 0.03229845 -0.027572969 0.10112232
000270 d7 80 90 3d 2f c6 9f 3d 2c f2 d0 bb 19 55 8c 3d
       0.07055824 0.078014724 -0.0063765254 0.068521686
000280 f0 22 13 be da af f6 3c e0 f5 2d bd 9e 9f 3f bd
       -0.14368796 0.03011315 -0.042470813 -0.046783082
000290 ba 08 19 be f4 bf 4c bc af 4d fb bc a3 5f fe bd
       -0.14944735 -0.012496937 -0.03067669 -0.12420585
0002a0 ff 61 df bd 0a d3 05 3e 4f 24 22 bd c5 9e 17 be
       -0.10907363 0.13068786 -0.039585408 -0.1480666
0002b0 a6 e5 e2 3d 3e 6c 03 be 06 d3 0c be 95 25 b1 bc
       0.11078958 -0.1283426 -0.13752374 -0.021624366
0002c0 f6 c2 a7 bc f0 70 e0 3b 88 ad 46 3c 01 5a dd bd
       -0.020478707 0.0068494007 0.012126334 -0.108081825
0002d0 50 30 cd bb 18 23 c4 bd bf 93 08 3e c2 4d 67 3c
       -0.006261863 -0.09577006 0.1333761 0.01411766
0002e0 d5 15 c6 bd 09 0f 45 bd a0 9e c5 3d b7 1d e4 bd
       -0.09672133 -0.04811004 0.09649396 -0.1113848
0002f0 dc 2f be 3d 16 b1 0e be f6 a5 06 be 71 37 4d bd
       0.09286472 -0.1393474 -0.13149247 -0.0501017
000300 e9 fc 38 bd 74 51 91 3c c1 bc 0d bd 70 4f c7 bd
       -0.04516307 0.017739035 -0.034603838 -0.097319484
000310 05 18 e9 3d ea 94 1d be e7 38 7e bc f2 58 c6 bd
       0.113815345 -0.15388837 -0.015516496 -0.09684934
000320 e4 c8 3b 3d fb a6 82 3c dc b7 07 3d 14 c3 ed bd
       0.04584588 0.015948763 0.033134326 -0.11609474
000330 b5 f9 b4 3b 0d da ea bd ee 77 f5 3c 9f 32 9a 3d
       0.0055229315 -0.11467371 0.029964413 0.075291865
000340 61 62 15 3e fd a1 90 3d 7f 20 de bd 13 74 18 bc
       0.1458831 0.07062147 -0.10846042 -0.009305018
000350 dd cf 8d 3d b7 e1 fa 3d 86 fe 2d 3d 95 d4 3b bc
       0.069244124 0.12250083 0.04247906 -0.011464258
000360 be 6e 1d be 9c 34 11 bd 3f b7 95 3b e9 93 0f bd
       -0.15374276 -0.035450563 0.004568964 -0.035053167
000370 e7 94 bd 3d ae 2c 19 be 70 f6 12 3e cc 12 6a bd
       0.092569165 -0.1495845 0.14351821 -0.057146832
000380 d8 57 5e 3d f9 77 e7 3d 87 c9 ba bd 3a 7b d6 3d
       0.054282993 0.1130218 -0.091204695 0.10472722
000390 0d 8c 81 bd db 7a 8d bc 17 ca a5 3d b8 e5 c5 bd
       -0.06325541 -0.017270496 0.08095186 -0.09662956
0003a0 4d 6c 1f 3e 1f 3d 75 bd 48 4c b6 3d f9 a0 d3 bb
       0.15568657 -0.059872743 0.08901268 -0.0064583984
0003b0 1c 7a 12 be ec 7e 1e 3d b8 d6 87 bd 42 d6 b8 3d
       -0.14304394 0.03869526 -0.06632751 0.090252414
0003c0 00 75 c2 bd d4 25 96 3d c4 db 05 be f6 d3 0b bd
       -0.09494972 0.07331434 -0.13072115 -0.03413769
0003d0 a6 90 c2 bc d0 16 a0 3d 8b dc 04 3d 4d 44 a8 3d
       -0.023750614 0.07816851 0.03243689 0.08216152
0003e0 ac 3d 12 be 9f d8 b5 3d 50 84 57 bd bb ec f0 3c
       -0.14281338 0.08879208 -0.052616417 0.029409757
0003f0 8f f3 0a be d5 09 3b 3d f2 f6 8e bd 90 9b 1c 3e
       -0.13569473 0.045663673 -0.06980695 0.15293717

bias f4 [10]
000000 cf db 05 be 07 ba 26 bd 97 cb db 3c 60 38 69 3d
       -0.13072132 -0.040704753 0.026830478 0.05693853
000010 1f a6 c7 3d a5 92 9d bd ce d2 5e 3d d1 5a d8 bd
       0.09748482 -0.07693986 0.054400258 -0.10564197
000020 8a 6a 8e bc 67 72 95 3d
       -0.017384786 0.07297211
