src/kiki_9.pth (torch, 588714 bytes, 10 tensors)

weight f4 [32, 3, 5, 5]
0	0xbd3aacee	-0.045575075
1	0x3b7338a5	0.003711262
2	0xbde3b3a5	-0.11118249
3	0xbdc2a9a0	-0.0950501
4	0x3c785ae5	0.01515839
5	0x3c962cf6	0.018331986
6	0x3d575436	0.052570544
7	0xbdc073c5	-0.09397081
8	0x3de7f9de	0.11326955
9	0xbd76693b	-0.06015895
10	0x3ce49761	0.027904214
11	0xbde4c15e	-0.11169694
12	0x3d54f873	0.051994752
13	0x3d9c63ed	0.07636247
14	0xbce1e268	-0.02757378
15	0xbc967315	-0.018365422
16	0x3d6f1066	0.05836525
17	0xbdc00947	-0.093767695
18	0x3c3daf24	0.011577401
19	0x3c4e6acf	0.012598707
20	0x3cacdf34	0.021102525
21	0xbe2021a3	-0.15637831
22	0xbdd9b6a8	-0.10630542
23	0xbce97c0c	-0.028501533
24	0xbdfc897f	-0.12330913
25	0x3db79ba7	0.08965235
26	0x3df83212	0.12118925
27	0xbcceb31c	-0.02523189
28	0x3d59440d	0.053043414
29	0xbd9c202d	-0.076233245
30	0x3d59fa1a	0.05321703
31	0x3ddd645e	0.10810159
32	0xbca073c5	-0.019586453
33	0x3ddef420	0.10886407
34	0xbcb0a788	-0.02156426
35	0xbdd5aca7	-0.104333214
36	0x3cf20e51	0.029547842
37	0x3d805edc	0.06268093
38	0xbd99c4ca	-0.07508238
39	0xbd831963	-0.064013265
40	0x3de1e51a	0.11030026
41	0xbdf31d43	-0.118708156
42	0x3b8df851	0.00433258
43	0xbe0069cf	-0.12540363
44	0x3cf508dc	0.029911451
45	0xbd471273	-0.04860158
46	0xbe36296c	-0.17789239
47	0xbd9d4b8b	-0.07680424
48	0xbda58a2e	-0.08082996
49	0xbd8413be	-0.06449078
50	0x3e1f7eda	0.15575734
51	0x3d87d290	0.066319585
52	0x3e1b0fa2	0.15142682
53	0x3cc0ed27	0.023550583
54	0x3dca2c17	0.09871691
55	0xbda4c4f3	-0.080453776
56	0x3db7181f	0.089401476
57	0x3d28414d	0.0410779
58	0x3ded1335	0.11575929
59	0xbdc43aa9	-0.09581501
60	0xbd67b754	-0.05657132
61	0x3da66276	0.08124249
62	0x3e13d262	0.14435723
63	0xbcdae482	-0.02672029
64	0xbd373a3a	-0.044733264
65	0x3ddac361	0.10681797
66	0x3d80e8a8	0.06294376
67	0x3d864866	0.06556778
68	0xbbbe9218	-0.0058157556
69	0x3cad107b	0.021126023
70	0x3dbe6185	0.09295944
71	0xbda6b606	-0.08140187
72	0x3be67893	0.0070334165
73	0x3cfc9a9c	0.030835442
74	0xbdf4931d	-0.11942122
75	0x3d909e72	0.07061471
76	0x3de42b35	0.111410536
77	0x3d0f703f	0.035019156
78	0x3cb96503	0.022631174
79	0x3ced3ed6	0.028960627
80	0x3e099761	0.13436653
81	0x3e3ba920	0.18326235
82	0x3ddff827	0.10936003
83	0xbe2b85fc	-0.1675033
84	0xbe1cd2a6	-0.15314731
85	0x3e06424c	0.13111228
86	0x3d2fab6b	0.042888086
87	0xbe3073c9	-0.17231669
88	0xbded4069	-0.11584551
89	0xbe22fbc0	-0.15916348
90	0x3d799c6b	0.060940187
91	0xbd044607	-0.032293346
92	0xbdcabc64	-0.09899214
93	0x3d9e3f6c	0.077269405
94	0x3e22ea8e	0.15909788
95	0x3e362991	0.17789294
96	0x3df3cc43	0.11904194
97	0xbc8e5d9b	-0.017378619
98	0x3d1bbfa5	0.038024563
99	0x3d7077ea	0.05870811
100	0xbcb6fadf	-0.022336422
101	0xbd7cdfdc	-0.061736926
102	0x3cb837c8	0.022487536
103	0xbe1b1ef2	-0.15148523
104	0xbd8e3442	-0.06943561
105	0xbcbed556	-0.023295086
106	0xbd6ba3d1	-0.057529274
107	0xbc8995fa	-0.016795147
108	0xbe4a2f25	-0.19744547
109	0xbe5a4189	-0.21314062
110	0x3e223077	0.158388
111	0xbd9c89ec	-0.07643494
112	0xbe4694f0	-0.19392753
113	0xbe0fb459	-0.14033641
114	0xbe478978	-0.19486034
115	0x3c495617	0.012288592
116	0xbbb62b67	-0.005559373
117	0xbe11a521	-0.14223148
118	0x3c813c4b	0.01577582
119	0x3d1ed2e6	0.038775347
120	0x3c198c32	0.009371804
121	0x3d4e1e32	0.050321765
122	0x3ddbf56f	0.10740172
123	0xbdd3403d	-0.10314987
124	0x3c7edcb8	0.015555553
125	0xbd305e6c	-0.043058798
126	0x3d52c1ad	0.051454235
127	0x3db9b081	0.090668686
128	0xbe1ea0c5	-0.15491016
129	0xbe289354	-0.16462451
130	0x3e025df9	0.1273116
131	0xbd492655	-0.049108822
132	0xba305526	-0.00067265553
133	0xbd21e92b	-0.039529007
134	0x3bcd297f	0.0062610502
135	0x3c9510c7	0.018196477
136	0xbbda0607	-0.0066535505
137	0xbd9ea965	-0.07747153
138	0xbe1229b1	-0.14273717
139	0xbe4d2b89	-0.20036139
140	0x3df40dc1	0.11916686
141	0xbdc71d7d	-0.09722421
142	0xbe07fd3b	-0.13280194
143	0x3c731e55	0.014838775
144	0x3c88e4ce	0.016710665
145	0x3d50f450	0.051014245
146	0xbbc460cd	-0.005992985
147	0xbd31482f	-0.04328173
148	0x3aa6c08f	0.0012722182
149	0x3dec6e6f	0.11544501
150	0x3d80b1cb	0.06283911
151	0x3d29faab	0.04149882
152	0xbd9a7df9	-0.075435586
153	0x3de0f76c	0.10984692
154	0x3e0b913e	0.13629624
155	0xbd96ddaf	-0.073665015
156	0x3deb4ec5	0.114896335
157	0x3d997bb0	0.07494295
158	0xbdca5ab7	-0.09880584
159	0xbe022b14	-0.12711746
160	0xbd29bac5	-0.041437883
161	0x3d368cd2	0.04456789
162	0xbdc39b7a	-0.09551139
163	0xbe1530b3	-0.14569359
164	0xbd7cfa17	-0.06176194
165	0xbd9ef49d	-0.077615
166	0xbd8c8488	-0.06861216
167	0xbe2c42d2	-0.16822365
168	0x3d723d09	0.05914024
169	0x3cf6b0dc	0.03011363
170	0xbdb5c0ef	-0.0887469
171	0xbd9ff1db	-0.07809802
172	0x3db84b34	0.08998719
173	0x3e24c1db	0.16089575
174	0x3da073c3	0.0783458
175	0x3d98c9f5	0.07460395
176	0xbd84369d	-0.06455729
177	0x3d13f2e6	0.036120318
178	0x3b959992	0.004565426
179	0xbdd7858b	-0.10523518
180	0xbde47f8a	-0.11157139
181	0x3de13356	0.1099612
182	0xbd695b76	-0.05697199
183	0x3da88824	0.08229092
184	0xbdf720d0	-0.12066805
185	0x3d1a0a9d	0.037607778
186	0xbd244e80	-0.040113926
187	0xbddd3a28	-0.10802108
188	0x3d46360f	0.048391398
189	0xbd8dc76b	-0.069228016
190	0x3c0163ab	0.007897298
191	0xbdc4ff7a	-0.09619041
192	0xbe109cbc	-0.1412229
193	0xbdca15ab	-0.09867414
194	0xbd50170c	-0.05080323
195	0xbdf58772	-0.11988725
196	0x3dae3835	0.085068144
197	0x3e22c590	0.15895677
198	0x3dcc7067	0.099823765
199	0x3e066250	0.1312344
200	0xbdb3f504	-0.087869674
201	0xbd309b4f	-0.043116864
202	0x3dbc4b33	0.091940306
203	0xbd53b8bf	-0.05168986
204	0x3dd20e1f	0.102566
205	0xbc85073f	-0.016238807
206	0x3d6f9330	0.05848998
207	0x3df066aa	0.117383316
208	0x3de30538	0.1108498
209	0xbd4d6b21	-0.050150994
210	0xbd135510	-0.035969794
211	0xbdb8c158	-0.090212524
212	0x3d72f313	0.059313845
213	0x3d915db9	0.07097954
214	0xbdc3650e	-0.09540759
215	0xbde5ccc6	-0.11220698
216	0xbd3deea5	-0.046370167
217	0xbd3351c6	-0.043779157
218	0x3b463cba	0.0030248598
219	0xbcb145bb	-0.021639695
220	0xbdd14756	-0.102186844
221	0x3d4cdde3	0.050016295
222	0x3d9990b6	0.074983045
223	0xbd095046	-0.03352382
224	0x3dc8b6ce	0.09800492
225	0xbde5a46b	-0.11213001
226	0x3c06ded2	0.008231835
227	0x3d715ef2	0.058928438
228	0x3b572897	0.003283059
229	0x3cec13d6	0.028818052
230	0x3db4d336	0.08829348
231	0x3c8500d2	0.016235743
232	0x3dd3838d	0.10327826
233	0xbd9c4575	-0.076304354
234	0x3ccaab77	0.024739964
235	0xbe1701e2	-0.14746812
236	0xbe0ff718	-0.14059103
237	0xbd4ab42f	-0.049488243
238	0xbdaac259	-0.0833785
239	0x3cc9e1f2	0.024643872
240	0xbc2b2b95	-0.0104474025
241	0xbdaecc24	-0.085350305
242	0x3dbb83db	0.09156009
243	0x3defa3cf	0.11701166
244	0xbd9cb965	-0.07652549
245	0x3dc077df	0.093978636
246	0x3e1845cc	0.14870375
247	0x3dfc6f61	0.12325931
248	0x3dc96361	0.09833408
249	0x3e08c70c	0.1335718
250	0xbc403532	-0.011731433
251	0xbdeb81e3	-0.11499383
252	0xbbf38616	-0.007431756
253	0x3d5a973e	0.053366892
254	0xbdabfe46	-0.08398108
255	0xbdb98e82	-0.09060384

bias f4 [32]
0	0x3dd1f9a0	0.1025269
1	0x3e9e37d1	0.3090196
2	0x3e656d53	0.22404985
3	0xbe6385b7	-0.22218977
4	0xbdd3efe1	-0.10348488
5	0xbe49e5cd	-0.19716568
6	0xbe4b8360	-0.19874334
7	0xbe370c12	-0.17875698
8	0x3b79f97d	0.0038143091
9	0xbe1c4768	-0.15261614
10	0xbe981cb5	-0.29709402
11	0x3d9cc3bd	0.076545216
12	0xbc313dfb	-0.010818
13	0x3e4008de	0.18753383
14	0x3dbdf283	0.09274771
15	0xbe387fcd	-0.18017502
16	0x3d9beb87	0.07613283
17	0xbdfa245f	-0.122139685
18	0x3c327cd0	0.010894015
19	0xbd7a0475	-0.061039407
20	0xbdb8ab9c	-0.09017107
21	0x3da610d0	0.081086755
22	0x3e1c85f1	0.1528547
23	0x3e568818	0.20950353
24	0x3e0226d7	0.12710129
25	0xbe3e477f	-0.18581961
26	0xbd9b7644	-0.07590917
27	0xbdd748b7	-0.10511916
28	0xbb921bcc	-0.00445888
29	0x3e1924f7	0.14955507
30	0xbcef3ee3	-0.029204791
31	0xbe895d75	-0.26829115

weight f4 [32, 32, 5, 5]
0	0x3c8fe767	0.017566396
1	0xbc779f29	-0.01511363
2	0x3cafe2a2	0.021470372
3	0xbc94d761	-0.018169107
4	0x3d0b7e38	0.03405592
5	0xbd060c9d	-0.032726873
6	0xbcfb0ef8	-0.030646786
7	0xbd373969	-0.044732485
8	0xbd808c5c	-0.062767714
9	0xbd292251	-0.041292492
10	0xbd2861fe	-0.041109078
11	0xbd12feb5	-0.03588744
12	0xbcce1a9b	-0.02515917
13	0xbcbcf607	-0.023066534
14	0xbd292bfb	-0.04130171
15	0xbd1ccc0f	-0.038280543
16	0x3c8a31f7	0.016869528
17	0x3cb6d46f	0.022318093
18	0xbbc6dc5c	-0.0060687494
19	0xbccc3012	-0.024925265
20	0x3c7567a1	0.01497832
21	0xbd281e48	-0.041044503
22	0x3c811960	0.01575917
23	0xbb3f59d2	-0.0029197824
24	0xbd2dd95f	-0.04244363
25	0xbc07108a	-0.008243689
26	0x3d0f77e9	0.035026465
27	0x3d2b1a7a	0.041773297
28	0xbd0fc539	-0.035100196
29	0x3b188695	0.0023273577
30	0x3ca34307	0.019929422
31	0x3b97adb4	0.0046288613
32	0x3d01137d	0.031512726
33	0x3d378c7d	0.044811714
34	0xbc0ec9e5	-0.008715128
35	0x3c59e5eb	0.013299446
36	0xbb321909	-0.0027175567
37	0xbbb11bd5	-0.005404929
38	0xbd4dd5df	-0.05025279
39	0xbd12da4f	-0.035852727
40	0xbca45877	-0.020061715
41	0x3c4dfd72	0.012572633
42	0xbd00c23b	-0.031435233
43	0xbc973b99	-0.018461036
44	0x3cc7b2a4	0.024377175
45	0x3bc0c4fd	0.005882858
46	0xbd234358	-0.039859146
47	0x3d0387a5	0.032111783
48	0xbc63ae68	-0.013896562
49	0xbc745eee	-0.014915211
50	0x3c2291e1	0.009922476
51	0xbc01bcef	-0.00791858
52	0x3cca57b2	0.02470002
53	0x3bf29289	0.0074027223
54	0xbc3dd0c7	-0.011585421
55	0xbce87414	-0.028375663
56	0xbce7a64c	-0.028277539
57	0xbb293ed2	-0.0025824797
58	0xbc1cb898	-0.009565495
59	0x3c62f5a3	0.01385251
60	0x3bb07546	0.005385074
61	0xbbd08e54	-0.006364623
62	0xbc8161cb	-0.015793702
63	0xbc952c8a	-0.018209714
64	0xbd2211c3	-0.03956772
65	0xbcafd109	-0.02146198
66	0x3c1075a1	0.008817107
67	0x3bc88798	0.0061196797
68	0x3c7f8c39	0.0155973965
69	0xbb3a77a9	-0.002845267
70	0x3ca7a975	0.020466546
71	0x3c89ddb6	0.016829353
72	0xbc63ede9	-0.013911703
73	0x3cdcf8d9	0.026974129
74	0xbd0c7f53	-0.034301113
75	0xbc0c8ecb	-0.008578966
76	0x3c761478	0.015019529
77	0x3aac1fff	0.0013132094
78	0xbbd9c70e	-0.0066460436
79	0xbc2be075	-0.010490526
80	0x3cc28034	0.023742773
81	0x3b9831bf	0.004644602
82	0x3c38842e	0.011261983
83	0x3d3e5280	0.046465397
84	0x3cfa6ba8	0.030568913
85	0x3b5c9793	0.0033659681
86	0x3c2f823f	0.010712205
87	0xbb626af0	-0.0034548603
88	0x3cf9f1f9	0.03051089
89	0x3d21d157	0.039506283
90	0x3c6b2c02	0.014353754
91	0x3cb90527	0.022585465
92	0x3bf1433e	0.007362752
93	0xbbddfe25	-0.006774681
94	0x3bcfbe29	0.0063398075
95	0xbcddf2a4	-0.02709324
96	0x3d044bf2	0.03229899
97	0x3bb78bf0	0.0056013986
98	0xbd04433d	-0.032290686
99	0xbc7dec50	-0.015498236
100	0xbb829efb	-0.003986237
101	0xbbf7091f	-0.007538929
102	0x3d482d83	0.04887153
103	0xb9b4876d	-0.00034433175
104	0x3d5e2155	0.054231007
105	0x3cc97180	0.024590254
106	0xba8fd451	-0.0010973309
107	0xbcc6ef0f	-0.024283914
108	0xbd4aab8e	-0.049480014
109	0xba8f3fce	-0.001092905
110	0xbb2744ab	-0.0025523107
111	0xbd253e18	-0.04034242
112	0xbbbcd1ca	-0.0057623135
113	0xbd42e005	-0.047576923
114	0xbc4deb51	-0.012568311
115	0xbc22e075	-0.00994121
116	0x3cc529cd	0.024067784
117	0x3c2e99c6	0.01065678
118	0x3cc05ba5	0.0234812
119	0x3d3681d1	0.044557396
120	0x3ca2a27a	0.019852865
121	0xbc762031	-0.0150223235
122	0x3cdc5c89	0.026899593
123	0x3cbd2d3d	0.02309286
124	0xbadd8a0a	-0.0016902101
125	0x3cc77fb5	0.024352888
126	0x3c3e2a18	0.011606716
127	0x3c829c3e	0.015943643
128	0x3c72fd5b	0.014830912
129	0xbc597e13	-0.013274687
130	0xbc35df1c	-0.011100557
131	0x3d3f623b	0.04672454
132	0x3d7f5aba	0.062342383
133	0x3d3f7b74	0.046748593
134	0x3c861268	0.016366199
135	0x3d29a10b	0.04141335
136	0x3b979dcd	0.0046269656
137	0x3d7de57d	0.061986435
138	0x3d879bad	0.0662149
139	0x3d185115	0.0371867
140	0x3d024271	0.031801645
141	0xba491fde	-0.000767229
142	0x3d2f2a03	0.042764675
143	0x3cdc6e4a	0.026908059
144	0xbca6678c	-0.020313047
145	0x3cef8305	0.02923728
146	0x3d035174	0.0320601
147	0x3d06035c	0.032718047
148	0x3c514f01	0.012775184
149	0xbc9491e6	-0.018135976
150	0xbbde4403	-0.00678301
151	0x3bc4af23	0.0060023232
152	0x3c4a141e	0.012333898
153	0xbccc598c	-0.024945043
154	0x3cee94ab	0.029123625
155	0x3c7e4813	0.0155201135
156	0xbc583546	-0.013196295
157	0x3b3f12c8	0.0029155482
158	0x3d058e80	0.0326066
159	0x3bcda90e	0.0062762564
160	0x3bb0ac6a	0.005391647
161	0xbc67970b	-0.014135133
162	0x3c797d80	0.015227675
163	0x3cf3d4ed	0.029764617
164	0x3d1f0f5b	0.038833003
165	0x3d2addd3	0.041715454
166	0x3d62cd5d	0.05537163
167	0x3cbca1f6	0.023026448
168	0x3d6be0e6	0.057587527
169	0x3c812e6c	0.015769206
170	0xbc5897d2	-0.0132197905
171	0x3d278c32	0.040905185
172	0x3d57f82a	0.052726902
173	0x3c43a69f	0.011941581
174	0x3ccdbde1	0.025114955
175	0xbb7e2334	-0.0038778307
176	0xbcf290de	-0.029610094
177	0xbca35e26	-0.019942354
178	0xbb7b6b13	-0.0038363382
179	0xbcdef96a	-0.02721854
180	0xbc03a6bb	-0.008035357
181	0xbd08c94b	-0.033395093
182	0xbc57493c	-0.013140019
183	0xbb045e38	-0.002019776
184	0xbbc682e5	-0.0060580843
185	0x3d1430ca	0.03617934
186	0x3c519aed	0.012793285
187	0x3d605aee	0.054774217
188	0xbb169f87	-0.002298327
189	0xbc07be89	-0.008285173
190	0x3d8045da	0.06263323
191	0x3d58d018	0.05293283
192	0x3d91b5e4	0.07114771
193	0x3ccaea47	0.024769915
194	0x3cf2bb60	0.029630363
195	0xbb836df6	-0.004010911
196	0xbc522469	-0.012826064
197	0x3c08e5d3	0.008355576
198	0x3d3bc199	0.045838926
199	0x3c3e6764	0.01162133
200	0x3c8e200f	0.017349271
201	0x3cb4678a	0.022022028
202	0xbc78f061	-0.01519403
203	0xbcfa4f36	-0.030555349
204	0x3ca5682b	0.020191273
205	0xbccdc382	-0.02511764
206	0x3c578116	0.013153335
207	0xba461326	-0.0007555954
208	0xbbd49305	-0.0064872527
209	0xbce01407	-0.0273533
210	0x3cc83c27	0.024442745
211	0x3bc1310d	0.00589574
212	0x3c2a1596	0.010381123
213	0xbbe8e8af	-0.007107816
214	0xbbfa5de8	-0.007640589
215	0xbc9d408d	-0.01919582
216	0x3bfdd5bf	0.007746428
217	0x3cac4a9b	0.021031668
218	0xba78f058	-0.0009496263
219	0x3baa1724	0.005190747
220	0x3c5629f3	0.013071525
221	0xbc4662d3	-0.0121085225
222	0x3c31d87a	0.010854835
223	0xbce700b1	-0.028198572
224	0x3c522cfb	0.012828107
225	0x3bc882fb	0.0061191297
226	0x3cdb1848	0.026744977
227	0x3a3a8a89	0.000711598
228	0x3b27b32f	0.002558898
229	0x3b4d5b81	0.0031335058
230	0x3c9c657e	0.019091364
231	0xbb624189	-0.0034523925
232	0xbce2430f	-0.027619867
233	0xbc571e72	-0.013129817
234	0xbd45923d	-0.048235167
235	0xbc10bd3e	-0.008834181
236	0x3bdb74c6	0.00669727
237	0xbc3b0ab0	-0.011416122
238	0xbcd43c6b	-0.025907716
239	0xbcc0c3d8	-0.023530886
240	0x3c9f1d0f	0.019423036
241	0xbcd3927b	-0.025826683
242	0x3ce2da02	0.027691845
243	0x3bafe450	0.005367793
244	0x3ce81325	0.028329441
245	0xbc88d600	-0.016703606
246	0xbc6f0dec	-0.014590722
247	0xbcd66a99	-0.026173877
248	0x3b426c02	0.0029666428
249	0xbcbda79f	-0.023151217
250	0x3c30b878	0.010786168
251	0xbcc05f9b	-0.023483088
252	0x3cae9440	0.021310925
253	0xbcd1ab54	-0.02559439
254	0xbbe3f42e	-0.0069565987
255	0x3b03d40e	0.0020115408

bias f4 [32]
0	0xbcab6187	-0.020920528
1	0xbd7c7681	-0.06163645
2	0x3c8dc46a	0.017305572
3	0xbc90517b	-0.017616978
4	0xbe2007c5	-0.15627964
5	0xbdaacd0e	-0.08339892
6	0x3a65eec4	0.00087712356
7	0x38ab67e9	8.17327e-05
8	0xbd03db19	-0.03219137
9	0xbce3ae72	-0.027793143
10	0x3d05a5b0	0.032628715
11	0xbd1579dc	-0.036493167
12	0xbdf65e70	-0.12029731
13	0x3c603d91	0.013686554
14	0xbe046714	-0.12929946
15	0xbda2ff94	-0.07958904
16	0xbca2313f	-0.019798873
17	0xbda3531a	-0.07974835
18	0xbd00813e	-0.031373255
19	0xbdac9e73	-0.08428659
20	0xbdb1b1a6	-0.08676462
21	0x3ab47284	0.0013767038
22	0xbd1af1e2	-0.037828334
23	0x3bec298c	0.007207101
24	0xbd554d73	-0.052075814
25	0x3b94c5f0	0.0045401976
26	0xbbd6e273	-0.0065577566
27	0xbd562c3b	-0.052288275
28	0x3d133bc2	0.03594566
29	0xbcd19ece	-0.02558842
30	0xbcbe4df8	-0.023230538
31	0xbe03b34c	-0.12861365

weight f4 [64, 32, 5, 5]
0	0x3ccd1873	0.025036072
1	0x3ca1306c	0.01967641
2	0x3c5742d7	0.013138494
3	0xbc33531c	-0.010945108
4	0xbcba4b1f	-0.022740899
5	0xbbb75929	-0.0055953455
6	0xbc7c3c77	-0.015395275
7	0xbc15c984	-0.009142283
8	0x3be81451	0.0070825
9	0x3bd036e2	0.006354199
10	0x3d348152	0.044068642
11	0xbb1325d4	-0.0022452967
12	0xbd1af7ba	-0.037833907
13	0x3b8d5d6a	0.0043141143
14	0xbb817c66	-0.003951597
15	0xbc449a9d	-0.011999753
16	0x3c9f0fc7	0.019416703
17	0x3c2d4b89	0.010577091
18	0x3d11e5f6	0.0356197
19	0x3b2a788c	0.0026011793
20	0xbcfb013b	-0.030640235
21	0xbd1b1dd2	-0.037870236
22	0xbbfa3ee2	-0.0076368907
23	0x3c1d3108	0.0095942095
24	0x3c8abc2d	0.016935432
25	0xbbd8b1c5	-0.0066129887
26	0xbd0636ac	-0.032766983
27	0x3cef7fe7	0.029235793
28	0x3cc6d774	0.024272658
29	0xbcbf3acd	-0.023343468
30	0x3baa0fc9	0.00518987
31	0xbc960c70	-0.018316478
32	0xbcc558b5	-0.02409015
33	0xbbd58d80	-0.0065171123
34	0xbcb30358	-0.02185218
35	0xbbc5faf5	-0.0060418793
36	0x3c80166d	0.015635693
37	0xbcf990d4	-0.030464567
38	0x3bf9527a	0.007608709
39	0x3b80baf2	0.0039285356
40	0x3ad51d2c	0.0016259304
41	0x3d01b28d	0.03166442
42	0xbc4af2b9	-0.012386971
43	0xbad298ac	-0.0016067228
44	0x3c3e1a86	0.011603003
45	0xbcf31c69	-0.029676633
46	0x3d04d4c8	0.032429487
47	0x3c2675b7	0.010159901
48	0xbc843e49	-0.016142981
49	0x3ca0a6e7	0.019610835
50	0xbc7ef3b5	-0.015561034
51	0xbd6f9611	-0.058492724
52	0xbce2360c	-0.027613662
53	0xbafa5627	-0.0019099162
54	0xbc663e0d	-0.01405288
55	0x3d9e55e7	0.07731228
56	0x3cabfcff	0.020994661
57	0xbd2ba07b	-0.041901093
58	0xbbe4c3fa	-0.00698137
59	0xbcc1a948	-0.02364029
60	0x3d21c0b4	0.039490417
61	0x3d84550c	0.06461534
62	0x3cf05048	0.029335156
63	0xbd2b267c	-0.04178475
64	0xbd2c8dde	-0.042127483
65	0x3ae2bda4	0.0017298949
66	0x3d887afc	0.066640824
67	0x3d2221f1	0.03958315
68	0x3c84bdd5	0.0162038
69	0x3cc3b9f5	0.023892382
70	0xbc0fbab5	-0.008772542
71	0x3bf6a0b5	0.007526482
72	0x3c0a90ad	0.008457345
73	0x3b26844e	0.002540845
74	0x3d19ae55	0.03751977
75	0x3c6f18a9	0.014593282
76	0x3aec98a1	0.0018050858
77	0x3cc89340	0.024484277
78	0x3c84ff19	0.016234921
79	0xbcc01f64	-0.023452468
80	0x3c75a378	0.014992587
81	0xbc05de9b	-0.008170749
82	0x3ca598ed	0.020214522
83	0x3c134d37	0.008990577
84	0xbcbffbf1	-0.023435565
85	0xbcda08b1	-0.026615473
86	0x3cd0772c	0.02544745
87	0x3cdb873e	0.026797887
88	0x3cd08a1a	0.025456477
89	0x3b6fcdf4	0.0036591263
90	0xbd3d1de3	-0.04617108
91	0xbce11517	-0.027475877
92	0x3b7993af	0.003808241
93	0xbc83e454	-0.016100086
94	0xbc2a265a	-0.01038512
95	0x3ca4e0e9	0.020126777
96	0xbc9a67d5	-0.01884834
97	0xbcbd570c	-0.023112796
98	0xbc469252	-0.012119846
99	0x3c9791ae	0.018502083
100	0x3c5567ff	0.013025283
101	0x3c4f5e68	0.012656786
102	0xbc69da57	-0.014273248
103	0x3a889d0a	0.0010422778
104	0x3c86ac2d	0.016439522
105	0xbbc93826	-0.0061407266
106	0xbc872ff2	-0.016502354
107	0x3cadbf3d	0.021209354
108	0xbcb6a54d	-0.022295618
109	0x3c6d5fea	0.0144882
110	0xbce0f46c	-0.0274603
111	0xbd03f900	-0.032219887
112	0x3aaef3f0	0.0013347846
113	0xbc710560	-0.014710754
114	0x3cbe738c	0.023248456
115	0x3c04c3d5	0.008103331
116	0xbca48587	-0.020083202
117	0xba835570	-0.0010019969
118	0x3cf82dad	0.030295217
119	0x3d31943e	0.043354265
120	0x384fd830	4.9553986e-05
121	0xbaeb54e2	-0.0017954374
122	0xbd2952ed	-0.04133885
123	0xbd4d3840	-0.050102472
124	0xbd7a53e5	-0.061115164
125	0xbcb52407	-0.022111906
126	0x3ca24002	0.019805912
127	0xbd517582	-0.051137455
128	0xbc22dae2	-0.009939881
129	0xbce89d7c	-0.028395407
130	0x3ccedce0	0.025251806
131	0xbd0ebcbe	-0.034847967
132	0xbd0fd689	-0.035116706
133	0x3c2bb1c2	0.0104793925
134	0xbce4518d	-0.027870918
135	0xbc324090	-0.010879651
136	0xbd3aa4e2	-0.0455674
137	0xbc1372f2	-0.008999573
138	0xbbdb28c6	-0.00668821
139	0x3bad4ae5	0.005288469
140	0x3c0fb8c4	0.008772079
141	0xbd039a7b	-0.032129746
142	0xbc7467d6	-0.014917335
143	0xbba495c5	-0.0050227367
144	0xbc503f52	-0.012710409
145	0xbcce1df8	-0.025160775
146	0xbcc31c1c	-0.023817115
147	0xbce621c1	-0.028092267
148	0xbd1c05cc	-0.038091466
149	0xbce4eb41	-0.027944209
150	0xbc2b083d	-0.010438976
151	0xbc7f482a	-0.01558117
152	0x3ce7238d	0.028215194
153	0x3d2d3bac	0.042293236
154	0x3c984057	0.018585367
155	0xbc28e62d	-0.010308784
156	0x3d155919	0.036461923
157	0xbc89eb36	-0.01683579
158	0xbc9ddc96	-0.019270223
159	0xbcc546be	-0.024081584
160	0x3cd2a376	0.02571271
161	0xbcef74dd	-0.02923053
162	0x3cca1517	0.02466826
163	0x3d172984	0.036904827
164	0xbc31fc18	-0.0108633265
165	0xbbc3fac7	-0.0059808227
166	0x3b8df98a	0.004332726
167	0xbc1c9ff8	-0.009559624
168	0xbacda944	-0.0015690704
169	0x3cbce71a	0.023059417
170	0xbcd76671	-0.026293965
171	0x3bb0fc5a	0.0054011764
172	0xbcd1811b	-0.025574258
173	0xbc508eaa	-0.012729326
174	0x3acc5e14	0.0015592002
175	0x3cdb7a75	0.02679179
176	0x3be0191c	0.006838931
177	0x3c955ee6	0.018233728
178	0xbca49949	-0.020092623
179	0xbc8bf89d	-0.017086321
180	0x3ca2ef26	0.019889425
181	0xbc2f5a10	-0.010702625
182	0xbd262362	-0.040561087
183	0xbd4dba7b	-0.05022667
184	0x3d0a60cc	0.03378372
185	0xbc909057	-0.017646952
186	0x3b6ef689	0.0036462864
187	0xbc7ed635	-0.015554001
188	0xbcbe013e	-0.023193952
189	0xbd04c741	-0.032416586
190	0xbc67f1d4	-0.014156777
191	0x3d1bf198	0.0380722
192	0x3b2f781c	0.0026774472
193	0xbc9528c8	-0.018207923
194	0xba7fa58c	-0.00097521464
195	0x3d4d4d89	0.05012277
196	0xbc596dbf	-0.013270794
197	0x3d0f0e48	0.03492573
198	0xbc90c5fa	-0.017672528
199	0xbca019dd	-0.019543583
200	0x3d1b118a	0.037858523
201	0x3c62631f	0.013817578
202	0x3cda64c2	0.026659373
203	0x3d2502b2	0.040285774
204	0xbbc12df2	-0.0058953697
205	0x3c971602	0.018443111
206	0xbc7c05e7	-0.015382267
207	0x3bc1ee00	0.0059182644
208	0x3ca43c23	0.020048207
209	0xbc8bc64c	-0.017062329
210	0x3bbf3657	0.0058353352
211	0xbcd3d5b3	-0.025858736
212	0xbc45ff73	-0.01208483
213	0x3bdf0e80	0.0068071485
214	0xbbb88e18	-0.0056321733
215	0x3c68cf48	0.014209576
216	0xbbad34ec	-0.00528585
217	0xbbd6ae3d	-0.0065515325
218	0x3c1d377f	0.009595751
219	0xbce98a04	-0.028508194
220	0x3cd93836	0.026516061
221	0x39c7b7d9	0.00038093215
222	0xbcfd4b54	-0.030919708
223	0xbb8a7a59	-0.0042260108
224	0xbb34d4ef	-0.0027592739
225	0x3ac72f73	0.0015196636
226	0xb91c212c	-0.00014889677
227	0xbc0118b8	-0.007879429
228	0x3d0d569a	0.034506418
229	0xbc436e1e	-0.011928109
230	0x3ac35362	0.0014902169
231	0x3d67d9bd	0.056604136
232	0x3afaba09	0.0019128929
233	0xbc3d90cd	-0.011570168
234	0xbccae75c	-0.024768524
235	0xbd24a196	-0.040193163
236	0x3bbc513c	0.0057469886
237	0xbd22b44f	-0.039722737
238	0xbcd61e23	-0.026137417
239	0xbd19afa7	-0.03752103
240	0xbd191f8c	-0.0373836
241	0x3ca49266	0.02008934
242	0x3c8f4286	0.017487776
243	0x3d08fb69	0.03344289
244	0x3c992962	0.01869649
245	0x3cc6b3e9	0.02425571
246	0xbce02d0c	-0.02736523
247	0x3c877fbf	0.016540406
248	0x3ca1b620	0.019740164
249	0x3cd81ca3	0.026380843
250	0xbb895250	-0.0041907206
251	0x3d14f2e2	0.036364444
252	0xbc1ad49c	-0.009450104
253	0x3cdc025d	0.026856596
254	0xbcd72c19	-0.026266145
255	0xbcdf0a42	-0.027226571

bias f4 [64]
0	0x3ce603bf	0.028077958
1	0xbcf62bd5	-0.030050198
2	0x3ce5084b	0.027958056
3	0xbcc33e08	-0.02383329
4	0xbd78a934	-0.06070824
5	0xbd5e2c51	-0.054241482
6	0x3ab4e867	0.0013802171
7	0x3bd987d8	0.0066385083
8	0xbd50f2be	-0.051012747
9	0xb70b658e	-8.308691e-06
10	0xbd06cd0e	-0.0329104
11	0xbcae35ce	-0.02126589
12	0xbd458ea5	-0.04823174
13	0xbc4770f4	-0.012172926
14	0xbd69270d	-0.056922007
15	0x3b4e7816	0.0031504682
16	0xbc8801c7	-0.01660241
17	0xbd1565ac	-0.036473915
18	0xbdb96ab2	-0.09053554
19	0xbbd80323	-0.006592171
20	0xbd626fbf	-0.05528235
21	0xbd6314e3	-0.05543984
22	0xbd06807d	-0.03283738
23	0xbc48e07e	-0.012260554
24	0x3caa196b	0.020764073
25	0xbd93cc2a	-0.072166756
26	0xbdaafd04	-0.0834904
27	0xbd2b2553	-0.041783642
28	0x3cb58747	0.022159232
29	0xba93911a	-0.0011258454
30	0x3cc939fc	0.024563782
31	0x3c0eaaae	0.008707685
32	0xbb9c4b81	-0.004769743
33	0xbc67b0d3	-0.014141279
34	0xbd2f0edc	-0.04273878
35	0xbd84fa87	-0.06493097
36	0xbd039234	-0.032121852
37	0x3caadef7	0.020858271
38	0x3b031307	0.0020000355
39	0x3c46a33b	0.012123878
40	0xbd86fd4d	-0.06591282
41	0xbd405408	-0.04695514
42	0x3bb0b8ef	0.0053931396
43	0xbd50594c	-0.05086641
44	0xbc6d0ab9	-0.0144678885
45	0xbc455c7b	-0.012045975
46	0x3cd93004	0.026512153
47	0xbd330802	-0.04370881
48	0xbcf9fe72	-0.030516837
49	0xbcfe2d8f	-0.031027583
50	0xbd6726b4	-0.056433395
51	0xbd2a37f7	-0.04155728
52	0x3ce0edd0	0.027457148
53	0xbbae7a72	-0.005324655
54	0xbd77a608	-0.060461074
55	0xbd8a746e	-0.067604885
56	0xbd1ec897	-0.038765516
57	0xbd3bfd84	-0.04589607
58	0xbc9501ea	-0.01818939
59	0xbd44b9da	-0.048028804
60	0xbd479ff0	-0.048736513
61	0xbc474a5b	-0.012163724
62	0xbb18ea90	-0.002333317
63	0xbd84c7db	-0.06483432

weight f4 [64, 1024]
0	0x3c882cd3	0.016622936
1	0x3c92bd1b	0.017912438
2	0x3d1f987a	0.038963772
3	0x3c9f7628	0.019465521
4	0x3c69f76e	0.014280183
5	0xbd5f95a5	-0.05458607
6	0xbb8463fc	-0.0040402394
7	0x3c7f1b80	0.015570521
8	0xbc0b56ab	-0.00850455
9	0x3c56d535	0.013112356
10	0x3c418a3d	0.011812744
11	0x3cd72b32	0.026265714
12	0xbc913bd4	-0.017728724
13	0x3c40aad3	0.011759478
14	0x3ce3bfab	0.027801355
15	0x3c7e9f04	0.015540842
16	0x3c733916	0.014845153
17	0xbd03aec3	-0.032149088
18	0xbb5feace	-0.0034167054
19	0xbc62667f	-0.013818382
20	0xbc9aa8bc	-0.018879287
21	0x3cb91b28	0.022595957
22	0x3a93bdc9	0.001127177
23	0xbc73823b	-0.014862592
24	0xbc8940e5	-0.016754577
25	0xbd003a10	-0.031305373
26	0xbb11d656	-0.0022252998
27	0xbc53618e	-0.012901677
28	0x3ccf17e8	0.025279954
29	0x3c139747	0.009008235
30	0x3cbd0136	0.023071866
31	0x3c8961c1	0.016770246
32	0xbc800710	-0.015628368
33	0x3ca0058e	0.019533899
34	0x3c2b70dc	0.0104639195
35	0xbcff5b24	-0.031171389
36	0x3d2394ca	0.03993682
37	0xbc1845d3	-0.009293991
38	0x3d0c5da4	0.03426899
39	0x3ce1df2b	0.027572235
40	0x3d31a830	0.043373287
41	0x3d25e62a	0.040502705
42	0x3d2afd6f	0.0417456
43	0xbc0e8f59	-0.008701169
44	0xbb447a7f	-0.002998024
45	0x3ccab1a4	0.024742909
46	0x3c673d49	0.014113733
47	0x3c9d2833	0.019184208
48	0xbca5f716	-0.020259421
49	0xbd0ddcec	-0.034634516
50	0x3cc70c7a	0.024297941
51	0xbbc1f41c	-0.0059189927
52	0x3b4f5061	0.0031633603
53	0x3c8a63d7	0.01689331
54	0x3cf86208	0.030320182
55	0xbb68a57f	-0.0035499034
56	0x3cf52bfb	0.029928198
57	0xbc6eff16	-0.014587184
58	0xbbef12eb	-0.0072959564
59	0xbbf1b71e	-0.0073765656
60	0x3c5bd757	0.01341804
61	0x3c7be9c4	0.015375558
62	0xbaba8c6e	-0.0014232525
63	0xba23812c	-0.00062372047
64	0x3b0c6a98	0.002142584
65	0xbc4833b2	-0.012219356
66	0xbc93b399	-0.018029975
67	0xbcf00eba	-0.029303897
68	0xbcf00c1c	-0.02930265
69	0x3cbebb1b	0.023282578
70	0xbcf1923e	-0.029488679
71	0xbc18caa4	-0.009325657
72	0x3cb52460	0.022112072
73	0xbcdfde2f	-0.027327625
74	0xbcca07c8	-0.024661914
75	0x3ab5f0f9	0.001388102
76	0xbc0d1380	-0.008610606
77	0xbcf714be	-0.030161258
78	0x3ca780c9	0.020447152
79	0xbcb7d631	-0.022441002
80	0x3cc66a66	0.024220657
81	0xbc41d569	-0.011830666
82	0x3c29218d	0.010322941
83	0xbbffe15d	-0.007808848
84	0xbd11ac4f	-0.035564717
85	0xbc1ce826	-0.009576833
86	0x3c9909b8	0.018681392
87	0xbd034555	-0.032048542
88	0xbd1fc25a	-0.039003707
89	0x3d0ff2f9	0.035143826
90	0xbd1120bc	-0.03543161
91	0x3a4846e1	0.00076399563
92	0x3cd77e46	0.026305329
93	0x3ce12745	0.027484545
94	0xbce49126	-0.027901243
95	0x3c408fe2	0.011753054
96	0xbcfbbd77	-0.030729992
97	0xbca8498b	-0.02054288
98	0x3ba7bbf8	0.005118843
99	0x3caf16b9	0.02137314
100	0x3c898c71	0.0167906
101	0xbcefa99c	-0.02925568
102	0xbc104359	-0.008805119
103	0xbd022838	-0.031776637
104	0xbc8eb7db	-0.017421653
105	0x3c15c53a	0.009141261
106	0xbd1d1e55	-0.038359005
107	0x3cee7ec6	0.029113185
108	0x3b83bac3	0.0040200665
109	0xbc21a1ff	-0.009865283
110	0xbce1733a	-0.027520765
111	0x3d030142	0.03198362
112	0xbb1815a2	-0.0023206254
113	0x3c928615	0.0178862
114	0x3d0dc431	0.03461093
115	0x3ceb93ed	0.02875706
116	0xbc33057a	-0.010926599
117	0x3aa1914d	0.0012326628
118	0x3c63f800	0.013914108
119	0x3c6f88f4	0.0146200545
120	0x3bcdaa5f	0.0062764133
121	0x3cb8159d	0.022471244
122	0x3c5d582f	0.013509794
123	0xbb6bd590	-0.0035985447
124	0x3b702811	0.0036644975
125	0xbd3c63bb	-0.045993548
126	0xbcb50af7	-0.022099955
127	0x3cd49756	0.025951069
128	0x3c4cbdd7	0.012496433
129	0x3b8cbfe8	0.004295338
130	0xbc7aa254	-0.015297491
131	0x3cc4a495	0.02400426
132	0xbce362e6	-0.02775712
133	0xbd3e3f58	-0.046447128
134	0xbc92d5c5	-0.017924199
135	0x3c05e83f	0.008173048
136	0x3cdc33f3	0.02688024
137	0x3c591fb9	0.013252192
138	0x3d22cbc0	0.039745092
139	0x3c71c7fe	0.0147571545
140	0x3b245b6a	0.00250789
141	0xbc869ebf	-0.016433118
142	0xbbc7bca2	-0.006095485
143	0x3d1c7609	0.038198505
144	0x3c67d7aa	0.014150539
145	0xbc23b221	-0.0099912
146	0xbc8048db	-0.01565974
147	0xbcb8990d	-0.022533918
148	0x3cdfaafe	0.027303215
149	0x3d1cdc50	0.038296044
150	0x3ca79fc5	0.020461926
151	0x3d45e388	0.048312694
152	0x3ca0e30d	0.019639516
153	0xbd2705b9	-0.040776942
154	0xbbaaaaeb	-0.0052083633
155	0xbb857bdc	-0.004073603
156	0x3bb3a14e	0.0054818755
157	0x3b9c0161	0.0047609066
158	0xbc3a4af7	-0.011370412
159	0xbd26566b	-0.04060976
160	0xbca2f6e6	-0.019893121
161	0x3cad3c58	0.021146938
162	0x3be95f90	0.0071219876
163	0xbc4ad563	-0.012379977
164	0x3d210e9a	0.039320566
165	0x3b3be660	0.002867125
166	0xbcd97a12	-0.026547465
167	0x3d177f08	0.03698638
168	0x3b87f226	0.0041487394
169	0x3ce79558	0.028269455
170	0x3c325a53	0.010885793
171	0xba11012d	-0.0005531486
172	0x3d397bfb	0.045284253
173	0x3d49305b	0.04911838
174	0xbc146c64	-0.009059045
175	0xbaeaa9be	-0.001790337
176	0x3c87808b	0.016540786
177	0x3ad86250	0.0016508792
178	0x3bf8999e	0.007586672
179	0xbc060f10	-0.008182302
180	0x3bf76ba2	0.0075506726
181	0xbd355c65	-0.044277567
182	0xbacc6c5f	-0.0015596262
183	0xbd2eb95f	-0.042657252
184	0xbcdaf4d5	-0.026728073
185	0xbca309ec	-0.019902192
186	0x3c8c8606	0.017153751
187	0xbcedf1a9	-0.029045897
188	0xbc8fc7e6	-0.017551374
189	0xbc032da9	-0.008006492
190	0x3cae5443	0.021280413
191	0x3c479850	0.01218231
192	0x3bee3353	0.007269302
193	0x3d22a277	0.03970572
194	0xbce7184d	-0.02820983
195	0xbcc29fb5	-0.023757795
196	0xbd25a8e5	-0.040444274
197	0xbcb06b04	-0.021535404
198	0x3be07d92	0.0068509066
199	0xbc765a9d	-0.015036252
200	0xbbd8ea5e	-0.0066197356
201	0x3d5acacc	0.05341606
202	0x3ad2af51	0.0016073977
203	0xbb9b211a	-0.0047341706
204	0x3cd4cc7e	0.025976416
205	0x3c3eed0f	0.011653199
206	0xbce2ef85	-0.027702102
207	0xbc830a63	-0.015996164
208	0x3c6a9abf	0.014319121
209	0xbd18b14a	-0.03727845
210	0xb9abbe77	-0.0003275757
211	0x3cebf043	0.02880109
212	0xbac821ed	-0.00152689
213	0xbab520ce	-0.0013818981
214	0x3c19602b	0.009361307
215	0xbbfca8f3	-0.00771057
216	0xbc17e19e	-0.0092701
217	0x3b7ee174	0.0038891705
218	0xbcb7f9a7	-0.02245791
219	0xbc108054	-0.008819658
220	0x3d4110e9	0.047135267
221	0x3cce147e	0.025156256
222	0x3d0977ea	0.033561625
223	0x3bd8eb99	0.0066198823
224	0x3cd7ed09	0.026358144
225	0xbc83a999	-0.016072081
226	0x3c510288	0.012756951
227	0x3cadab64	0.02119989
228	0xbc560810	-0.013063446
229	0xbc823344	-0.015893586
230	0x3d4015dc	0.046895847
231	0x3c3ea945	0.011637037
232	0x3c8a80a9	0.016907053
233	0xbcdc166c	-0.02686616
234	0xbd167d84	-0.036740795
235	0x3c511c2b	0.012763063
236	0xbcfbff7c	-0.030761473
237	0xbd153281	-0.036425117
238	0xbca725d8	-0.020403787
239	0xbcc1370c	-0.023585819
240	0x3ce0e6e4	0.027453847
241	0xbc23250f	-0.009957566
242	0xbb27e2a3	-0.0025617264
243	0x3d1ba5ce	0.03799992
244	0xbcfbfd76	-0.030760508
245	0xbcb8bab0	-0.022549957
246	0x3d017507	0.031605747
247	0xba8f69eb	-0.00109416
248	0xbc78dd8f	-0.015189542
249	0x3d5bda5a	0.053675033
250	0x3ce8903f	0.028389094
251	0xbcce429a	-0.025178242
252	0xbc1c5b95	-0.009543319
253	0x3c0a7169	0.008449891
254	0x3d11c279	0.035585854
255	0x3c701f85	0.014655952

bias f4 [64]
0	0x3ce440f3	0.027863001
1	0x3bcfb9c1	0.0063392823
2	0x3c05397e	0.008131383
3	0xbbb6c1d3	-0.005577305
4	0xbb77384c	-0.0037722765
5	0xbc4a5b86	-0.012350922
6	0x3c04e2b6	0.008110693
7	0x3c614068	0.013748266
8	0x3b8437b0	0.004034959
9	0xbd28e74f	-0.041236218
10	0xbcae67ca	-0.021289725
11	0xbd11b344	-0.03557135
12	0x3bf25ed4	0.0073965583
13	0x3cd214e8	0.025644735
14	0x3aa541ae	0.0012608075
15	0x3c4ae91d	0.01238468
16	0xbd202d5d	-0.03910576
17	0x3ccca2ad	0.024979914
18	0xbccc53b9	-0.024942266
19	0xbcbd3c02	-0.023099903
20	0x3cdf5379	0.027261483
21	0x3c8a3a61	0.01687354
22	0x3ce66d05	0.028128156
23	0x3cf0fc03	0.029417044
24	0xbd80fca6	-0.06298189
25	0xbc3e0ef6	-0.011600247
26	0x3c1f02e4	0.009705279
27	0x3cd6bd5f	0.026213346
28	0xbc829df1	-0.015944453
29	0xbd4fc300	-0.050723076
30	0x3cb53975	0.022122124
31	0x3be786f3	0.0070656477
32	0xbc2db778	-0.010602824
33	0xbd170600	-0.036870956
34	0x3d08ee87	0.033430602
35	0x3c6bf5cd	0.014401865
36	0xbc30a510	-0.0107815415
37	0xbbba87ee	-0.0056924736
38	0x3c8be92d	0.01707896
39	0x3cb43831	0.02199945
40	0x3b092c89	0.0020931086
41	0xbcd83e29	-0.026396828
42	0x3c13e3fb	0.009026523
43	0xbd80dca7	-0.06292086
44	0xbd1d9e1a	-0.038480856
45	0xbba11e9b	-0.0049169785
46	0x3c197011	0.009365098
47	0xbabe47c0	-0.0014517233
48	0xbcebffc3	-0.02880848
49	0xbd54ca41	-0.051950697
50	0x3c6552b9	0.013996773
51	0xbc757a80	-0.01498282
52	0x3c159ff8	0.009132378
53	0xbcbf5a06	-0.023358356
54	0x3c892eb5	0.016745904
55	0xbcaf15ab	-0.021372637
56	0x3c87f531	0.016596409
57	0xbd1cb9f1	-0.038263265
58	0xbc3d97da	-0.011571849
59	0xbccf9ad7	-0.025342388
60	0xbbfc41cd	-0.0076982738
61	0xbc994863	-0.018711274
62	0x3bbab126	0.0056973873
63	0xb9965149	-0.00028670792

weight f4 [10, 64]
0	0xbe30d847	-0.17270003
1	0xbc155335	-0.009114076
2	0xbae670ed	-0.0017581262
3	0x3e62a4c7	0.2213317
4	0xbcf1f0cc	-0.029533766
5	0xbe16a716	-0.14712176
6	0xbdd42c9e	-0.103600726
7	0xbdf440e7	-0.11926442
8	0x3dd10883	0.102067016
9	0x3de57d4d	0.1120554
10	0xbe1638a4	-0.14670044
11	0x3e29cefc	0.16582865
12	0xbdc7c5cf	-0.09754526
13	0xbceba3e6	-0.028764676
14	0xbe0fb674	-0.14034444
15	0x3d3d1c54	0.046169594
16	0x3d71da9b	0.05904637
17	0xbd49ad27	-0.049237397
18	0x3e862b8f	0.26205108
19	0x3c8354c9	0.01603164
20	0xbe6098df	-0.21933316
21	0x3e152d23	0.14568
22	0xbe401ee9	-0.18761791
23	0x3d9d84ae	0.07691322
24	0x3d897b05	0.06712917
25	0x3d96a0c9	0.07354886
26	0x3e117f86	0.14208803
27	0xbe1041d8	-0.14087617
28	0x3a125d15	0.00055833283
29	0x3d531c72	0.0515408
30	0xbde4315f	-0.11142229
31	0xbe10fd98	-0.14159238
32	0xbe59cf96	-0.21270594
33	0x3d3d2201	0.046175007
34	0x3c442ad0	0.011973098
35	0xbd63b18a	-0.055589236
36	0x3dfdbc63	0.123894475
37	0x3e0c0260	0.13672781
38	0xbe23d6f2	-0.15999964
39	0xbe084069	-0.1330582
40	0xbe47cf3c	-0.19512647
41	0x3dbc54b0	0.0919584
42	0xbe1b2155	-0.15149434
43	0x3e00df83	0.12585263
44	0x3df134cd	0.11777649
45	0xbe0422e4	-0.12903935
46	0xbe10c3e3	-0.14137225
47	0xbe0b7d53	-0.13622026
48	0xbdcecf50	-0.100981355
49	0xbe20f22c	-0.15717381
50	0xbdcaa549	-0.09894807
51	0x3dee1f1a	0.11627026
52	0x3daa937f	0.08328914
53	0x3dd12922	0.102129236
54	0x3ce1d107	0.027565492
55	0xbc384663	-0.01124725
56	0x3e528bec	0.20561188
57	0x3e1ee112	0.15515545
58	0x3cd4d0c3	0.025978452
59	0xbdc8fe85	-0.09814171
60	0xbdac0b5c	-0.08400604
61	0x3d927918	0.07152003
62	0x3e19fc11	0.15037562
63	0xbe5fc8c2	-0.21853927
64	0x3e2f2582	0.17104152
65	0x3de21179	0.11038489
66	0x3dda5688	0.10661036
67	0x3ddf7a60	0.10912013
68	0x3e1364c7	0.14393912
69	0x3e59cf5a	0.21270505
70	0xbe2ac1bd	-0.16675468
71	0xbe247f9a	-0.16064301
72	0xbc889d14	-0.016676463
73	0xbdedfda8	-0.11620647
74	0x3e1900f6	0.14941773
75	0xbe4bb1b4	-0.19892007
76	0x3d0c7d25	0.034299035
77	0x3e08bc90	0.13353181
78	0x3dd3dfe6	0.103454396
79	0xbdd8cc6b	-0.10585865
80	0xbddb0834	-0.10694924
81	0xbea34bc1	-0.31893733
82	0x3d5be363	0.05368365
83	0x3e523ad3	0.20530252
84	0x3ddc64fc	0.10761449
85	0xbcdb2eb0	-0.02675566
86	0xbe4dcb32	-0.20097044
87	0xbe5b62e4	-0.21424443
88	0xbcbef3ea	-0.023309667
89	0x3e312f6d	0.17303248
90	0x3daaccd9	0.08339853
91	0xbe1e445b	-0.15455763
92	0xbdb0c9b9	-0.086322255
93	0x3d9b1cb0	0.07573831
94	0xbe30dcb0	-0.17271686
95	0xbca957e7	-0.020671798
96	0x3d448dcc	0.04798679
97	0xbe5d80b0	-0.21631122
98	0x3e070e54	0.1318906
99	0x3d9be7b9	0.07612557
100	0xbda11e73	-0.07867136
101	0x3e365c29	0.17808594
102	0x3e7ae35a	0.2450079
103	0xbd72250f	-0.059117373
104	0x3c4563da	0.012047732
105	0xbe76f7b6	-0.24117932
106	0xbdac690b	-0.08418473
107	0x3e8bd3f7	0.27310154
108	0x3db7b62b	0.08970293
109	0x3e804f8e	0.25060695
110	0x3e3437f6	0.17599472
111	0xbdaee3c9	-0.0853954
112	0xbdcfa41b	-0.101387225
113	0x3e7dd342	0.2478762
114	0x3e014b92	0.12626484
115	0xbe62c878	-0.22146785
116	0xbe1448a1	-0.1448083
117	0x3ca9d868	0.020733073
118	0xbe598176	-0.21240792
119	0x3e52afc6	0.20574865
120	0x3e331d6b	0.17491691
121	0x3d816621	0.06318308
122	0x3e0bd412	0.13655117
123	0xbd59914f	-0.053117093
124	0xbc204811	-0.009782807
125	0xbe70eb70	-0.23527312
126	0x3da619df	0.08110403
127	0x3ddafc69	0.10692675
128	0x3d1dca13	0.03852279
129	0x3cc73404	0.024316795
130	0x3df59753	0.119917534
131	0x3d8cb5c4	0.068706065
132	0xbd81ba93	-0.06334414
133	0xbdf73510	-0.12070668
134	0x3e3f23b3	0.18665962
135	0xbd802e65	-0.06258849
136	0x3e0b1ff3	0.13586406
137	0x3e12be37	0.14330374
138	0x3d876832	0.066116706
139	0x3e136e5e	0.1439757
140	0x3e1a10be	0.15045449
141	0xbce267bf	-0.02763736
142	0xbdd68e63	-0.10476377
143	0xbe03a402	-0.12855533
144	0x3e056cb6	0.13029751
145	0x3e24bc73	0.16087513
146	0xbc4e52ee	-0.012593014
147	0xbd3c1308	-0.045916587
148	0xbd093271	-0.03349537
149	0xbd34c091	-0.044128958
150	0xbe0f849b	-0.14015429
151	0x3dc8b8c3	0.098008655
152	0x3cae193a	0.021252263
153	0x3d1fb66f	0.03899234
154	0xbd792dc1	-0.06083465
155	0x3e114c7a	0.1418933
156	0x3e027a7c	0.12742037
157	0x3dca7c11	0.09886945
158	0x3bcbb5cd	0.0062167407
159	0x3db1879c	0.086684436
160	0xbe480475	-0.1953295
161	0x3d92d75d	0.071699835
162	0xbd8fa7bd	-0.070144154
163	0xbdbad725	-0.09123067
164	0xbe486c93	-0.19572668
165	0xbd1a07b4	-0.037605003
166	0xbd545456	-0.05183824
167	0xbe13adcb	-0.14421766
168	0xbdeec4ca	-0.11658628
169	0x3e48a376	0.19593605
170	0xbcd37c8f	-0.02581623
171	0xbe468d3a	-0.19389811
172	0x3df526fb	0.119703256
173	0xbe35a075	-0.17736991
174	0xbe45f256	-0.19330725
175	0x3c3da6b3	0.011575389
176	0x3b80b49b	0.00392778
177	0x3bc21b6f	0.0059236805
178	0xbc4aa7d0	-0.012369111
179	0xbe188698	-0.14895093
180	0xbcc6e8a6	-0.024280857
181	0xbdb3f406	-0.08786778
182	0x3e4791e4	0.19489247
183	0x3c2fb945	0.010725324
184	0xbe33d9fd	-0.17563625
185	0xbda5f270	-0.08102882
186	0x3defa64c	0.117016405
187	0xbe39a327	-0.18128644
188	0x3ded8766	0.11598091
189	0xbe2db3f7	-0.16963182
190	0xbe403b58	-0.18772638
191	0xbd356779	-0.044288132
192	0xbd6b8bcd	-0.05750637
193	0x3b8ef685	0.0043628835
194	0xbd722202	-0.059114464
195	0xbdba7656	-0.09104602
196	0x3de36e03	0.111049674
197	0xbe3b07ce	-0.18264696
198	0xbd1b37e4	-0.0378951
199	0xbddfa28f	-0.109196775
200	0x3d746f8c	0.059676692
201	0xbba57b0a	-0.005050068
202	0x3cf54c2f	0.029943554
203	0xbdd27205	-0.10275654
204	0x3c32f295	0.010922094
205	0xbe1c0694	-0.15236884
206	0x3d2b849f	0.041874524
207	0x3d89e9dd	0.06734059
208	0x3e1bba98	0.15207899
209	0x3dd6136d	0.10452924
210	0xbdf5cfe6	-0.12002544
211	0xbc1068d1	-0.008814053
212	0x3dbad066	0.0912178
213	0x3e005947	0.12534057
214	0x3d4972ec	0.049181864
215	0xbbca53f3	-0.0061745583
216	0xbe28f5ec	-0.16500062
217	0xbdae804e	-0.08520566
218	0xbcc3a8e8	-0.023884252
219	0xbd351524	-0.044209614
220	0x3de3227a	0.1109056
221	0xbe188ace	-0.148967
222	0x3e1a163d	0.15047546
223	0xbd81edfe	-0.063442215
224	0x3d45031e	0.048098676
225	0x3e1263c0	0.14295864
226	0xbe00b334	-0.1256836
227	0x3dfb12be	0.12259434
228	0xbd2c83f0	-0.042118013
229	0xbd46b11b	-0.048508745
230	0x3dc19a43	0.09453251
231	0xbdfb99ac	-0.1228517
232	0x3e31928e	0.17341062
233	0xbd4c9a5a	-0.04995189
234	0x3df35b1c	0.11882612
235	0xbba715c8	-0.005099032
236	0xbdfbbbe7	-0.12291699
237	0x3d29701a	0.041366674
238	0xbd4834f7	-0.048878636
239	0x3de87cb4	0.1135191
240	0xbdf0d9cf	-0.11760294
241	0x3d37b240	0.044847727
242	0xbe253b2e	-0.16135857
243	0xb90724eb	-0.00012888356
244	0x3c37998f	0.011206045
245	0x3dd5f006	0.104461715
246	0x3d3fdf0f	0.046843585
247	0x3db2d86c	0.087326854
248	0xbe10b09a	-0.14129868
249	0x3dea6771	0.11445511
250	0xbd75c922	-0.06000627
251	0x3d5d6152	0.05404789
252	0xbe157d9a	-0.14598694
253	0x3d73a938	0.05948755
254	0xbd9a4e37	-0.075344495
255	0x3e1d8df1	0.15386178

bias f4 [10]
0	0xbe2867ad	-0.16445799
1	0xbd8ab8c7	-0.06773525
2	0xbc910eb2	-0.017707203
3	0x3d82a5f6	0.06379311
4	0x3e1ada90	0.15122437
5	0xbdaf758f	-0.085673444
6	0x3db2e7d2	0.087356225
7	0xbdd593a5	-0.104285516
8	0x3cb2e249	0.021836417
9	0x3d589c6b	0.052883547
