src/kiki_3.pth (torch, 588714 bytes, 10 tensors)

weight f4 [32, 3, 5, 5]
00000000: 2275 35bd 0033 ff3a a4f8 c0bd a807 adbd
00000010: aa9a fb3c 3f49 1a3d 82fb 653d 20de a5bd
00000020: c2f9 ea3d 6a22 f7bc 04fe 513d 824d d8bd
00000030: 75d3 3d3d 7fcc ad3d e410 06bc d4e5 dabc
00000040: 8fba 853d 995b afbd c918 e23c 0f00 663c
00000050: 69c1 de3c 493c f3bd a338 97bd 7488 d4bb
00000060: 000f d6bd f902 963d 17eb cd3d 2078 c5bc
00000070: 7dfe 563d d803 88bd acbb 5f3d bffe ba3d
00000080: e4aa cabc 3ccc c73d 7431 393a 69cf c9bd
00000090: d96d 833c 16e4 233d 5a1b 9fbd 909e 57bd
000000a0: 9f14 ac3d 727a 04be 5a89 23bb d71e f5bd
000000b0: b125 bf3c 6760 6ebd 893f 1fbe 47af 6cbd
000000c0: 63c6 8dbd cc6d 57bd e5c1 0e3e 8f24 3c3d
000000d0: af0f 1a3e bbfc b73c 817e e23d 3762 a2bd
000000e0: 1cc7 953d 3877 0d3d 0830 d73d adc7 91bd
000000f0: d5f0 56bd 75fc 863d da2f f43d 996e fabc
00000100: 56ae 00bd d092 a73d f067 503d 0381 673d
00000110: 5317 6aba 422c 973c eaf0 a63d ce09 83bd
00000120: 25e3 a63c a0e9 1d3d 0cce dabd 822a 263d
00000130: 2d20 9f3d 5d33 0b3c 0698 b63c 9b27 d23c
00000140: 424f ac3d e56e 113e ef7e cd3d 7125 08be
00000150: 41d3 04be c61d a63d 4f1d be3c 431c 13be
00000160: 37fc 8cbd 7e8f 0bbe 9a09 ee3c ab6e 28bd
00000170: f6e6 a8bd ad43 b03d 1624 093e 6a05 263e
00000180: f67f ea3d 6c71 36bc 4f13 333d 9060 233d
00000190: 95d7 48bd 2244 a3bd c08e b43c 5bfc ffbd
000001a0: 63ef 53bd 3b86 95bd cfa0 aebd 44c4 94bb
000001b0: 9c24 13be 6f67 34be a593 d63d 25e2 b4bd
000001c0: 1934 1bbe 8078 a9bd 5ed6 29be 0e17 d6bc
000001d0: b09a 41bc 4096 f0bd 88b9 fe3c 7e6f 8d3c
000001e0: 153e 4abc 8169 403d 2ff3 f73d 34f5 b7bd
000001f0: 63b6 473b 9fe1 a4bd 39b3 ce3c 39c6 a43d
00000200: a570 11be 5abc 25be 09e3 873d f528 b0bd
00000210: 5a97 a9ba 72d4 44bb 27b5 cf3c 8a30 30bd
00000220: 931b cabc ba5a 2ebd 74f8 c0bd 7cba 38be
00000230: dc38 8c3d 386a e9bd e518 f1bd dec8 ad3c
00000240: 6084 55bc 2d64 a13c e7e6 8ebc 0b6e 14bd
00000250: e6bd 193c 5b92 ca3d ff24 8f3d abe1 313d
00000260: d66d 93bd 866b dc3d 277d 053e 1826 6ebd
00000270: a62e ce3d 9b09 903d cdef b4bd 2173 cdbd
00000280: 516a 39bd 775d 4d3d 28e8 8abd 647f febd
00000290: 690f 30bd ad00 6cbd 902f 08bd 5a0a 01be
000002a0: 1830 913d fa2e 713c 3b50 79bd c09f a4bd
000002b0: b9b8 813d 785d 023e d53b 133d dced 9c3d
000002c0: ab47 85bd 0fac 0b3d d2ed 24bb 4dbc e9bd
000002d0: b3fb dfbd 9317 ae3d 7b67 9bbd f0a6 9d3d
000002e0: 6cd9 d9bd c4a6 2f3c 74d9 61bd 9469 d2bd
000002f0: d324 3b3d 136f 93bd 8034 583b f898 aebd
00000300: f5ba fcbd 65d3 e1bd 3406 b4bd 9e4f f1bd
00000310: 1a23 673d 819c db3d 2394 2f3d bc0d 883d
00000320: a6a3 9dbd 29cf 15bd 3332 c33d 2dca 62bd
00000330: efac c13d b4ed 9bbb 9aec 283d 5313 d23d
00000340: eb4e da3d 8241 17bd 9894 56bd fae6 cabd
00000350: 45ee 883d e9f7 8f3d 0e24 c5bd e18f dfbd
00000360: 4b2f ffbc 4eb1 b1bc beb2 04bb 15a6 54bd
00000370: f686 b6bd f8b9 063d f299 1a3d 26f8 99bd
00000380: efff 3d3d 9626 c2bd f280 1f3c a4a6 393d
00000390: b294 ec3b 490b e93c d70d ca3d 6615 413c
000003a0: e632 b93d 921e 8dbd 12a7 d63c 8ad2 ecbd
000003b0: 0645 f1bd 032e 1bbd f356 8ebd 3eb2 ff3c
000003c0: c509 033c 7eb3 aabd 226f 9f3d adb3 da3d
000003d0: eddf b2bd b9d9 a03d ea13 ed3d 3518 a93d
000003e0: ab6b 8b3d 26fb db3d 94c2 673b 26bd e8bd
000003f0: 274a b5bc 4e57 503d 004b bcbd 2ea4 adbd
-0.04430116 0.0019470155 -0.094224244 -0.08448726 0.030713398 0.03766751 0.05614806 -0.080990076
0.11473419 -0.030167777 0.05126764 -0.105616584 0.04634424 0.0848627 -0.008182738 -0.026720919
0.06529724 -0.08562393 0.02759971 0.0140381 0.027191835 -0.11876733 -0.073838495 -0.006485993
-0.1045208 0.07324786 0.100546055 -0.024105132 0.052488793 -0.06641358 0.054622337 0.0913062
-0.02473969 0.097557515 0.0007064559 -0.098540135 0.01604359 0.04001244 -0.07768889 -0.05264145
0.08402371 -0.12937334 -0.0024953694 -0.11968773 0.023333402 -0.058197405 -0.1555158 -0.057784345
-0.06922605 -0.052594945 0.13941152 0.045933302 0.15045045 0.022459378 0.11059285 -0.07928889
0.07313368 0.034537524 0.10507208 -0.07118163 -0.05247577 0.06591121 0.119231895 -0.030570315
-0.03141626 0.08182299 0.050880373 0.05651952 -0.0008929867 0.018453721 0.081514195 -0.063983545
0.020371983 0.03855288 -0.106838316 0.040567882 0.07769809 0.008496133 0.022289287 0.025653651
0.08413555 0.14202459 0.10033976 -0.13295533 -0.12971212 0.081111476 0.023207335 -0.1436625
-0.06884044 -0.13628957 0.029057313 -0.041121166 -0.08247177 0.08606658 0.13392672 0.16213003
0.11450188 -0.01113544 0.043719586 0.03988701 -0.04903372 -0.0797198 0.022040725 -0.12499305
-0.05174197 -0.07300993 -0.085267656 -0.0045399982 -0.14369434 -0.17617582 0.1047738 -0.08832196
-0.15156592 -0.08274937 -0.16585681 -0.02613404 -0.0118166655 -0.11747408 0.031094328 0.017265078
-0.012343903 0.046975616 0.121069305 -0.08982316 0.0030473701 -0.08050846 0.025231944 0.080456205
-0.14203127 -0.16185132 0.066351004 -0.08601562 -0.0012938783 -0.0030033854 0.025354935 -0.04301504
-0.024671352 -0.042566992 -0.09422389 -0.18039888 0.068467826 -0.11397213 -0.117723264 0.021213945
-0.013032049 0.019701088 -0.017444087 -0.036237758 0.009383654 0.09891196 0.06989478 0.043428104
-0.07198684 0.10762696 0.13036023 -0.058141798 0.10067491 0.07033082 -0.08834801 -0.10031725
-0.045267407 0.050137963 -0.067825615 -0.124266416 -0.042983446 -0.057617832 -0.033248484 -0.12601605
0.07089251 0.014720673 -0.06086753 -0.080382824 0.06334061 0.12730968 0.035945732 0.076625556
-0.0650781 0.034099635 -0.0025166166 -0.11412869 -0.1093668 0.0850059 -0.07588097 0.076978564
-0.10637173 0.010720912 -0.05513902 -0.10274044 0.045689415 -0.0719892 0.0032990277 -0.0852527
-0.12340347 -0.110266484 -0.08790246 -0.11782764 0.05642996 0.1072321 0.042865884 0.066432446
-0.07697229 -0.036574516 0.09531059 -0.05536859 0.094568126 -0.004758561 0.041241266 0.10257592
0.10659584 -0.036927707 -0.052387804 -0.099073365 0.06686071 0.07029707 -0.096260175 -0.109161146
-0.03115048 -0.02169099 -0.002024814 -0.0519162 -0.089124605 0.032892197 0.03774447 -0.07518034
0.046386655 -0.09480016 0.009735333 0.045324937 0.0072198743 0.028447764 0.09865921 0.011784887
0.09042911 -0.068905964 0.026202712 -0.11563595 -0.11780743 -0.037885677 -0.06950178 0.031212922
0.007997935 -0.08335017 0.07784869 0.10678802 -0.08734117 0.07854027 0.11576064 0.0825657
0.068076454 0.10741262 0.003536378 -0.11364202 -0.022130085 0.05086451 -0.091939926 -0.084785804

bias f4 [32]
00000000: a2b2 8b3d 6940 603e 2f53 2e3e 597b 26be
00000010: 8d7a 0ebe 6165 d0bd a1c2 16be 0cc8 f4bd
00000020: 970a c73c 7941 13be f525 6abe bc5a fb3c
00000030: 4bff e0bb 9ef5 213e 5ea6 913d 6b89 13be
00000040: 29c3 d13d b1e1 d8bd dfae 313c 7a25 a7bc
00000050: 02ce 0ebe 3dd7 523d 094e d73d 899f 643e
00000060: f628 183e e94b 09be a1a4 b6bd f035 cabd
00000070: a00a ed3a e8ff a83d d331 3abc 15f2 36be
0.06821181 0.2189957 0.1702392 -0.16257991 -0.13913937 -0.101755865 -0.14722683 -0.119522184
0.024297042 -0.14380445 -0.22866042 0.030682914 -0.006866371 0.15816352 0.0711181 -0.1440789
0.10242302 -0.10589922 0.010844915 -0.020403612 -0.13945773 0.0514748 0.10512931 0.22326483
0.14859375 -0.13407864 -0.08918119 -0.09873569 0.0018084832 0.08251935 -0.011364418 -0.17865784

weight f4 [32, 32, 5, 5]
00000000: 60f7 8c3c f16a 8fbc e401 893c 3e22 9cbc
00000010: 4049 fb3c 10b2 07bd 7aa3 adbc cf73 02bd
00000020: 4007 3cbd 5ed6 f8bc dba0 2abd b3d8 0abd
00000030: 1156 b6bc 63e7 81bc f685 1fbd f1bd c7bc
00000040: 758f e93c 1a03 df3c cd04 36bb 189c d4bc
00000050: 0ac7 cb3c e2c8 05bd ace6 ca3c 5d7b 0d3c
00000060: 9582 0ebd b8a8 56bc 4b76 003d e341 2a3d
00000070: 0fca d7bc 366b 24bb 1cb6 503c 1ee6 9abb
00000080: f5d2 ab3c 28ef 163d 2b07 93bc dc61 8d3c
00000090: 9252 a93b 6ed8 d33a 3b73 0bbd ae7a 00bd
000000a0: 4f35 e5bc 7845 8a3c bd7d d8bc f092 30bc
000000b0: da4e ae3c 8519 fe3b a3c4 00bd efcc 053d
000000c0: 7e65 63bc 60ee 82bc 8d5f 243c 474d 37bc
000000d0: b5ff 963c e492 6d3b 4be5 8dbc 992c f5bc
000000e0: 15c9 01bd 0fc7 f9bb 1a97 7dbc 7060 6d3c
000000f0: 1d13 a83b c62e a4bb 0c8b e6bb bd56 a9bb
00000100: 728a dbbc f272 b1bc cd2b 9a3b f867 bb3b
00000110: d780 643c e9c4 3abb 2433 ed3c 2d57 bb3c
00000120: 8f28 12bc 4931 033d c847 e1bc baf9 6fbc
00000130: 0f28 083c 46bb d4bb f8a9 60bc a880 89bc
00000140: c57f af3c 5765 0bbb 48c4 02bb dc4f ff3c
00000150: adbd 993c 8c83 b5ba c070 9e3b c676 1abc
00000160: 04d6 cc3c a1e8 183d 830f ed3b 464c 5e3c
00000170: 1185 9c38 06f7 54bc f938 b73b 677b d2bc
00000180: a83c 043d 6ed6 c93b 3158 0bbd d5f4 8dbc
00000190: 3b8f 7bbc c988 c9bc 70e6 f73c ed91 7fbc
000001a0: c319 153d ce60 8b3c 1966 d63b fc77 09bc
000001b0: 5b92 f0bc 0fdb 763c 35ed 3ebc a706 32bd
000001c0: 2d8f 6dbb 06ab 29bd 2737 57bc e263 cabb
000001d0: 8b91 d13c 040d a43b 3b23 163c e3e4 e93c
000001e0: 24b5 513c af0c cbbc c677 973c c753 933c
000001f0: 4759 93bb d1e5 f53c fe75 c83c 0fb4 be3c
00000200: 61a8 cf3c 946c f7bb eef5 4ebc 638d 333d
00000210: d5c3 603d f765 203d 8314 463c d03d 303d
00000220: 89da eabb 8fa5 1f3d 3a92 333d f9a3 ab3c
00000230: 9388 f03c 53f4 adbb 2c71 253d d074 cf3c
00000240: e4cd aabc e639 fe3c 1732 073d a7ba 073d
00000250: cdc0 543c 23df 56bc 53e8 d8bb 8fcf ea3b
00000260: 631f 1a3c 05f7 debc 3dbd dd3c 1689 443c
00000270: 671e 82bc 9dab 4cbb ff1d e33c 8702 093b
00000280: 8355 76bb 6fae b0bc 14b7 893b 0eaa a73c
00000290: 47e0 fb3c 5f77 113d ad6b 3b3d 4ebc 0c3c
000002a0: 1c67 323d f80a fa3b 48d3 7ebc d277 1a3d
000002b0: 0696 373d 308b 7c3b ebbc 8f3c 7a70 fb3b
000002c0: 9dfc 8ebc 5596 0fbc 2d76 c43b 08a7 a3bc
000002d0: 383f 0cbc 4d7f e4bc d3e9 dcbb 775b d03b
000002e0: 336e 703b eb5f 9c3c 0e73 55bb 909f 213d
000002f0: 6405 79bc 4d43 89bc 4b74 4b3d 6956 1b3d
00000300: 732e 5a3d 7b50 db3b 52d0 5f3c ee40 35bc
00000310: dd36 a3bc 8c79 4e3b db74 203d 81ec f63b
00000320: 391a 933c ae97 d63c f2cb 79bc ed03 babc
00000330: c916 a53c 65aa d0bc c34b 753c cb8a 37bb
00000340: 6c2c 69bb 1b1a dbbc 8292 de3c c812 0f3c
00000350: d0b4 203c c168 babb d074 40bc 1ad4 8dbc
00000360: ac82 273c 6061 9e3c 2a8e 30bb 729f e6ba
00000370: 19cb 793c 78f1 1ebc d031 d53b 8e79 febc
00000380: 2d61 433c 3d7d 0dbb eedc 5f3c f501 54bc
00000390: ba41 08bc 9e16 08bc af10 993c 769b f33b
000003a0: 3678 87bc 4147 08bb 7b4a 31bd 2b6b 92bc
000003b0: e477 1e3c 8b56 153b 424b 21bc e573 9abc
000003c0: 6d02 c03c 4ff9 cbbc 03d6 7e3c b6b4 3ebc
000003d0: a37f 803c ce39 4abc 1d9d 33bc 4c45 c3bc
000003e0: 128f db3b e319 95bc b3e6 4d3a a35c cdbc
000003f0: 740d 8b3c 7230 dbbc 6237 26bc 4a63 51bc
0.017207801 -0.017507048 0.016724534 -0.019059297 0.030674577 -0.033128798 -0.021196116 -0.031848725
-0.04590535 -0.030375656 -0.04165731 -0.033898067 -0.022257837 -0.015857404 -0.038946114 -0.024382563
0.028510788 0.027223159 -0.0027773858 -0.025953338 0.024875183 -0.03266228 0.024768196 0.008635369
-0.0347925 -0.013101749 0.031362813 0.04156674 -0.026341466 -0.0025088317 0.012738731 -0.004727139
0.020974616 0.03684917 -0.017947754 0.017258577 0.005167314 0.0016162524 -0.03404544 -0.031366996
-0.027979521 0.016878828 -0.026427144 -0.01077722 0.021277834 0.007754507 -0.031437527 0.032666143
-0.013879178 -0.015982807 0.010032547 -0.011187858 0.018432477 0.0036250884 -0.01732125 -0.029928492
-0.031685907 -0.0076226066 -0.01547792 0.0144883245 0.0051292316 -0.0050104586 -0.0070356186 -0.0051678107
-0.026799414 -0.021661256 0.0047049285 0.005719181 0.013946733 -0.0028498715 0.02895505 0.022868717
-0.008920803 0.032029424 -0.027500048 -0.014646942 0.008310332 -0.0064920513 -0.013712399 -0.01678498
0.02142323 -0.002127012 -0.0019953419 0.03116601 0.018767202 -0.0013848408 0.004835218 -0.009427732
0.025004394 0.037331227 0.007234515 0.01356799 7.463445e-05 -0.012998348 0.0055915085 -0.025693608
0.03228441 0.006159595 -0.034019653 -0.01732866 -0.015353973 -0.024601357 0.030261248 -0.015598756
0.03640152 0.017013934 0.0065429327 -0.008390423 -0.029366663 0.015066876 -0.011653234 -0.043463375
-0.003624867 -0.041422866 -0.013135708 -0.0061764577 0.025582096 0.0050064344 0.009163673 0.028551525
0.012799535 -0.024786321 0.01848973 0.017984284 -0.0044967267 0.030016812 0.024470326 0.023279218
0.025348844 -0.0075507853 -0.012631876 0.04383601 0.05487426 0.03915974 0.012089851 0.0430277
-0.0071671647 0.03897625 0.043840624 0.020952212 0.029361999 -0.0053086667 0.040391132 0.025324255
-0.02085013 0.031033468 0.033006754 0.03313699 0.01298542 -0.013114723 -0.006619492 0.007165856
0.009406897 -0.027217397 0.027067775 0.011995574 -0.015883638 -0.003123022 0.027724264 0.0020906047
-0.003758759 -0.021567551 0.004202733 0.02046683 0.030746592 0.03551423 0.045756985 0.008589817
0.043555364 0.007630702 -0.015553303 0.037711926 0.044820808 0.003853511 0.017546138 0.0076733204
-0.01745444 -0.008763869 0.005995533 -0.019977108 -0.008559994 -0.027892733 -0.006741741 0.0063585597
0.0036686778 0.019088706 -0.0032569799 0.03945881 -0.015199039 -0.016755724 0.049671452 0.037924204
0.053266954 0.0066929436 0.013660507 -0.011062844 -0.019923622 0.0031505553 0.039173942 0.0075355177
0.01795684 0.026195373 -0.015246378 -0.02270695 0.020152466 -0.025471875 0.014971676 -0.002800631
-0.0035579456 -0.026745846 0.02716947 0.008732505 0.009808734 -0.005688757 -0.0117466 -0.017313052
0.010224026 0.019333541 -0.0026940205 -0.0017595126 0.015246176 -0.009701125 0.0065061823 -0.031063821
0.011925024 -0.002158954 0.013663514 -0.01293992 -0.008316452 -0.008306174 0.018684713 0.007434304
-0.016536813 -0.0020794424 -0.04328392 -0.017873367 0.009672139 0.002278718 -0.009844603 -0.018854091
0.023438657 -0.024899153 0.015553954 -0.0116397645 0.015685862 -0.012342883 -0.010962752 -0.023836754
0.006700405 -0.01820082 0.0007854506 -0.025068587 0.016974188 -0.026756499 -0.01014504 -0.01278002

bias f4 [32]
00000000: 107b 0b3c 461d 5bbd ca63 773b 7864 1b3d
00000010: a8df 9fbd d386 71bd 4137 933c 0d63 b13c
00000020: cae2 363c 2c18 cabc 5509 a73c 5212 c73b
00000030: 12df a9bd edf5 b33c 1e77 5cbd e6a1 86bd
00000040: de3d 9c3c c23b 0fbd ba94 80b9 fb3b 17bc
00000050: 36ea 3dbd d164 ce3c 30d9 45bd 1fac cf3c
00000060: 9ba6 25bd da1d 81bc c2f6 09bc b4b4 0fbd
00000070: 92ac 9b3c faae fcbb 7e75 5dbc 4264 95bd
0.008513227 -0.053494714 0.0037748688 0.03793761 -0.07806331 -0.05896647 0.017970683 0.021653676
0.011162469 -0.02466973 0.020390192 0.006075182 -0.082945004 0.021967852 -0.053824537 -0.065738484
0.01907247 -0.0349691 -0.00024524872 -0.009230609 -0.04636594 0.025194557 -0.04830283 0.025350628
-0.04044209 -0.015761305 -0.008420648 -0.03508444 0.019003186 -0.0077112885 -0.013516782 -0.07294513

weight f4 [64, 32, 5, 5]
00000000: 71c2 9f3c 51c8 8a3c 0809 623c 2844 34bc
00000010: e60f c7bc 595c 89bc 7bf2 81bc f7d7 d1bb
00000020: 88b9 033c d328 d83b e871 ee3c f8b7 98ba
00000030: fe2b c4bc c1ae 893c 8165 f93b b5bd 2abc
00000040: 40cf b23c 7e9e 5e3c 8ea3 093d 0bce 2abc
00000050: 6ecb c8bc 04d0 0ebd 8d0e 66bc 2f6b b8ba
00000060: 7ccb 013c 4646 24bb 4230 f8bc 45aa e73c
00000070: c0cd de3c be90 cebc 2f37 b3ba 6f55 86bc
00000080: a934 8dbc a5fe 20ba 8306 c2bc 4107 63bc
00000090: 945c 3e3c 7f5f bdbc 6b82 ba3c 26ea 5d3c
000000a0: dbd8 71bb c3a6 003d d69a 7bbb e048 d93b
000000b0: a212 cc3b 1a66 1bbd 2a3b e33c 7f8e 853c
000000c0: 5e71 42bc 966d 8c3c 08fe 9ebc 5db8 45bd
000000d0: 71e3 01bd d804 f3bb c7d8 92bc ee4e 2c3d
000000e0: e3ad c93b cbb1 2ebd c435 213a c9f5 cebc
000000f0: 4f39 c83c 2cd8 4c3d 2573 893c 6d4a dcbc
00000100: 529b b3bc 68d7 79bc 93d0 4a3d 28fc eb3c
00000110: 9c82 173c bfc9 013d a6e2 8dbc 9e76 b5bb
00000120: 826f 683c f31b 613c 5a2e e93c 4330 a23c
00000130: 931e 1bbc d922 e93c 4b15 993c f0cd c3bc
00000140: 7134 e33c f7ff 44bc d0b2 a63c 7703 fdb9
00000150: c1d7 dcbc 2ef0 45bc b2de c83c 9a6a e83c
00000160: f349 f93b beb7 04bc 9ee6 09bd ac65 f9bc
00000170: 86b8 fd3a 9b8b c5bc 83aa c0bc 59dd fb3c
00000180: 78ce 53bc 7a8b eabc 4207 58bc 82fb a23c
00000190: 55b8 aa3b f9af b43b d098 a4bc b6a3 e63a
000001a0: bf67 a83c f7cc bfba 06e4 c5bc 2bd7 163c
000001b0: a98c 18bd 6984 5d3c e6bc 56bc 7950 fdbc
000001c0: a5f5 38bb 9ca1 ebbc b338 423c b6e9 783c
000001d0: 4ce1 73bc 0e6f f73b 0660 ea3c fe0f 0e3d
000001e0: 353a df3b 8e38 603b 6423 14bd cdcd 18bd
000001f0: 9f34 32bd ff6b 4bbc 4e0a 153d f08d 0abd
00000200: 94a3 0abc e274 06bd f32e 093d 3178 afbc
00000210: a1c7 afbc dd20 713c 45c0 aabc 1130 5ebc
00000220: 881e 12bd fcd4 f439 9c13 d4bb ce64 da3b
00000230: 7ac6 603c a5ee d0bc ccd1 a6bc 3762 4ebc
00000240: 01a3 9abc d682 bdbc d123 d1bc 6806 02bd
00000250: 93a6 06bd fe0d 99bc 1a7c 98bc cfd7 a2bc
00000260: d420 cb3c ab3b f33c 6c12 813c 4631 73bc
00000270: 6051 e33c d4bf fabc 0a20 01bd b3f2 d7bc
00000280: 5e59 e23c 0ec0 fdbc 56ae 803c 2400 a03c
00000290: 1d7a 78bc b600 b03a ab0d 773b dc1d 0bbc
000002a0: 1346 24bc b6b0 693c 4024 a1bc ab54 dd3b
000002b0: 535e 00bd 7052 a2bc c603 8fba a0a8 0d3d
000002c0: 80e6 c73c cb58 973c d66a 37bc d978 b7bc
000002d0: 3adb dc3b 733d 253b 46d4 02bd 50cb 17bd
000002e0: 20af b93c d4d8 a7bc b98e 853c bf35 463b
000002f0: 5f0a fb3b a1ba 53bc d235 82bc f751 ca3c
00000300: 7b27 843a 1ce7 863b 1fd8 4c3c 69bb e93c
00000310: da37 1ebd 1bb6 c83c a43b a0bc 3572 efbc
00000320: 4b4e 033d 48c9 693c 765c dc3c 6304 163d
00000330: ee92 08bc 70d1 733c 305d 54bc d2e1 583c
00000340: 09d0 c13c 6f61 4bbc 070c fe3b 4286 cebc
00000350: 7332 7bbc 4d89 743b cad5 9bbb 00ab 893c
00000360: c2cb 8bbb 6b97 8bbc eb9c a6bb f26e 17bd
00000370: 3cf1 ef3c 08e4 ea3b 1706 d5bc f6f1 98bb
00000380: 20c1 7aba e218 453a 2cfd 9e3b 4141 8cbb
00000390: a149 033d 3056 97bc 6fdf 9fbc 0756 203d
000003a0: 3b60 e0bb 1a49 12bc 7afa eabc 9e75 16bd
000003b0: 0b87 0d3c ba29 f0bc 90fe 1dbc ac9d eebc
000003c0: 4f80 11bd 943b b03c 674d df3c a42e 173d
000003d0: 51b7 1e3c 3484 703c 5003 06bd 0725 9f3c
000003e0: 5aa8 953c 2354 833c afa0 8dbb 24cd 093d
000003f0: 8451 51bc a4b7 8e3c f21a 12bd 29b6 9fbc
0.019501897 0.016941221 0.0137960985 -0.011002578 -0.024299573 -0.016767668 -0.015862694 -0.006403919
0.00803984 0.0065966635 0.02910705 -0.0011651507 -0.023946758 0.016806962 0.007610977 -0.010421206
0.02182734 0.013587592 0.033603244 -0.010425101 -0.024511065 -0.034866348 -0.014041555 -0.0014070029
0.00792205 -0.00250663 -0.030296449 0.028279433 0.027197719 -0.025215503 -0.0013673062 -0.01639816
-0.017237024 -0.00061414606 -0.023684746 -0.01385671 0.011618752 -0.023116825 0.022767266 0.013544595
-0.0036902938 0.031409036 -0.003839185 0.006631002 0.006227807 -0.03793917 0.027738173 0.016303299
-0.011867849 0.017142098 -0.01940824 -0.048271526 -0.031711046 -0.007416349 -0.017925633 0.04206746
0.006154762 -0.042650025 0.00061496743 -0.025263684 0.02444139 0.050010845 0.016778538 -0.026890958
-0.021924648 -0.015249111 0.049515318 0.02880676 0.009247448 0.03168654 -0.017319988 -0.005537822
0.014186742 0.013739574 0.028464485 0.019798404 -0.009467739 0.028459 0.018686911 -0.02390191
0.027734967 -0.012023917 0.020348936 -0.00048258502 -0.026958348 -0.012081189 0.024520252 0.028371144
0.0076076924 -0.008100448 -0.0336672 -0.030443989 0.001935736 -0.02411442 -0.023518806 0.030745195
-0.012927644 -0.02863096 -0.013185324 0.019895319 0.0052099624 0.0055141416 -0.020092398 0.0017596397
0.020557282 -0.0014633228 -0.024156582 0.0092065735 -0.03724352 0.013520339 -0.01310656 -0.030922161
-0.0028222587 -0.028763585 0.011854338 0.01519244 -0.014885258 0.0075510805 0.02861024 0.03468322
0.0068123587 0.0034213397 -0.036166564 -0.037305642 -0.043507215 -0.012415885 0.03638678 -0.03382677
-0.008461852 -0.032826312 0.03349204 -0.021419616 -0.021457495 0.014717308 -0.020843634 -0.013561265
-0.035673648 0.00046697992 -0.006472064 0.006664849 0.0137191955 -0.02550442 -0.02036371 -0.012596658
-0.018876554 -0.023133676 -0.025529774 -0.03174439 -0.0328737 -0.01868343 -0.018613864 -0.019878296
0.024795927 0.029691538 0.015755855 -0.014843291 0.027748764 -0.030609049 -0.031524695 -0.026360845
0.027630504 -0.030975368 0.01570813 0.019531317 -0.015165833 0.0013427946 0.0037697356 -0.008491006
-0.010026473 0.014263323 -0.019670606 0.006754478 -0.031339955 -0.0198147 -0.0010911159 0.03458464
0.024401903 0.018474957 -0.011194905 -0.022396492 0.006740001 0.0025213629 -0.03194072 -0.03705913
0.022666514 -0.020489134 0.016303407 0.0030244438 0.0076611484 -0.012922914 -0.015894804 0.024697287
0.0010082567 0.004116906 0.012502699 0.028531747 -0.038627483 0.024500897 -0.019559689 -0.029229263
0.032057088 0.014269181 0.026899558 0.036625277 -0.008335812 0.014881477 -0.012961671 0.0132374335
0.02365877 -0.012413367 0.0077528986 -0.025210503 -0.015331852 0.0037313283 -0.0047557103 0.016805172
-0.004266233 -0.017039975 -0.005084624 -0.03697104 0.029289834 0.0071682967 -0.02600388 -0.004667516
-0.0009565521 0.00075186614 0.004851958 -0.00428024 0.03205264 -0.018473715 -0.019515721 0.039144542
-0.006847409 -0.008928562 -0.02868389 -0.036733262 0.008638154 -0.029316772 -0.009643212 -0.029127918
-0.035522755 0.021512784 0.027258588 0.036909714 0.009687261 0.014679957 -0.032718003 0.019426836
0.018268753 0.01603133 -0.0043221335 0.033642903 -0.0127757825 0.017421551 -0.03567023 -0.01949604

bias f4 [64]
00000000: a012 ad3c 6287 b0bc 0a52 b53c b56b c5bc
00000010: 64ea f6bc d6a0 0abd 536a cb3b 3575 493b
00000020: d3cc 06bd 7bf3 ba3c 62d1 f3bc 8a44 99ba
00000030: 1763 a7bc 35fa 023c 4ecb a53a fcae f53b
00000040: c11e 5c3c 463e 87bb 7bd1 4dbd d1a5 013c
00000050: 2e52 39bd d558 19bd 9385 d8bb 1332 afbc
00000060: eb6a 123d 5571 08bd 154d 71bd 0473 17bd
00000070: fa2b f53c f2de 8e3c f4b3 153d b71d 913c
00000080: 1216 22bc f594 f0bc d4c7 1fbd 6450 44bd
00000090: c765 f6bb 0bbb 173d 81ef 863c 57da 0d3a
000000a0: ed8b 3fbd ef3e 24bd 5f43 573c 585e 2dbc
000000b0: 8e61 173b 410e 103c 6def fe3c c76b d0bc
000000c0: 1804 9cbc 2d5c a2bc e055 61bd d347 dfbc
000000d0: 5663 263d 6068 083b 0c5d 2cbd d738 2bbd
000000e0: 1d3f a7bc 9193 bdbc e183 a93c ea2e 24bd
000000f0: 8328 d5bc d5d1 1d3c 253b b4bb af7e 1ebd
0.021127045 -0.02154893 0.022133846 -0.02409921 -0.030141063 -0.03384479 0.006207743 0.0030740027
-0.03291018 0.022821179 -0.029762927 -0.00116934 -0.020432992 0.007994224 0.001264909 0.0074976664
0.013435067 -0.0041272966 -0.050248604 0.007913069 -0.04524439 -0.037438232 -0.00660772 -0.021386182
0.035746496 -0.033311207 -0.0589114 -0.03697492 0.029928196 0.017440293 0.03654857 0.017714364
-0.009892957 -0.029367903 -0.03900893 -0.04792823 -0.007519457 0.037043612 0.016471626 0.00054112583
-0.046764303 -0.04009908 0.013138621 -0.010581575 0.0023098919 0.008792461 0.031120026 -0.025442017
-0.01904492 -0.019819343 -0.055013537 -0.027255928 0.040622078 0.0020814165 -0.042080924 -0.041802254
-0.020415837 -0.023141654 0.020692768 -0.040083803 -0.026020294 0.009632547 -0.0055002146 -0.038695034

weight f4 [64, 1024]
00000000: 54e8 9f3c de43 c53c ab11 123d 3094 5a3c
00000010: 4d96 8d3c 736b 12bd 387d 14bc 5f87 d93a
00000020: 01f0 9dbc 80f1 4c3c 6667 583c 2ceb d63c
00000030: 0397 babc 1692 48bc 9660 9b3c f51d 9a3c
00000040: c39b 813c c87f 8abc e8ee 0f3c f79d 19bc
00000050: e6f7 57bc 60a4 ed3c 9746 3e3c c393 3ebc
00000060: 8cc2 8939 2c14 f6bc 224d dabb ef9e 3ebc
00000070: 6a04 563c 43cd 783c 0ff1 b13c 98ca 1e3c
00000080: 5fd4 74bc 6f3e a33c 8417 4c3c 9639 01bd
00000090: 2315 133d d437 21bc 08a6 e13c 3870 8c3c
000000a0: 9598 2a3d 4eec ec3c d06f 033d 05b1 22bc
000000b0: 8061 80b9 8e59 3b3c 77a5 cd39 911b 953c
000000c0: ea6c b7bc effc e2bc b4d4 d63c 78b0 1b3b
000000d0: 5a85 253c 4c86 d33c bc27 b83c 851a 07bc
000000e0: 0687 e83c 7c63 afbc 642f 1cbc 4c61 a9bc
000000f0: 22e6 7db8 8e16 b73c a415 d23b ec4e e9b9
00000100: da05 c53b 7408 3bbc 092f 9abc 7da1 06bd
00000110: 7fda 09bd 5a3d 973c 8e30 4fbc 81b2 983b
00000120: 80f4 613c b9c7 eebc b3f2 aabc 9347 5e3c
00000130: 8c88 c0bb 20cb d8bc b5c4 ca3b f76c 7ebc
00000140: 7ba9 e13c c754 60bc 7e4a ab3b 078f d6bb
00000150: 4290 f7bc 35f3 61bc 009a 873c 2233 d2bc
00000160: fa29 c5bc bce8 f23c 037f 0bbd a7c2 783b
00000170: 482f c03c 2129 d63c 594c e2bc b48f 863c
00000180: 2100 c1bc aa66 92bc 7ebe 3bbb 269a 813c
00000190: 1a92 a53b 0ccc cabc dcae 543a 3bc1 ffbc
000001a0: d801 99bc f67a 113c cc58 27bd e547 e43c
000001b0: 3b10 b43b eb4f 65bc 2e80 c4bc e9ad de3c
000001c0: e504 b9bb c7f9 b83c a09c 063d 8bcd ca3c
000001d0: 366e 54bc 1099 e2b9 1c18 b93b 438b 543c
000001e0: 1507 a33b 05b2 bf3c 5c31 7f3c 0865 1bbb
000001f0: 1617 813c df70 d5bc 070b 32bc 4ddf ce3c
00000200: 7d44 623c d952 0f3b d135 76bc bb47 823c
00000210: ddd7 e0bc 2038 0fbd 5638 85bb cb8d ccb8
00000220: b7f4 e73c e2d2 a63b f484 ee3c 633c ba3b
00000230: a23a 2f3c 6135 22bb 7417 24bb 21d6 c93c
00000240: 2f67 7b3c ecba 0cbc 13d1 8abc 984c a4bc
00000250: 3482 da3c 8816 173d 6b60 893c 7fd2 1d3d
00000260: 6763 a63c cb37 12bd 8906 a9bb b0d9 12bb
00000270: 67be e63b 5984 123c 5e46 b639 a7b8 02bd
00000280: 804d d6bc 7852 ac3c 811d 4a3c cc82 fdbb
00000290: 0955 e83c f45c 283c 4ce7 febc 71f3 f43c
000002a0: 2253 733b d314 b83c da95 933b a4a2 babb
000002b0: df35 1c3d b9e4 ee3c 487f babc d581 4c3b
000002c0: e4bd 9f3c 8627 783a 58ff df3b 64e6 1cbc
000002d0: d301 9b3c 691a 04bd fd20 6cba 4514 01bd
000002e0: 5e7c b2bc 7daa aabc 3eac 813c 26d0 7ebc
000002f0: e469 98bc 7f99 58bc 8458 a43b 13a2 c53c
00000300: 172c 643c b48a e03c 9350 68bc 2841 aebc
00000310: 5865 b6bc 01c8 c4bc 3cfc 143c 8aec 98bc
00000320: 9d00 bcbb 47b5 283d 8a47 2ebb c695 f93b
00000330: 4118 c03c 932d 363c 8a56 cfbc e88c 10bb
00000340: fa2f c83c b306 f4bc 5a55 65bb 6b26 663c
00000350: 00d5 5a3c 73cc 26bb 4ca6 853c cde5 77bc
00000360: 8cb4 01bc 92a6 ba3a 7e23 f1bc 8e01 fabb
00000370: 69ef 033d 0ac5 c93c d8a3 143d 20fb 8f3c
00000380: cbf2 b33c 0cc3 cebb c62d 0a3c 087a 813c
00000390: a88b 27bc f391 00bc 0dbc f33c 3107 a33c
000003a0: 9bda 0f3c 8202 38bc 0530 dfbc 303c 523c
000003b0: c3c3 e6bc a11a 07bd 00d2 ab3a 647c 6ebc
000003c0: a8db b23c 5e6c a3bc fd0b 0bbc 498e 0b3d
000003d0: 6a22 babc 1af5 c3bc 0a14 d93c e3ca 3c3a
000003e0: 692f 5ebc c015 233d 6dbd af3c 389e a0bc
000003f0: af8b ab3a 423d acbb f5bd b93c 3407 843c
0.019519962 0.024080213 0.03566138 0.013340995 0.017283583 -0.035747003 -0.009063058 0.001659613
-0.019279482 0.01250875 0.013208246 0.026235186 -0.022777086 -0.012241861 0.018966954 0.018813113
0.015821343 -0.016906634 0.008784987 -0.009376041 -0.013181662 0.029009044 0.01161351 -0.011631909
0.00026275625 -0.030038916 -0.006662027 -0.011634572 0.013062576 0.015185657 0.021721391 0.009691857
-0.014943211 0.019927232 0.012456778 -0.03154906 0.03590883 -0.009839971 0.02754499 0.017143354
0.04164942 0.028921273 0.032089055 -0.0099299 -0.00024486706 0.011434926 0.00039223928 0.018201621
-0.022390801 -0.027708499 0.026224472 0.0023756307 0.010102594 0.025820874 0.022479884 -0.008246069
0.028384697 -0.021409743 -0.009532783 -0.020676278 -6.053423e-05 0.022349622 0.006411271 -0.00044500025
0.0060126605 -0.01141559 -0.018821256 -0.03286885 -0.03365564 0.018461872 -0.012645854 0.004659951
0.0137912035 -0.02914797 -0.020867681 0.013566869 -0.0058756527 -0.026464045 0.006188 -0.015528909
0.027546635 -0.0136920875 0.005227386 -0.006547812 -0.030220155 -0.013790895 0.016552925 -0.025659148
-0.024067868 0.029651992 -0.034056675 0.0037957819 0.023460045 0.026142659 -0.027624296 0.016425945
-0.023559632 -0.01787122 -0.0028647478 0.015820574 0.005052817 -0.0247555 0.0008113214 -0.03122007
-0.018677637 0.008879414 -0.040856168 0.027866313 0.005495099 -0.013996105 -0.023986902 0.027182536
-0.0056463354 0.02258004 0.032864213 0.024756214 -0.012965729 -0.0004322012 0.005648626 0.012972656
0.0049752095 0.023400316 0.015575733 -0.0023711342 0.015758079 -0.026054798 -0.010866887 0.025252962
0.013810274 0.002186945 -0.015027479 0.015903344 -0.027446682 -0.034965634 -0.0040655537 -9.753889e-05
0.028314931 0.005091057 0.029116131 0.005683468 0.0106951315 -0.0024751055 -0.0025038393 0.024638237
0.015344425 -0.0085894875 -0.016945397 -0.020056054 0.026673414 0.03688672 0.016769608 0.038530823
0.02031107 -0.03569774 -0.0051582498 -0.0022407584 0.0070417407 0.008942687 0.00034766173 -0.03191438
-0.026160002 0.021035418 0.012336136 -0.0077365395 0.02836086 0.010276068 -0.03111615 0.029901238
0.0037128408 0.022470867 0.0045039477 -0.005695658 0.038137313 0.029161798 -0.02276577 0.0031205316
0.019499727 0.00094663387 0.0068358593 -0.009576414 0.018921768 -0.03225175 -0.0009007601 -0.03151347
-0.021787819 -0.020833248 0.015829202 -0.015552556 -0.01860518 -0.01322019 0.0050154347 0.024125135
0.013926527 0.027409889 -0.014179367 -0.021271303 -0.022265121 -0.02402115 0.0090933405 -0.018667478
-0.005737378 0.041188505 -0.0026592934 0.0076167313 0.023449065 0.011119264 -0.02530982 -0.0022056643
0.02443694 -0.02978835 -0.00349935 0.0140472455 0.013356447 -0.002545145 0.016314648 -0.015130472
-0.007916581 0.0014240316 -0.02943587 -0.00762958 0.03221074 0.024630088 0.036289066 0.0175758
0.021966359 -0.0063098725 0.008433765 0.01580526 -0.010226168 -0.007847297 0.029752756 0.01990089
0.008780147 -0.011231067 -0.027244577 0.012831733 -0.028169518 -0.03298438 0.001310885 -0.014556024
0.021833256 -0.019949134 -0.008486745 0.03407124 -0.022721488 -0.023920584 0.026498813 0.00072018633
-0.013561108 0.039815664 0.02145263 -0.019606695 0.0013087894 -0.005256326 0.022673586 0.016116716

bias f4 [64]
00000000: a354 b63c b335 a43c 5d49 8c3c f0ed a93b
00000010: 0010 823a 4f6d 8abc 2d0c 853c a92b 2e3c
00000020: df79 563c f0dc c3bc bad3 81bc c561 0dbd
00000030: 57ab 523c d954 e33c acf9 e43a f509 233c
00000040: 33f7 d7bc 2700 763c 064e 9dbc cb21 bbbc
00000050: 1bc0 d03c cd0a ab3c 0f12 953c b997 a53c
00000060: 71b5 69bd d688 98bb d987 373c 3270 c63c
00000070: a114 f4bb 1aa5 3dbd 221d a13c be95 8c3c
00000080: f146 4cbc 1543 c2bc 6b56 bd3c d022 4b3c
00000090: 24b8 04bd e26d 1d3c fe45 513c e3f9 483c
000000a0: fa14 233c 758d a7bc 4b01 eeba e61a 48bd
000000b0: 7991 e7bc a5f2 34bc cd92 b4bb 2b06 ebbb
000000c0: 781e 06bd 7c8f 0cbd 0d68 e93b ca58 ddbc
000000d0: 67b2 12ba 4646 c6bc 3edc 903c b293 aabc
000000e0: da9a fb3b 2bcb 0fbd b982 a0bb dcf7 13bd
000000f0: 58fc 48bc 8869 15bd 020e 8b3b 2296 a0bb
0.022257155 0.020045137 0.017124826 0.005185835 0.0009922981 -0.016897826 0.016241157 0.010630527
0.01309058 -0.023909062 -0.01584803 -0.03451707 0.012858233 0.02775042 0.0017469428 0.009951104
-0.026362991 0.015014685 -0.019202244 -0.022843262 0.025482228 0.020879174 0.018197088 0.020213949
-0.0570578 -0.004654984 0.011201822 0.02422342 -0.007448748 -0.04630003 0.019667212 0.017161246
-0.012468086 -0.023713628 0.023112496 0.012398437 -0.032402173 0.009608718 0.012773035 0.012266609
0.009953732 -0.020453194 -0.0018158344 -0.048853777 -0.028267609 -0.011044179 -0.005510664 -0.007172366
-0.0327439 -0.034316525 0.0071229995 -0.027019877 -0.0005596042 -0.02420343 0.017683145 -0.02082238
0.007678372 -0.035105865 -0.004898396 -0.03612505 -0.012267195 -0.036477596 0.004243613 -0.0049007097

weight f4 [10, 64]
00000000: 3c6f fbbd 41e6 f8bc be12 1cbb d814 2c3e
00000010: 4ba9 57bc 2858 a3bd 8701 dbbd c57a aebd
00000020: 9b4e b73d a15c 813d b1ee bdbd 4ad3 103e
00000030: 939e 75bd 0d97 b4bc 2baf f6bd 5c4c 143d
00000040: 1889 263d 918b 7dbd bd1e 3f3e 5592 1f3d
00000050: 90a5 0bbe 06c3 ab3d 1e30 0fbe 9874 6d3d
00000060: c59c a73d 1d42 0a3d 3a2f 053e 7e10 e6bd
00000070: 78da 0fbd b86e 7c3d 26f4 d4bd 3a0e 18be
00000080: 36cd 20be c25c 65bc c55c ecba 807d 62bc
00000090: 3cfa 063e 973d e13d be1b bfbd 8a54 ebbd
000000a0: 114f 21be 1a40 1f3d 241f e9bd 454f db3d
000000b0: f55f ae3d f1ab cdbd 8a56 8fbd e054 00be
000000c0: 643b 9abd 6d55 0bbe 02a8 81bd 1cba f93d
000000d0: 25c4 a53d 7819 ab3d 72c0 0d3c 67b3 04bc
000000e0: 6595 4f3e 55f5 ec3d baf3 403c 4067 e1bc
000000f0: 454c 5fbd 4ef5 843d b2c3 013e ef6b 19be
00000100: e172 0c3e 8b7e c13d 8b40 e83d 10fd df3d
00000110: 2c3e c13d 33ac 123e 8cc0 f9bd 3376 08be
00000120: 1862 43bb 3858 a2bd 82b7 cd3d 3f4b 06be
00000130: dbc5 283d 0ac9 d33d 9097 893d f3ff 83bd
00000140: 0dc5 98bd e3af 6dbe bfbc 763d 1834 2c3e
00000150: 98e4 8e3d 0aad 5dbc 4c61 3abe 05ce 21be
00000160: 4467 ebbb 7b12 093e 8000 8f3d c50d 0dbe
00000170: a1f0 74bd 2892 9e3d 486e 12be 1593 babc
00000180: 5332 e83a 122f 30be da9b a83d 43ac 703d
00000190: 55b0 86bd b467 1a3e deb2 3a3e 3cac a1bd
000001a0: 373f 02bc 8610 38be 47cf 7fbd 3e22 4e3e
000001b0: 9aa6 ba3d 9a10 293e 822f f13d be57 b6bd
000001c0: 0ed9 b0bd 380c 4a3e 9080 983d 6712 20be
000001d0: b9c8 e2bd 2591 253b c373 1dbe 99f1 2d3e
000001e0: e035 103e 9b6d 893d 246f d43d 7be8 74bd
000001f0: 8a3f a73c a314 41be fa67 713d a972 a73d
00000200: 8bea 8c3c 3614 263d ea19 eb3d 2643 2d3d
00000210: 291b 58bd 29c7 8fbd a253 173e aa0f 58bd
00000220: dfa0 193e 8758 ec3d 7caa 7a3d 3eef d33d
00000230: 7d3a 0a3e aaff 5bbb 1d32 c8bd 7ef6 bbbd
00000240: c56e b83d 19aa cc3d 361e 90bb 4604 40bc
00000250: 02da 11bc 29e4 36bd 31ba 00be 87c2 803d
00000260: 0f81 303d b7ba ec3c c866 0abd 0ea9 d63d
00000270: 19c5 a53d 86ba 943d acdc d2bb a0af a23d
00000280: 9957 15be 36fa 4e3d c95d 7ebd 5d8c 36bd
00000290: 2683 30be ecd7 3bbc e54c 13bd 32a4 08be
000002a0: 5b02 b5bd 947a 113e 3abe 06bd e5cd 1abe
000002b0: 3983 e13d 6273 16be 5032 23be 8d76 35bc
000002c0: 6336 36bc c6e3 af3c 310e e7bb f4db f7bd
000002d0: 482a 8fbc cccb bbbd 93ac 113e 57cf 203b
000002e0: cd59 08be 02f0 58bd c85c d23d f5b9 e8bd
000002f0: 8f9a b73d acd7 16be 25d4 1dbe 6051 22bd
00000300: c82f 64bd df94 3a3c f5d8 05bd 0613 c2bd
00000310: 9275 ea3d 6996 2bbe efe1 8cbc 73dd bebd
00000320: 1efe 563d b898 343c b245 003d 79a8 ebbd
00000330: af1e 0d3c 8a63 00be 0cf5 0c3d 2c16 9c3d
00000340: 352e 1d3e 956a ac3d 419e ebbd e073 85bc
00000350: 1f71 933d 91f8 f23d 6091 2e3d a69a 58bb
00000360: 8ef2 1fbe 7bc8 47bd 517f 08bb b444 12bd
00000370: 328a ce3d 872d 1dbe 7fd7 0f3e bb37 64bd
00000380: bfd0 4e3d 2ff9 f73d 7e5a d0bd beca de3d
00000390: 3f81 88bd 6701 a5bc bbee 9e3d 5976 cfbd
000003a0: ad1d 273e 25e4 63bd 473a cd3d 2c01 7abc
000003b0: b4c7 0fbe 1569 f53c 36ac 97bd 75e0 cc3d
000003c0: b715 bdbd 3d33 863d ceae 12be 4a31 edbc
000003d0: 87a8 a1bc 3fed a63d 7c0e 313d 0b0d 9e3d
000003e0: e0ee 22be 8d45 b63d 5e93 4fbd 5740 153d
000003f0: 64a8 0abe 7687 483d a762 a2bd 5040 1e3e
-0.12277076 -0.030383231 -0.0023814882 0.16804826 -0.013162921 -0.07975799 -0.10693651 -0.0851951
0.0895054 0.06316496 -0.092740424 0.141431 -0.05996568 -0.022044683 -0.120451294 0.036205634
0.040658087 -0.06190068 0.1866407 0.038957912 -0.13637376 0.08386807 -0.13983199 0.05797252
0.08184198 0.033754457 0.13006297 -0.112336144 -0.035120457 0.061629027 -0.1039813 -0.14849177
-0.15703282 -0.013999166 -0.0018033019 -0.013823867 0.13181394 0.109980755 -0.09331463 -0.11490734
-0.15752818 0.03887949 -0.11382893 0.10708479 0.08514396 -0.10042561 -0.06998928 -0.12532377
-0.07530859 -0.13606806 -0.06330873 0.12193701 0.08094052 0.08354467 0.00865184 -0.0080994135
0.20271833 0.11570231 0.011776859 -0.027515054 -0.054516096 0.06492101 0.12672308 -0.1498258
0.13715698 0.09447964 0.113404356 0.1093694 0.094356865 0.14323501 -0.121949285 -0.1332634
-0.0029813107 -0.07926983 0.10044767 -0.13114642 0.041204315 0.103410795 0.067183614 -0.06445303
-0.074594595 -0.23211627 0.060238596 0.16816747 0.069771945 -0.013530025 -0.18201178 -0.15801246
-0.007183941 0.13385956 0.06982517 -0.13774784 -0.059799794 0.07742721 -0.14299881 -0.022775212
0.0017715193 -0.17205456 0.08232851 0.05875803 -0.065766014 0.15078622 0.18232295 -0.07894179
-0.007949642 -0.17975053 -0.062453534 0.2013025 0.09113808 0.16510239 0.117766395 -0.08903454
-0.0863515 0.19731224 0.07446396 -0.1563202 -0.11073441 0.0025263515 -0.15376191 0.16986693
0.14083052 0.06710359 0.10372761 -0.059792023 0.02041604 -0.18855529 0.05893705 0.081761666
0.017201683 0.04054662 0.11479552 0.042300366 -0.052760277 -0.07020409 0.14777997 -0.052749313
0.15002774 0.11540323 0.061197743 0.10348366 0.13498874 -0.0033569136 -0.09775183 -0.09177874
0.090055026 0.09993381 -0.0043981327 -0.011719769 -0.008902075 -0.044651184 -0.12571026 0.06287103
0.04309183 0.028897626 -0.033789426 0.104814634 0.08094234 0.07262139 -0.0064349975 0.07943654
-0.14584197 0.05053159 -0.06210116 -0.044567455 -0.17237529 -0.011465054 -0.035962004 -0.13343886
-0.0883834 0.14206916 -0.032896258 -0.15117605 0.11011357 -0.14692453 -0.15937161 -0.011075628
-0.011121365 0.021470916 -0.0070512523 -0.121024996 -0.017476216 -0.091697305 0.14225988 0.0024537647
-0.13315506 -0.052963264 0.10271603 -0.113635935 0.089650266 -0.1473071 -0.15412958 -0.039628386
-0.05570963 0.011388033 -0.03267761 -0.09476285 0.11448206 -0.16756596 -0.017197577 -0.09319582
0.05248844 0.011022739 0.031316467 -0.11506743 0.008613273 -0.12537971 0.034413382 0.076214164
0.15349658 0.084187664 -0.11504794 -0.016290605 0.071993105 0.118638165 0.04261911 -0.0033051162
-0.15619871 -0.048775177 -0.002082784 -0.03571005 0.100849524 -0.15349399 0.14047049 -0.05571721
0.050492045 0.12108075 -0.1017351 0.10878514 -0.06665277 -0.02014227 0.07760378 -0.10129995
0.16319914 -0.055637497 0.10020881 -0.015259068 -0.14041024 0.029957334 -0.074058935 0.10003749
-0.092326574 0.06552742 -0.14324495 -0.028954167 -0.01973368 0.0815072 0.043226704 0.077173315
-0.15911436 0.088999845 -0.05067765 0.036438312 -0.13540798 0.04895731 -0.07928973 0.15454221

bias f4 [10]
00000000: cde8 14be b443 45bd 6fbc bb3c b936 8b3d
00000010: 9d43 e03d 3c26 a7bd 8e50 7e3d 076b e0bd
00000020: a2ae 30bc 06fd 8f3d
-0.14541931 -0.04816027 0.022917 0.06797547 0.10950396 -0.081615895 0.06208854 -0.10957914
-0.010783823 0.07030682
