src/kiki_6.pth (torch, 588714 bytes, 10 tensors)

weight f4 [32, 3, 5, 5]
0	0xbd3501b5	-0.04419108
1	0x3b9bf1e9	0.0047590625
2	0xbdcc015a	-0.09961195
3	0xbdb7bd9e	-0.089717135
4	0x3cad3908	0.021145359
5	0x3ce7aa86	0.028279554
6	0x3d5f3a96	0.05449923
7	0xbdb24592	-0.08704676
8	0x3de50e16	0.11184327
9	0xbd412df3	-0.04716296
10	0x3d1e23ce	0.038608365
11	0xbde1b2d9	-0.110204406
12	0x3d3aaa4e	0.04557257
13	0x3d9f1493	0.07767596
14	0xbcac8e3c	-0.021063916
15	0xbcd6330d	-0.02614739
16	0x3d747537	0.059682097
17	0xbdbf8f2c	-0.0935348
18	0x3c8078b5	0.015682558
19	0x3bf9b24e	0.0076201325
20	0x3ca8bab8	0.020596847
21	0xbe0dfdd6	-0.13866362
22	0xbdbe5a07	-0.09294515
23	0xbcb8bfe2	-0.022552434
24	0xbdf629e5	-0.120197095
25	0x3dac68d5	0.084184326
26	0x3dea23c5	0.11432604
27	0xbca57c94	-0.020201005
28	0x3d5e4fd3	0.054275345
29	0xbd924951	-0.0714289
30	0x3d663e4a	0.056211747
31	0x3dcfbe3d	0.10143707
32	0xbca79703	-0.02045775
33	0x3dd144bd	0.10218189
34	0xbc3679f9	-0.011137479
35	0xbdce08bf	-0.10060262
36	0x3cb8abc4	0.022542842
37	0x3d473dde	0.048642986
38	0xbda10f32	-0.078642264
39	0xbd78ed43	-0.060773145
40	0x3dc3b535	0.09556047
41	0xbdff661a	-0.12470646
42	0xbaf55575	-0.0018717485
43	0xbe00b9ca	-0.12570873
44	0x3cb16053	0.021652376
45	0xbd5eeb66	-0.054423712
46	0xbe29a31d	-0.16566129
47	0xbd8c29ac	-0.06843886
48	0xbda119f0	-0.07866275
49	0xbd81be39	-0.0633511
50	0x3e1971bc	0.14984792
51	0x3d7287ea	0.05921165
52	0x3e1f07b5	0.15530284
53	0x3ccb5b00	0.024823666
54	0x3dd69eb8	0.10479492
55	0xbd9f543f	-0.077797405
56	0x3daa1b4d	0.083059885
57	0x3d23e23c	0.040010676
58	0x3de1d3de	0.110267386
59	0xbdaae2a0	-0.083440065
60	0xbd588ffe	-0.052871697
61	0x3d988242	0.0744672
62	0x3e05eb46	0.13078031
63	0xbced68b4	-0.02898059
64	0xbd1ebe5c	-0.03875576
65	0x3dc306c7	0.09522777
66	0x3d715ae5	0.058924574
67	0x3d7b5742	0.061362512
68	0xbb4cd1e4	-0.0031253034
69	0x3c945192	0.018105302
70	0x3db4c608	0.08826834
71	0xbd8e353c	-0.069437474
72	0x3c784c7c	0.015154954
73	0x3d0ba612	0.034093924
74	0xbdeb69d0	-0.114947915
75	0x3d99de8d	0.07513151
76	0x3dd9a694	0.106274754
77	0x3cd636a7	0.026149107
78	0x3cc62fa4	0.024192639
79	0x3ce7f861	0.028316678
80	0x3dffaf0b	0.12484559
81	0x3e2e1e34	0.17003709
82	0x3dd80c17	0.10549181
83	0xbe19dfc3	-0.15026765
84	0xbe0fd8e6	-0.14047584
85	0x3df4c9bd	0.11952541
86	0x3d1d3dd0	0.038389027
87	0xbe2221b3	-0.15833168
88	0xbdbed708	-0.09318358
89	0xbe16553c	-0.14680952
90	0x3d6a88a8	0.05725923
91	0xbd037752	-0.032096215
92	0xbdb845c0	-0.08997679
93	0x3da64b2b	0.08119806
94	0x3e1618a4	0.14657837
95	0x3e3ab6a5	0.18233736
96	0x3df76480	0.12079716
97	0xbc655350	-0.013996914
98	0x3d2af962	0.041741736
99	0x3d4fd0fe	0.05073642
100	0xbcb6408d	-0.022247577
101	0xbd85b68a	-0.06528957
102	0x3ca709b2	0.020390365
103	0xbe11a266	-0.14222106
104	0xbd8645a0	-0.06556249
105	0xbd1d2c93	-0.038372587
106	0xbd8f6321	-0.07001329
107	0xbc8346b0	-0.016024917
108	0xbe343e2d	-0.17601843
109	0xbe4c3796	-0.1994308
110	0x3e0ed783	0.13949399
111	0xbda941e6	-0.08264522
112	0xbe371ebc	-0.17882818
113	0xbdf15d2b	-0.117853485
114	0xbe3d8cc1	-0.18510725
115	0xb9c44b93	-0.0003744034
116	0xbc22ac23	-0.009928736
117	0xbe0a6b24	-0.13517433
118	0x3c8beae4	0.017079778
119	0x3cb39206	0.021920215
120	0x3ba7a308	0.0051158704
121	0x3d3f2987	0.046670463
122	0x3ddd7f4a	0.10815294
123	0xbdd01e70	-0.101620555
124	0x3b934025	0.0044937306
125	0xbd3b2f3d	-0.045699347
126	0x3d42c199	0.04754791
127	0x3db26012	0.0870973
128	0xbe1928a5	-0.14956911
129	0xbe296da2	-0.16545728
130	0x3de232cd	0.11044846
131	0xbd7b0be4	-0.061290637
132	0xbb07f883	-0.002074749
133	0xbcbb6ac9	-0.022878068
134	0x3c71775e	0.014737932
135	0xba00becb	-0.0004911243
136	0xbc3b3a0c	-0.011427414
137	0xbd7ec73e	-0.06220173
138	0xbdf7df84	-0.12103179
139	0xbe43f1a3	-0.19135146
140	0x3dd3793b	0.10325857
141	0xbdd498d3	-0.103807114
142	0xbe036a3a	-0.12833491
143	0x3c665de5	0.014060472
144	0xbac8c929	-0.001531874
145	0x3d356c74	0.044292882
146	0xbc37da97	-0.0112215495
147	0xbd35e7e0	-0.044410586
148	0x3ae3f8e6	0.0017392903
149	0x3dd55cea	0.104181126
150	0x3d8e639c	0.06952593
151	0x3d36807b	0.044556122
152	0xbd91fe5c	-0.07128593
153	0x3de54a6c	0.111958355
154	0x3e0edd08	0.13951504
155	0xbd88690a	-0.066606596
156	0x3dd5a592	0.10431971
157	0x3d905620	0.07047677
158	0xbdbf679b	-0.09345933
159	0xbde10c2e	-0.10988651
160	0xbd3d513c	-0.04622005
161	0x3d367d4f	0.044553097
162	0xbda6e129	-0.08148415
163	0xbe0917d3	-0.13387994
164	0xbd46d78b	-0.0485454
165	0xbd8d27cf	-0.068923585
166	0xbd52fa6c	-0.051508352
167	0xbe154517	-0.14577137
168	0x3d853ce3	0.06505754
169	0x3cc27287	0.023736252
170	0xbd957a39	-0.07298703
171	0xbda31526	-0.07963018
172	0x3d9c896f	0.07643401
173	0x3e13dbf9	0.14439382
174	0x3d756fd0	0.059921086
175	0x3d9ff469	0.078102894
176	0xbd825117	-0.06363123
177	0x3d15a3c9	0.03653315
178	0x3b410982	0.002945513
179	0xbdd6f5fe	-0.10496138
180	0xbde365ed	-0.11103425
181	0x3dc096ae	0.0940374
182	0xbd8d0e61	-0.06887508
183	0x3da23fb9	0.079223104
184	0xbde1ef4e	-0.11031972
185	0x3cb4d46d	0.022073949
186	0xbd4bcf56	-0.049758278
187	0xbdd70a52	-0.10500015
188	0x3d452d81	0.0481391
189	0xbd88e857	-0.0668494
190	0x3bbb1d54	0.0057102833
191	0xbdb8b66c	-0.09019169
192	0xbe059f63	-0.13049082
193	0xbdd51b96	-0.10405652
194	0xbd8a51d0	-0.06753886
195	0xbdec6caa	-0.115441635
196	0x3d92f979	0.071764894
197	0x3e08e8b8	0.13370025
198	0x3d94378f	0.072371595
199	0x3dd1cf42	0.102446094
200	0xbda1ad3b	-0.07894369
201	0xbd197bf4	-0.037471727
202	0x3dc4efdf	0.09616064
203	0xbd504cc7	-0.05085447
204	0x3dd45870	0.103684306
205	0xbc114a82	-0.008867862
206	0x3d47aea2	0.048750527
207	0x3de0faf3	0.10985365
208	0x3de1ba33	0.11021843
209	0xbd1fb5b5	-0.03899165
210	0xbd323eba	-0.043516852
211	0xbdc0ab67	-0.094076924
212	0x3d871513	0.065958165
213	0x3d97ba5e	0.074085936
214	0xbdb8bc89	-0.09020335
215	0xbddf22cc	-0.10895309
216	0xbd16a848	-0.03678158
217	0xbcf37c5b	-0.029722383
218	0x3b18ac7e	0.0023296173
219	0xbd0a5d50	-0.033780396
220	0xbdba894a	-0.09108217
221	0x3d32ca3d	0.0436499
222	0x3d6cc069	0.057800684
223	0xbd56f7c3	-0.052482378
224	0x3d9c8c9f	0.07644009
225	0xbddad89a	-0.10685845
226	0x3be4a362	0.0069774846
227	0x3d4ee444	0.05051066
228	0x3c00d645	0.007863586
229	0x3cfa4d12	0.030554328
230	0x3db7b1d9	0.089694686
231	0x3c310530	0.010804459
232	0x3dc22b02	0.09480859
233	0xbd8f47b2	-0.06996097
234	0x3cdbe4f4	0.026842572
235	0xbe07f31f	-0.13276337
236	0xbe0486e6	-0.12942085
237	0xbd355c58	-0.04427752
238	0xbd99ecc1	-0.0751586
239	0x3cf067c3	0.029346352
240	0xba4e144a	-0.00078612997
241	0xbdab3220	-0.0835917
242	0x3dab397a	0.08360572
243	0x3de66446	0.112495944
244	0xbda5c1ef	-0.080936305
245	0x3dae59c8	0.08513218
246	0x3e05ecab	0.13078563
247	0x3dd17290	0.10226929
248	0x3dadf891	0.08494676
249	0x3df73a58	0.12071675
250	0xbbc2aa8c	-0.005940741
251	0xbdeb3b48	-0.114859164
252	0xbc71ec6d	-0.014765841
253	0x3d663ac2	0.05620838
254	0xbdad37f1	-0.084579356
255	0xbdb8a0b0	-0.09015024

bias f4 [32]
0	0x3db6b2f4	0.08920851
1	0x3e937914	0.28803313
2	0x3e5817e1	0.21102859
3	0xbe4bbd59	-0.19896449
4	0xbdd04fe3	-0.10171487
5	0xbe26cd82	-0.16289333
6	0xbe3eb957	-0.18625389
7	0xbe1bfe68	-0.15233767
8	0x3c67537e	0.014119027
9	0xbe13f7e8	-0.14450037
10	0xbe8e4e89	-0.27794293
11	0x3d8d0272	0.06885232
12	0xbc0d3caa	-0.0086204205
13	0x3e3b561d	0.18294568
14	0x3db10ef5	0.08645431
15	0xbe2a1608	-0.16609967
16	0x3dae0255	0.084965385
17	0xbde354eb	-0.11100181
18	0x3c518193	0.012787241
19	0xbd53fb76	-0.051753484
20	0xbdcefb37	-0.10106509
21	0x3d973d75	0.07384769
22	0x3e126738	0.14297187
23	0x3e5dbed3	0.21654825
24	0x3e127f37	0.14306341
25	0xbe2a0ea1	-0.16607143
26	0xbd9c6b51	-0.076376565
27	0xbdd4829b	-0.103764735
28	0x3b7b318d	0.0038329095
29	0x3e09427d	0.1340427
30	0xbca3eb1b	-0.020009568
31	0xbe6c9a4a	-0.23105732

weight f4 [32, 32, 5, 5]
0	0x3c9672d8	0.018365309
1	0xbc6ffae6	-0.014647221
2	0x3cafd6b7	0.021464689
3	0xbc8682a1	-0.01641971
4	0x3d06242a	0.032749332
5	0xbd0db67d	-0.034597863
6	0xbcdbabe1	-0.026815357
7	0xbd1fa15d	-0.038972247
8	0xbd606a32	-0.054788776
9	0xbd1968a7	-0.03745332
10	0xbd2f1a8b	-0.042749923
11	0xbd133942	-0.035943277
12	0xbcc9bba4	-0.024625607
13	0xbca6a4e3	-0.020342296
14	0xbd2af3c1	-0.041736368
15	0xbd006c59	-0.03135333
16	0x3cbba4b5	0.022905687
17	0x3ccb6f62	0.024833385
18	0xbb88e6c9	-0.0041779024
19	0xbcd0aef9	-0.025474058
20	0x3c901c59	0.017591642
21	0xbd26c55a	-0.040715553
22	0x3c84cd1b	0.016211083
23	0xbaceb047	-0.0015769087
24	0xbd2cf25e	-0.042223327
25	0xbc3d033d	-0.011536417
26	0x3cf9a23f	0.030472873
27	0x3d20ea1c	0.039285764
28	0xbcf9dc28	-0.030500486
29	0x3958df59	0.00020682569
30	0x3c99ed12	0.018789802
31	0x3a8ebe28	0.0010890411
32	0x3cd54f59	0.026038812
33	0x3d2d729a	0.04234562
34	0xbc50bd6c	-0.012740474
35	0x3c8894a1	0.016672434
36	0x38821428	6.2026375e-05
37	0xbb95f6c9	-0.004576538
38	0xbd2e3c49	-0.04253796
39	0xbd148a40	-0.036264658
40	0xbcc45063	-0.023964113
41	0x3c59104d	0.013248515
42	0xbcf647cd	-0.030063534
43	0xbc8993d7	-0.016794128
44	0x3c9eb5cb	0.019373795
45	0x3c19624b	0.009361814
46	0xbd0a7cde	-0.03381049
47	0x3d0ba845	0.03409602
48	0xbc5669e3	-0.013086769
49	0xbc846615	-0.016161958
50	0x3c336123	0.010948452
51	0xbc01f149	-0.007931062
52	0x3cc06b0a	0.02348854
53	0x3bcad65e	0.0061901053
54	0xbc6908aa	-0.014223257
55	0xbcec6e54	-0.028861202
56	0xbcf2ae33	-0.02962408
57	0xbb9d5858	-0.004801791
58	0xbc5bb18d	-0.013409031
59	0x3c57a63f	0.013162195
60	0x3b989b83	0.0046572103
61	0xbbc1944f	-0.0059075723
62	0xbc4aee29	-0.012385883
63	0xbc523800	-0.012830734
64	0xbd0debac	-0.034648582
65	0xbcb49d73	-0.022047734
66	0x3bf30837	0.007416751
67	0x3be6b0a7	0.0070401016
68	0x3c7ca1ca	0.015419433
69	0xbb0a2dbb	-0.0021084386
70	0x3cca5461	0.024698438
71	0x3ca8f9f0	0.020626992
72	0xbc2a7d90	-0.010405913
73	0x3cecc146	0.028900754
74	0xbd007e19	-0.031370256
75	0xbc37df0e	-0.011222614
76	0x3c4d21e0	0.012520283
77	0xbb0fdf88	-0.0021953303
78	0xbc255807	-0.010091788
79	0xbc5e5adb	-0.013571466
80	0x3cc30911	0.023808034
81	0x3b2f589a	0.0026755692
82	0x3bbc8f3c	0.0057543796
83	0x3d219db5	0.03945704
84	0x3cd2fbdd	0.025754863
85	0x3abb9685	0.0014311826
86	0x3c03dc09	0.008048066
87	0xbbc8187f	-0.006106436
88	0x3ce32f26	0.027732443
89	0x3d1f0842	0.038826235
90	0x3c186457	0.009301267
91	0x3c8b82b7	0.017030103
92	0x3b51f8d9	0.0032039194
93	0xbc2724b2	-0.01020162
94	0x3bbcfee7	0.0057676914
95	0xbcd9881f	-0.026554165
96	0x3d07254a	0.032994546
97	0x3bdfbd46	0.006827983
98	0xbd033da2	-0.0320412
99	0xbc7a700a	-0.015285501
100	0xbc08aae7	-0.008341528
101	0xbc6219c8	-0.013800092
102	0x3d2c0702	0.04199887
103	0xbb95d1d8	-0.0045721345
104	0x3d3be597	0.04587325
105	0x3c93d00e	0.018043544
106	0x399015d9	0.00027482098
107	0xbc9bd85a	-0.019024063
108	0xbd28c816	-0.04120644
109	0x3b69cff9	0.003567694
110	0xbc09a706	-0.008401638
111	0xbd3483fd	-0.044071186
112	0xbbe732c0	-0.0070556104
113	0xbd3e0b2c	-0.046397373
114	0xbc8dce4e	-0.017310288
115	0xbbbceebd	-0.0057657645
116	0x3cdc3a92	0.026883397
117	0x3c180fbb	0.009281094
118	0x3c92e737	0.017932517
119	0x3d171c4c	0.03689222
120	0x3c82b6e6	0.015956353
121	0xbcb4a5c7	-0.022051705
122	0x3ca05068	0.01956959
123	0x3c88c0d2	0.016693506
124	0xbbe1212b	-0.006870409
125	0x3ccd0d51	0.025030764
126	0x3c7fa0bf	0.01560229
127	0x3c98cce0	0.01865238
128	0x3c9952f3	0.018716311
129	0xbc3fd530	-0.011708543
130	0xbc33551b	-0.010945584
131	0x3d38cd4c	0.04511766
132	0x3d744e19	0.059644792
133	0x3d30741d	0.043079484
134	0x3c70a07c	0.0146867
135	0x3d3011b8	0.042985648
136	0xbacaa60f	-0.0015460866
137	0x3d51fd22	0.051266797
138	0x3d60765d	0.05480038
139	0x3cf28179	0.029602753
140	0x3cf6a144	0.030106194
141	0xbb78fc6f	-0.003799226
142	0x3d2e6884	0.042580143
143	0x3cd05f36	0.025436025
144	0xbca3bd2b	-0.019987663
145	0x3cf9f06f	0.030510155
146	0x3d0966de	0.033545367
147	0x3d16dcc2	0.036831625
148	0x3c68acbb	0.014201338
149	0xbc62e142	-0.013847651
150	0xbba45131	-0.0050145616
151	0x3c0b8e35	0.0085177915
152	0x3c654a09	0.013994702
153	0xbcc90a37	-0.024541004
154	0x3cedc1e3	0.029023116
155	0x3c6390e3	0.013889524
156	0xbc68c2bc	-0.014206585
157	0x3adc3260	0.0016799681
158	0x3cfbefe1	0.030754032
159	0x3b9933ad	0.0046753497
160	0x3a49cf50	0.00076984335
161	0xbc8dfb00	-0.0173316
162	0x3c390758	0.011293255
163	0x3cd2eb65	0.02574701
164	0x3d12f025	0.03587355
165	0x3d206f67	0.03916874
166	0x3d531366	0.05153217
167	0x3c940fe8	0.018073991
168	0x3d53646b	0.051609438
169	0x3c5d4436	0.013505032
170	0xbc720158	-0.014770828
171	0x3d1d96c3	0.038473856
172	0x3d4ab706	0.04949095
173	0x3bf2e91d	0.007413043
174	0x3cb19b5d	0.021680528
175	0x3b4ac08f	0.0030937528
176	0xbcb79daa	-0.022414047
177	0xbc66f9b7	-0.014097623
178	0x3a131258	0.00056103384
179	0xbcc1042f	-0.023561565
180	0xbc0cb75e	-0.00858864
181	0xbcfe6264	-0.031052776
182	0xbc320abc	-0.010866817
183	0x3a8227b4	0.0009930045
184	0xbb0b863e	-0.0021289731
185	0x3ce71f90	0.028213292
186	0x3bac1645	0.005251678
187	0x3d43f109	0.04783729
188	0xbc00699a	-0.007837677
189	0xbc423157	-0.011852584
190	0x3d6ed70f	0.058310565
191	0x3d452007	0.048126247
192	0x3d854889	0.065079756
193	0x3c978a41	0.018498542
194	0x3cc7f45e	0.024408516
195	0xbbc6b374	-0.006063873
196	0xbc6f2389	-0.014595875
197	0x3bf3fb81	0.007445753
198	0x3d340c28	0.043956906
199	0x3c35de1e	0.01110032
200	0x3c8f9b14	0.017530002
201	0x3cc33fd5	0.023834148
202	0xbc622927	-0.013803757
203	0xbcc6560c	-0.024210952
204	0x3caec2c5	0.021333108
205	0xbcc640c5	-0.024200806
206	0x3c6fc2c8	0.014633842
207	0xb8eaab13	-0.000111898546
208	0xbb2991e4	-0.002587431
209	0xbcd36abf	-0.025807736
210	0x3ce1a6e4	0.0275454
211	0x3c01ac30	0.007914588
212	0x3c46f213	0.012142676
213	0xbba21a3d	-0.0049469755
214	0xbc1f0cc0	-0.00970763
215	0xbc86c0a9	-0.01644929
216	0x3c271b1e	0.010199336
217	0x3cbf58dc	0.023357801
218	0xba8a1794	-0.0010535591
219	0x3ac342ec	0.0014897264
220	0x3c7e2d37	0.01551371
221	0xbc24f8db	-0.010069097
222	0x3c3c7274	0.011501897
223	0xbcf08068	-0.029358104
224	0x3c5248cf	0.012834742
225	0x3ba73005	0.00510216
226	0x3cc0522a	0.023476679
227	0xbb4bb0e7	-0.0031080784
228	0xb85ade50	-5.2182295e-05
229	0xbb55125a	-0.003251216
230	0x3c861553	0.01636759
231	0xb92e8e7f	-0.00016647017
232	0xbcc7dd9f	-0.02439767
233	0xbc2328e0	-0.009958476
234	0xbd4bdc1d	-0.049770463
235	0xbc778c08	-0.01510907
236	0x3be2d25c	0.0069220494
237	0xbb928e8a	-0.0044725584
238	0xbca24eed	-0.019813025
239	0xbccb473c	-0.02481424
240	0x3cc5690a	0.024097938
241	0xbcbb02c3	-0.022828465
242	0x3cc4bbda	0.024015356
243	0xba98f253	-0.0011668898
244	0x3cbd78a7	0.02312882
245	0xbc8a1b55	-0.016858736
246	0xbc8ee287	-0.017442001
247	0xbcfb6aff	-0.030690668
248	0xba8c0ad2	-0.0010684377
249	0xbcd229a0	-0.025654614
250	0x3b8b1110	0.0042439774
251	0xbcc96302	-0.024583343
252	0x3ca9a5d7	0.020708961
253	0xbcca70d8	-0.024712011
254	0xbc0a443d	-0.008439121
255	0xbbabd4d3	-0.0052438765

bias f4 [32]
0	0xbb93b083	-0.004507126
1	0xbd501cf0	-0.050808847
2	0x3c98b321	0.018640103
3	0x3bca5f62	0.0061759213
4	0xbdf502b2	-0.11963405
5	0xbd960b1a	-0.07326336
6	0x3c466e11	0.012111203
7	0x3c388c1d	0.011263874
8	0xbc6c20ff	-0.014412164
9	0xbcdb1e57	-0.026747866
10	0x3cbf8f69	0.023383813
11	0xbcd6f59b	-0.02624016
12	0xbdca4a00	-0.09877396
13	0x3c6577e6	0.014005637
14	0xbdc33746	-0.09532027
15	0xbd9ddc09	-0.07707984
16	0xb95e2144	-0.00021183962
17	0xbd728569	-0.05920926
18	0xbc3866d3	-0.011254984
19	0xbd4b50e4	-0.04963769
20	0xbd8cacde	-0.06868909
21	0x3c8ea0ff	0.017410753
22	0xbd23b641	-0.039968733
23	0x3c149e26	0.009070909
24	0xbd4edd08	-0.05050376
25	0xbb2d35ca	-0.0026429766
26	0xbb7874ec	-0.0037911488
27	0xbd49af45	-0.049239416
28	0x3cc118e2	0.023571435
29	0xbcc26cec	-0.023733579
30	0xbc979ecf	-0.018508343
31	0xbdcc77d1	-0.09983791

weight f4 [64, 32, 5, 5]
0	0x3cb3fec6	0.021972071
1	0x3c913c5d	0.017728979
2	0x3c36a755	0.0111482935
3	0xbc522640	-0.012826502
4	0xbcbc005c	-0.02294939
5	0xbc44ec62	-0.012019249
6	0xbc7d7493	-0.015469688
7	0xbc105500	-0.008809328
8	0x3c140a2f	0.009035631
9	0x3c06d93e	0.0082305055
10	0x3d1adf1f	0.03781044
11	0xbb76553b	-0.0037587422
12	0xbd13ba4b	-0.036066335
13	0x3bba792b	0.005690714
14	0xbaf8ca43	-0.0018981177
15	0xbc2dfdf8	-0.010619633
16	0x3c970626	0.018435549
17	0x3c365d11	0.011130587
18	0x3d1349b0	0.035958946
19	0xbb6bc5c9	-0.0035976043
20	0xbcc44199	-0.02395706
21	0xbd095c9e	-0.033535592
22	0xbc1f188c	-0.009710442
23	0x3b969905	0.004595878
24	0x3c599541	0.013280214
25	0xbb4829fe	-0.0030542607
26	0xbd043344	-0.032275453
27	0x3cdab616	0.026698153
28	0x3cc730c2	0.024315242
29	0xbcde0a1e	-0.027104434
30	0x3ae5a89e	0.0017521565
31	0xbc817f15	-0.015807668
32	0xbca293b4	-0.019845821
33	0xbb5386b5	-0.0032276337
34	0xbcc29ec5	-0.023757348
35	0xbc17c23c	-0.009262618
36	0x3c82d9cc	0.015972994
37	0xbcd70251	-0.026246222
38	0x3c695b12	0.014242904
39	0x3c01cb61	0.0079220245
40	0xba9ade5d	-0.0011815537
41	0x3d05c7ee	0.03266137
42	0xbbcfa16a	-0.0063363807
43	0x3bb93b08	0.005652789
44	0x3c339f39	0.010963255
45	0xbd0f292d	-0.034951378
46	0x3ce49d4e	0.02790704
47	0x3c2d8f88	0.010593303
48	0xbc74d06b	-0.014942269
49	0x3c8f929a	0.01752596
50	0xbc989210	-0.018624336
51	0xbd6ae947	-0.057351377
52	0xbd1d027e	-0.038332455
53	0xbc015b26	-0.007895267
54	0xbc86537d	-0.016397232
55	0x3d82af30	0.063810706
56	0x3c572f16	0.013133785
57	0xbd3e4a70	-0.046457708
58	0xbbfc1ef9	-0.007694122
59	0xbce1777f	-0.0275228
60	0x3d0bae75	0.034101922
61	0x3d7b6df4	0.061384156
62	0x3ccd5628	0.025065497
63	0xbd0f0183	-0.03491355
64	0xbd0df3aa	-0.034656204
65	0xbbec1fd9	-0.007205945
66	0x3d8326bf	0.064038746
67	0x3d2334c8	0.039845258
68	0x3c4e8ded	0.01260708
69	0x3ce773aa	0.028253395
70	0xbc7f15ee	-0.015569193
71	0xba697784	-0.0008906054
72	0x3c39a5a7	0.0113309985
73	0x3c1925ba	0.009347374
74	0x3d12825d	0.035768855
75	0x3c84c6f9	0.016208159
76	0xbb9d2a96	-0.0047963364
77	0x3ccc4f0c	0.024940036
78	0x3c9d170f	0.019176034
79	0xbcc5f7c5	-0.024165997
80	0x3c9e70bf	0.01934087
81	0xbc1afa3f	-0.009459077
82	0x3c8e7aa9	0.017392473
83	0x3b9c28ed	0.004765621
84	0xbcdc07c3	-0.02685917
85	0xbca178d0	-0.019710928
86	0x3cccc57f	0.024996517
87	0x3cc4f347	0.024041785
88	0x3c7adc3a	0.015311295
89	0xbb222192	-0.0024739248
90	0xbd19a943	-0.037514936
91	0xbcef85ea	-0.02923866
92	0xba622327	-0.0008626454
93	0xbca45174	-0.020058371
94	0xbc8d68fd	-0.017261976
95	0x3cd66224	0.026169844
96	0xbc822a43	-0.015889293
97	0xbcf86f3b	-0.030326476
98	0xbc307c3c	-0.010771807
99	0x3c95f71f	0.018306313
100	0x3c4ae0d2	0.012382703
101	0x3c427521	0.011868746
102	0xbc713ac7	-0.014723486
103	0x3b06a7af	0.0020546725
104	0x3c6e0fcd	0.014530134
105	0xbbabd2ee	-0.0052436506
106	0xbcac647d	-0.02104401
107	0x3c7dbf49	0.0154875005
108	0xbcfe7dee	-0.031065907
109	0x3c4570bd	0.012050805
110	0xbca72c94	-0.020406999
111	0xbcfe809d	-0.031067187
112	0x3a48b298	0.0007656007
113	0xbcaad923	-0.020855492
114	0x3c8f51ae	0.017495003
115	0x3c30d704	0.010793451
116	0xbc8da005	-0.017288217
117	0x3bbd7eb2	0.0057829255
118	0x3d084655	0.0332702
119	0x3d321890	0.043480456
120	0x38b88b4f	8.799752e-05
121	0xbb673052	-0.0035276604
122	0xbd2a9580	-0.04164648
123	0xbd3c2de0	-0.045942187
124	0xbd5e1ffa	-0.054229714
125	0xbc8ce69c	-0.017199807
126	0x3cedbec5	0.02902163
127	0xbd323611	-0.043508593
128	0xbc3e082f	-0.011598631
129	0xbd010e1d	-0.0315076
130	0x3cf87e78	0.030333742
131	0xbcf5f4c1	-0.030023934
132	0xbd04417f	-0.032289024
133	0x3c37a33d	0.011208353
134	0xbcbeb654	-0.0232803
135	0xbc3f76eb	-0.011686067
136	0xbd301554	-0.04298909
137	0xbc006b1c	-0.007838037
138	0xbbebc3f3	-0.00719499
139	0x3bb8da21	0.0056412374
140	0x3c4b0aca	0.012392709
141	0xbcf2ba6f	-0.029629914
142	0xbc8a8a3d	-0.01691162
143	0xbbb591ae	-0.005541048
144	0xbc7c1e94	-0.01538815
145	0xbcc5af01	-0.0241313
146	0xbccfb24f	-0.025353579
147	0xbcec47f5	-0.028842906
148	0xbd04a946	-0.032387994
149	0xbcaccf3a	-0.021094907
150	0xbc5af9e1	-0.01336524
151	0xbc93e260	-0.01805228
152	0x3cd0f447	0.025507106
153	0x3d06afac	0.032882378
154	0x3c8cbd9d	0.017180258
155	0xbc2e1c43	-0.010626855
156	0x3d0439ca	0.032281674
157	0xbccafa40	-0.024777532
158	0xbcd51ebc	-0.026015632
159	0xbccaae25	-0.024741242
160	0x3cda90f0	0.02668044
161	0xbd0083d1	-0.03137571
162	0x3caf9638	0.021433935
163	0x3ce5e945	0.028065333
164	0xbc625722	-0.013814719
165	0xbb1c60bd	-0.0023861371
166	0x38653388	5.4645847e-05
167	0xbc03c9db	-0.008043732
168	0xbb9de422	-0.0048184553
169	0x3c96d531	0.018412204
170	0xbcbbc735	-0.022922138
171	0x3ba45e26	0.005016106
172	0xbce75609	-0.028239267
173	0xbc876417	-0.016527219
174	0x395de6dd	0.00021162206
175	0x3d111aa6	0.035425805
176	0x3c7330a2	0.014843138
177	0x3c6c5df5	0.014426698
178	0xbc639032	-0.013889359
179	0xbca297c8	-0.019847766
180	0x3c8c130c	0.017098926
181	0xbacda576	-0.001568957
182	0xbd0d5ce9	-0.034512434
183	0xbd297066	-0.041366957
184	0x3cc868d5	0.02446405
185	0xbc947e06	-0.018126499
186	0x3c911a60	0.017712772
187	0x3b644fa4	0.0034837509
188	0xbbe7a7f1	-0.0070695807
189	0xbccae1e1	-0.02476591
190	0xbc6f6112	-0.014610546
191	0x3d10c14c	0.035340592
192	0x3ba34149	0.004982148
193	0xbbccc3c5	-0.0062489235
194	0x3c1b664e	0.009484841
195	0x3d1ad7bc	0.037803397
196	0xbcc78371	-0.024354668
197	0x3cff3c4b	0.03115668
198	0xbc9f7f98	-0.019470021
199	0xbcb04092	-0.021515165
200	0x3d0e1b2d	0.034693886
201	0x3c66c47d	0.014084932
202	0x3cd61170	0.026131362
203	0x3d1a48b2	0.037666984
204	0xbbef14be	-0.007296174
205	0x3c889981	0.016674759
206	0xbc71da04	-0.014761452
207	0x3c193c4e	0.009352757
208	0x3cb2b2db	0.0218138
209	0xbc6de53c	-0.014519986
210	0x3bd7ccc3	0.006585689
211	0xbce1e3e2	-0.027574483
212	0xbc76614e	-0.015037848
213	0x3ba85e0e	0.0051381653
214	0xbbacb7c2	-0.005270929
215	0x3c83bc89	0.016081112
216	0xbbc4a114	-0.0060006473
217	0xbc49dec4	-0.012321178
218	0x3b3f3f99	0.0029182194
219	0xbd04d4c5	-0.032429475
220	0x3ce68792	0.028140817
221	0x3b5d2f0d	0.0033749968
222	0xbce0939b	-0.027414134
223	0xbb56d7ed	-0.003278251
224	0xbaa8332b	-0.0012832632
225	0x3b1ac5bf	0.00236164
226	0x3afc3321	0.0019241312
227	0xbbfe82d3	-0.0077670603
228	0x3d0539a6	0.03252568
229	0xbc8d8e15	-0.017279664
230	0xbbe81ec3	-0.007083745
231	0x3d41e4df	0.04733741
232	0xbb9dbe8f	-0.004813976
233	0xbc383564	-0.011243198
234	0xbce6943b	-0.028146854
235	0xbd1d6b2b	-0.03843228
236	0x3c0c2f16	0.008556148
237	0xbd0862be	-0.033297293
238	0xbc8bee27	-0.017081333
239	0xbd0ebda3	-0.03484882
240	0xbd0ff0fd	-0.035141934
241	0x3cad22d6	0.021134775
242	0x3ccb8670	0.024844378
243	0x3d1edc96	0.038784586
244	0x3c865460	0.016397655
245	0x3c854e4a	0.016272683
246	0xbd0db187	-0.03459313
247	0x3c8190f3	0.015816187
248	0x3ca12a93	0.019673621
249	0x3cb45b83	0.022016292
250	0xbb953717	-0.0045536864
251	0x3d0d15dd	0.03444468
252	0xbc331012	-0.010929124
253	0x3cb1f6ef	0.021724192
254	0xbd020ac6	-0.031748556
255	0xbcbc57f4	-0.022991158

bias f4 [64]
0	0x3cdb7464	0.026788898
1	0xbcd791af	-0.026314585
2	0x3cf89e2a	0.030348856
3	0xbc8e67b4	-0.017383434
4	0xbd36d708	-0.044638664
5	0xbd315655	-0.043295223
6	0x3b9485bf	0.0045325453
7	0x3c078e67	0.008273697
8	0xbd1787ea	-0.036994852
9	0x3c4737e0	0.012159318
10	0xbcf22b4b	-0.02956166
11	0xbbfcd817	-0.0077161896
12	0xbd0d03ca	-0.03442744
13	0xbac8bf08	-0.0015315721
14	0xbd0b50c4	-0.03401257
15	0x3bf8ac25	0.0075888806
16	0xbc0491ec	-0.008091431
17	0xbcc6911e	-0.02423912
18	0xbd947be8	-0.07250196
19	0x3b0eef07	0.0021809952
20	0xbd57672d	-0.05258863
21	0xbd3c8537	-0.04602548
22	0xbca904fa	-0.020632256
23	0xbc61e574	-0.013787616
24	0x3d02d815	0.031944353
25	0xbd4ea49a	-0.050449945
26	0xbd98b559	-0.07456464
27	0xbd181dc6	-0.03713777
28	0x3cc4a304	0.024003513
29	0x3bc9e41e	0.006161227
30	0x3d0b4969	0.034005556
31	0x3c5cebab	0.013483922
32	0xbb7eea27	-0.003889689
33	0xbc9ffd9d	-0.019530112
34	0xbd220fad	-0.03956573
35	0xbd635324	-0.05549921
36	0xbcb3d7eb	-0.021953544
37	0x3cdc481c	0.026889853
38	0x3b97af61	0.004629061
39	0x3c07c39d	0.008286384
40	0xbd643758	-0.055716842
41	0xbd217894	-0.039421633
42	0x3c3a4ba4	0.011370573
43	0xbd11af69	-0.035567675
44	0xbb968902	-0.0045939693
45	0xbbdb85ca	-0.0066992985
46	0x3d04039f	0.032230016
47	0xbd157ccb	-0.036495965
48	0xbccff521	-0.025385441
49	0xbcd2edd8	-0.025748178
50	0xbd6110b1	-0.05494756
51	0xbced1d9f	-0.028944789
52	0x3d14d163	0.0363325
53	0x39ebd712	0.00044982933
54	0xbd4c89dd	-0.049936164
55	0xbd63de21	-0.05563176
56	0xbce95172	-0.028481219
57	0xbd1097de	-0.03530108
58	0xbb0948b1	-0.0020947868
59	0xbd2f370d	-0.04277711
60	0xbd3a4724	-0.045478
61	0xba027605	-0.0004976693
62	0xb91429e5	-0.00014129987
63	0xbd59de95	-0.053190786

weight f4 [64, 1024]
0	0x3c998a42	0.018742684
1	0x3caf3162	0.021385852
2	0x3d2256ec	0.039633676
3	0x3c99e9f1	0.01878831
4	0x3c88f96f	0.016720502
5	0xbd39cc55	-0.04536088
6	0xbbd1e3d5	-0.0064053335
7	0x3c376055	0.011192401
8	0xbc771f5c	-0.01508316
9	0x3c84583d	0.016155357
10	0x3c6da699	0.014505052
11	0x3cee5ba2	0.029096428
12	0xbcb14499	-0.021639155
13	0xbaa1d995	-0.001234817
14	0x3cc1a2c5	0.023637185
15	0x3c859c30	0.016309828
16	0x3c71e3cb	0.014763783
17	0xbcc79f9b	-0.024368098
18	0x3ab59470	0.0013853442
19	0xbc427059	-0.011867606
20	0xbc76dc5f	-0.015067189
21	0x3cea124b	0.028573176
22	0x3c0e5d80	0.008689284
23	0xbc2b44d4	-0.010453422
24	0xbbe16243	-0.006878169
25	0xbcf76d82	-0.030203585
26	0xbbad9f27	-0.0052985135
27	0xbc6bb212	-0.014385717
28	0x3cb4e50b	0.022081872
29	0x3c74110f	0.014896645
30	0x3cc4c16c	0.024018012
31	0x3c6c4034	0.014419604
32	0xbc489a16	-0.012243768
33	0x3cb64fd4	0.022254862
34	0x3c8032f8	0.015649304
35	0xbcee81b8	-0.02911459
36	0x3d1e4e64	0.038648978
37	0xbbf24aee	-0.007394186
38	0x3d0203f9	0.03174207
39	0x3cbe7ef3	0.023253893
40	0x3d41e236	0.047334872
41	0x3d278b0f	0.0409041
42	0x3d239723	0.039939057
43	0xbbb214a7	-0.005434591
44	0xbb0cc4b2	-0.0021479544
45	0x3ca71ce9	0.020399528
46	0x3c0372fb	0.008023019
47	0x3ca65fe0	0.020309389
48	0xbcb18d65	-0.021673867
49	0xbd0f6d53	-0.03501637
50	0x3cb4a95e	0.022053417
51	0xbb577b2a	-0.0032879808
52	0x3c1ec331	0.009690092
53	0x3cb6f7fb	0.022335043
54	0x3ce6c098	0.028168008
55	0xbb382f95	-0.0028104533
56	0x3cf51aa9	0.02991994
57	0xbc72b3b2	-0.0148133505
58	0xbb028857	-0.001991769
59	0xbc3d1ef7	-0.011543027
60	0x3bc735bc	0.0060794037
61	0x3caa7c3e	0.020811196
62	0x3b99786d	0.0046835453
63	0xb9897f0e	-0.0002622534
64	0x3b4bdf04	0.003110827
65	0xbc5668cd	-0.01308651
66	0xbca0f8b1	-0.019649835
67	0xbd053f7e	-0.032531254
68	0xbd04c5d2	-0.03241522
69	0x3caa6408	0.020799652
70	0xbc996508	-0.018724933
71	0xbb7b1d86	-0.0038317158
72	0x3c728879	0.014803045
73	0xbd03a503	-0.03213979
74	0xbcc5934c	-0.024118088
75	0x3b293c0d	0.0025823147
76	0xbc1ac3b1	-0.0094460705
77	0xbcdebc4a	-0.027189393
78	0x3c5bdccd	0.013419342
79	0xbca0e693	-0.019641196
80	0x3cbb8d17	0.022894425
81	0xbc4861eb	-0.012230377
82	0x3c14dc40	0.009085715
83	0xbc281a10	-0.01026012
84	0xbd0ea406	-0.034824394
85	0xbc3e46de	-0.011613576
86	0x3c895566	0.016764354
87	0xbd025c69	-0.03182641
88	0xbd017065	-0.03160133
89	0x3d03f348	0.032214433
90	0xbd178613	-0.036993098
91	0x3a282165	0.00064136676
92	0x3cc8690b	0.02446415
93	0x3ce98d2a	0.028509695
94	0xbcef6138	-0.029221162
95	0x3c661987	0.014044172
96	0xbce74073	-0.028228974
97	0xbc9a221b	-0.01881509
98	0x3b003f07	0.0019568817
99	0x3c965fb1	0.018356176
100	0x3c2dfe6e	0.010619743
101	0xbccf5f02	-0.025313858
102	0xbb26013b	-0.0025330323
103	0xbd022e96	-0.03178271
104	0xbc92a619	-0.017901467
105	0x3c20d0db	0.00981542
106	0xbd17c23c	-0.03705047
107	0x3cedef1c	0.02904468
108	0x3ba7e262	0.0051234225
109	0xbc3bd72d	-0.011464876
110	0xbcc8e323	-0.02452237
111	0x3cf09e4b	0.029372355
112	0xbb271b0c	-0.00254983
113	0x3ca2b6f1	0.019862624
114	0x3d119aae	0.035547905
115	0x3cff3e08	0.031157508
116	0xbc218444	-0.009858195
117	0x3ac797e2	0.001522776
118	0x3c5a57c6	0.013326591
119	0x3c7d054f	0.01544316
120	0x3bc7ee8f	0.0061014364
121	0x3cb4d8ad	0.022075975
122	0x3c875b2b	0.016522964
123	0xbb028380	-0.0019914806
124	0x3c1dcf73	0.009631979
125	0xbd10ad92	-0.03532178
126	0xbc8086ee	-0.01568934
127	0x3cdde8c3	0.027088528
128	0x3c40cd89	0.011767753
129	0x3b75e9c9	0.003752338
130	0xbc6d4a9f	-0.014483123
131	0x3ca81b35	0.020520786
132	0xbced3abf	-0.028958676
133	0xbd3e0add	-0.04639708
134	0xbc871ff9	-0.016494738
135	0x3b2f1320	0.002671428
136	0x3cf42683	0.02980352
137	0x3c19edc2	0.009395065
138	0x3d0b37f5	0.03398891
139	0x3c27f239	0.0102506215
140	0x3bbc8f61	0.005754397
141	0xbc323407	-0.010876662
142	0xba2a5f22	-0.0006499161
143	0x3d01b9cb	0.031671327
144	0x3c8862f4	0.016648747
145	0xbc066203	-0.008202079
146	0xbc61f64f	-0.013791635
147	0xbc9cc647	-0.019137515
148	0x3cdf45b3	0.027254915
149	0x3d1d9c14	0.038478926
150	0x3ca9b4a6	0.020716023
151	0x3d3cb63c	0.04607223
152	0x3ca667b2	0.020313118
153	0xbd1c64b5	-0.03818198
154	0xbbc07535	-0.005873347
155	0xba8a9798	-0.0010573743
156	0x3bd751a0	0.0065710098
157	0x3bbc4ef8	0.0057467185
158	0xbc0c9670	-0.008580789
159	0xbd11d8d8	-0.03560719
160	0xbca7d38d	-0.020486617
161	0x3ca8da3c	0.020611875
162	0x3c28276b	0.010263304
163	0xbc215dad	-0.009848994
164	0x3d0ef1ed	0.034898687
165	0x3b08eb55	0.0020892222
166	0xbcfd67e2	-0.030933324
167	0x3d093b7d	0.033503998
168	0x3ba4e804	0.005032541
169	0x3cae42db	0.021272114
170	0x3c52686f	0.012842282
171	0xbb45da85	-0.0030190062
172	0x3d31cbc4	0.043407217
173	0x3d183bc6	0.03716638
174	0xbc6456d9	-0.013936722
175	0xba93757f	-0.0011250227
176	0x3c961771	0.018321725
177	0x3afefaf5	0.0019453453
178	0x3bede753	0.007260242
179	0xbc11bc9f	-0.008895068
180	0x3c3fdda6	0.01171056
181	0xbd2c1a57	-0.042017307
182	0xba8f83f8	-0.0010949364
183	0xbd0e4a54	-0.034738854
184	0xbcb49763	-0.022044843
185	0xbca922be	-0.02064645
186	0x3c9330e1	0.017967643
187	0xbca2a581	-0.019854309
188	0xbc8b192c	-0.016979776
189	0xbc4e3232	-0.01258521
190	0x3c4a3a84	0.012343053
191	0x3c8fd782	0.017558817
192	0x3c1ddfef	0.009635909
193	0x3d153c33	0.036434364
194	0xbca37fe6	-0.019958448
195	0xbcac6820	-0.021045744
196	0xbcf24131	-0.029572101
197	0xbcb04da3	-0.021521395
198	0x3c2468b0	0.010034725
199	0xbc914ce5	-0.017736861
200	0xbb899923	-0.0041991635
201	0x3d49758a	0.04918436
202	0x3a270b80	0.0006372258
203	0x3b1f7eaf	0.0024336984
204	0x3cca6038	0.024704084
205	0x3c4172b8	0.011807136
206	0xbcc61f75	-0.024184922
207	0xbc014d04	-0.007891897
208	0x3cb25665	0.021769712
209	0xbceb8f9d	-0.028755004
210	0x3a5e987f	0.00084913516
211	0x3ca85167	0.020546628
212	0x3b934e59	0.0044954238
213	0xbb6b63a8	-0.0035917554
214	0x3c30dcc6	0.010794824
215	0xbc3bf73e	-0.011472521
216	0xbbc5e611	-0.006039389
217	0xba623c7a	-0.00086302275
218	0xbccd487b	-0.025058975
219	0xbc31a7c0	-0.010843217
220	0x3d19c4ac	0.037541077
221	0x3cc512e8	0.024056867
222	0x3d114ae2	0.035471804
223	0x3c5c2b57	0.013438067
224	0x3cb801ba	0.02246176
225	0xbc59d7e1	-0.013296098
226	0x3c19c417	0.00938513
227	0x3ca07254	0.019585766
228	0xbc3c1cfe	-0.011481522
229	0xbc7a68e3	-0.015283796
230	0x3d1c34e4	0.038136378
231	0x3c873b29	0.016507702
232	0x3c1db882	0.00962651
233	0xbccbb242	-0.024865273
234	0xbd13c874	-0.03607984
235	0x3c351678	0.01105272
236	0xbd068120	-0.032837987
237	0xbd27d678	-0.040976018
238	0xbc49ba1e	-0.01231244
239	0xbcc21767	-0.0236928
240	0x3cd31213	0.025765454
241	0xbc46a475	-0.012124171
242	0xbb331cbf	-0.0027330366
243	0x3d1dc1e8	0.038515
244	0xbcd84df5	-0.02640436
245	0xbcaa8311	-0.02081445
246	0x3cecf136	0.028923612
247	0xba572ce0	-0.0008208286
248	0xbc6f824d	-0.0146184685
249	0x3d4de9f7	0.050271954
250	0x3cdd6fed	0.02703091
251	0xbcb4373d	-0.021998996
252	0xbb6a8712	-0.0035786075
253	0x3adf005f	0.001701366
254	0x3cf732c1	0.030175569
255	0x3c767061	0.015041442

bias f4 [64]
0	0x3ce1bcfe	0.027555939
1	0x3c389bb4	0.011267591
2	0x3c391089	0.011295446
3	0xbb79e2a2	-0.0038129468
4	0xbb96a72c	-0.004597565
5	0xbc83d280	-0.016091585
6	0x3c3d1d9b	0.011542703
7	0x3c6b6fc2	0.014369907
8	0x3c303488	0.010754712
9	0xbd10932c	-0.035296604
10	0xbc991d19	-0.018690633
11	0xbd08568d	-0.033285666
12	0x3c303c68	0.0107565895
13	0x3cc2e9b4	0.023793079
14	0x3a978eff	0.0011563002
15	0x3c37bde9	0.011214712
16	0xbd12aa30	-0.035806835
17	0x3cb91f80	0.022598028
18	0xbcc0f277	-0.023553116
19	0xbcc24936	-0.02371655
20	0x3cfe4545	0.03103889
21	0x3c82b319	0.015954541
22	0x3cbb86b1	0.022891374
23	0x3cd5f3bc	0.026117198
24	0xbd777f0b	-0.060423892
25	0xbc220108	-0.009887941
26	0x3c521e89	0.012824663
27	0x3ceb20c9	0.028702157
28	0xbc7edafe	-0.0155551415
29	0xbd48bf9d	-0.04901086
30	0x3ca4db43	0.020124083
31	0x3c21e052	0.009880142
32	0xbc0fecbf	-0.008784472
33	0xbcfe2096	-0.031021398
34	0x3ce9d894	0.028545655
35	0x3c74e273	0.014946568
36	0xbc95791f	-0.018246232
37	0xbb8a0a5d	-0.004212661
38	0x3c920d04	0.017828472
39	0x3c84a635	0.016192535
40	0x3bc540d0	0.006019689
41	0xbcb9f08b	-0.022697708
42	0x3bb256f3	0.005442494
43	0xbd72f811	-0.059318606
44	0xbd0cb537	-0.034352507
45	0xbbecb93e	-0.007224231
46	0x3bc61c5e	0.006045862
47	0xbb6f8b60	-0.003655158
48	0xbce5b497	-0.028040214
49	0xbd396aa4	-0.045267716
50	0x3c42cb80	0.0118893385
51	0xbc924fe3	-0.017860359
52	0x3bd82839	0.006596592
53	0xbcb9e248	-0.022690907
54	0x3c9f7c8c	0.019468568
55	0xbcb32a5b	-0.021870783
56	0x3c550c94	0.013003487
57	0xbd11ee3e	-0.035627596
58	0xbc0d22b4	-0.008614231
59	0xbcd83f9a	-0.026397515
60	0xbc20f120	-0.009823114
61	0xbcd65984	-0.026165731
62	0x3b8c6021	0.0042839204
63	0x3b091953	0.0020919635

weight f4 [10, 64]
0	0xbe148e01	-0.14507295
1	0xbc898a57	-0.016789598
2	0xbb696f7e	-0.0035619433
3	0x3e49e8df	0.1971774
4	0xbc8e9151	-0.017403277
5	0xbdf58c41	-0.11989642
6	0xbddbab69	-0.10726053
7	0xbdea8cc5	-0.11452631
8	0x3dbabaa5	0.09117631
9	0x3da730b1	0.08163584
10	0xbdf1a692	-0.11799349
11	0x3e16b37b	0.14716904
12	0xbda691d9	-0.08133287
13	0xbcbc6803	-0.022998815
14	0xbe07742e	-0.13227913
15	0x3d0c497b	0.034249764
16	0x3d3dafd2	0.046310253
17	0xbd42c3ba	-0.04754994
18	0x3e6ae194	0.22937614
19	0x3cc42be7	0.023946716
20	0xbe378af4	-0.179241
21	0x3df17a2a	0.11790879
22	0xbe2fb8a1	-0.17160274
23	0x3d8fa05b	0.07013007
24	0x3d627ade	0.055292957
25	0x3d6a8a4b	0.057260793
26	0x3e05333b	0.13007824
27	0xbe035a5a	-0.12827435
28	0xbbadd154	-0.005304495
29	0x3d4e6ffb	0.05039976
30	0xbdc0a219	-0.09405918
31	0xbe1bdfd2	-0.152221
32	0xbe488333	-0.19581299
33	0x3ca2f510	0.019892246
34	0x3bed4a80	0.007241547
35	0xbd2d6363	-0.04233111
36	0x3e04dc23	0.129746
37	0x3deb854a	0.11500032
38	0xbe00efcb	-0.12591474
39	0xbe0c1c27	-0.13682614
40	0xbe3c5b40	-0.18394184
41	0x3d8aa93e	0.06770562
42	0xbe06cfdc	-0.1316523
43	0x3de7c2c0	0.113164425
44	0x3dd1f7cb	0.10252341
45	0xbddd7850	-0.108139634
46	0xbdd4fabb	-0.103993855
47	0xbdf8b66f	-0.121441714
48	0xbdcaaec8	-0.09896618
49	0xbe1bfe15	-0.15233643
50	0xbdb13f31	-0.08654631
51	0x3de86678	0.11347669
52	0x3da919d1	0.08256877
53	0x3dc7e2de	0.09760068
54	0x3ca9e223	0.020737713
55	0xba3141d2	-0.0006761822
56	0x3e505c7d	0.20347781
57	0x3e1473c5	0.14497288
58	0x3cb78cab	0.022405943
59	0xbd951b85	-0.072806396
60	0xbd95c438	-0.073128164
61	0x3d775f1e	0.060393445
62	0x3e0cedf4	0.13762647
63	0xbe3c485b	-0.18386976
64	0x3e25901f	0.16168259
65	0x3dee4c9e	0.11635707
66	0x3dd7376e	0.10508619
67	0x3de43f75	0.11144916
68	0x3de5c16a	0.112185314
69	0x3e3b5dbd	0.18297477
70	0xbe09c32f	-0.13453363
71	0xbe15a04b	-0.14611928
72	0xbac5f6d2	-0.0015103465
73	0xbdbc3d6a	-0.09191401
74	0x3e01b96a	0.12668386
75	0xbe216a49	-0.15763201
76	0x3d14ddc2	0.036344297
77	0x3de9e845	0.11421255
78	0x3d9fecac	0.078088135
79	0xbdb34a64	-0.08754423
80	0xbdc2ad5e	-0.095057234
81	0xbe92bc9b	-0.2865952
82	0x3d7b36e0	0.06133163
83	0x3e409f57	0.18810783
84	0x3db4d904	0.08830455
85	0xbcb70cfb	-0.022345057
86	0xbe446535	-0.19179232
87	0xbe41e373	-0.18934421
88	0xbb914d66	-0.0044342754
89	0x3e298f92	0.16558674
90	0x3db5f90e	0.08885394
91	0xbe0ad0c0	-0.13556194
92	0xbdad534e	-0.08463155
93	0x3dac5bb5	0.08415929
94	0xbe1eb8f4	-0.15500242
95	0xbcb55a8f	-0.022137908
96	0x3d01206d	0.031525064
97	0xbe47d57e	-0.19515035
98	0x3ddffd27	0.10936957
99	0x3d8afeca	0.067868784
100	0xbd8d8830	-0.06910741
101	0x3e23768c	0.15963191
102	0x3e5674c4	0.2094298
103	0xbd823e5b	-0.063595496
104	0xbba827a1	-0.0051316773
105	0xbe5413db	-0.207107
106	0xbd9d99e3	-0.07695367
107	0x3e7a29ab	0.24429958
108	0x3db538db	0.08848735
109	0x3e5c1983	0.21494107
110	0x3e1a735e	0.15083072
111	0xbdc48790	-0.09596169
112	0xbdaf3470	-0.085549235
113	0x3e69a268	0.2281586
114	0x3de967b4	0.11396733
115	0xbe493cf1	-0.19652154
116	0xbe086031	-0.13317944
117	0x3c50559e	0.012715725
118	0xbe35656f	-0.17714475
119	0x3e453f89	0.19262518
120	0x3e25368c	0.16134089
121	0x3d83535f	0.06412386
122	0x3df24424	0.11829403
123	0xbd75319c	-0.059861764
124	0x3bab255e	0.0052229604
125	0xbe50fcce	-0.20408937
126	0x3da579a3	0.08079841
127	0x3dd43399	0.10361404
128	0x3d0034a8	0.031300217
129	0x3cfd4e13	0.030921018
130	0x3de9bb5a	0.114126876
131	0x3d6518b7	0.055931773
132	0xbd78f92e	-0.06078451
133	0xbdbbb94d	-0.09166203
134	0x3e2f34f5	0.17110045
135	0xbd57c69f	-0.052679654
136	0x3e13410a	0.14380279
137	0x3e08222f	0.1329429
138	0x3d670988	0.056405574
139	0x3e01f68a	0.12691703
140	0x3e1013ea	0.14070097
141	0xbc809bbb	-0.015699258
142	0xbdcaf26a	-0.09909518
143	0xbdd914da	-0.1059968
144	0x3ddf1e25	0.108944215
145	0x3df24087	0.11828714
146	0xbc1a436c	-0.009415489
147	0xbcdd0faf	-0.026985018
148	0xbc71ea6f	-0.014765366
149	0xbd2cebd0	-0.042217076
150	0xbe070b34	-0.13187867
151	0x3da30841	0.07960559
152	0x3d095f32	0.03353805
153	0x3d120d88	0.035657436
154	0xbd2c39db	-0.042047363
155	0x3df25df8	0.11834329
156	0x3dce6513	0.10077872
157	0x3db5d79d	0.088790156
158	0xbb37d0cb	-0.0028048034
159	0x3dab5ebc	0.083676785
160	0xbe2ce15a	-0.1688284
161	0x3d799186	0.060929798
162	0xbd86f105	-0.065889396
163	0xbd80f9fe	-0.06297682
164	0xbe41174f	-0.18856548
165	0xbcd41ff8	-0.02589415
166	0xbd197e4e	-0.03747397
167	0xbe0e0731	-0.13869931
168	0xbdc49efb	-0.096006356
169	0x3e28cdcc	0.16484755
170	0xbd02b06b	-0.031906527
171	0xbe2f4d53	-0.1711934
172	0x3de42394	0.111395985
173	0xbe25eab2	-0.1620281
174	0xbe30f329	-0.17280258
175	0xbbc2c0ba	-0.005943385
176	0xba73a1dc	-0.0009293833
177	0x3cd57f56	0.026061695
178	0xbc63cf77	-0.013904444
179	0xbe072ed0	-0.13201451
180	0xbcd4c9e3	-0.025975173
181	0xbdab29ba	-0.08357568
182	0x3e272b57	0.16325127
183	0x3b875ae4	0.004130708
184	0xbe1cdc19	-0.15318336
185	0xbd88332f	-0.066503875
186	0x3dd408f4	0.1035327
187	0xbe14cf24	-0.14532143
188	0x3dd1b068	0.10238725
189	0xbe213155	-0.15741475
190	0xbe2f20c6	-0.17102346
191	0xbd2afda1	-0.041745786
192	0xbd73755c	-0.059438094
193	0x3bc202e8	0.0059207566
194	0xbd2a7d94	-0.041623667
195	0xbdb917bf	-0.09037732
196	0x3de83683	0.11338522
197	0xbe350e69	-0.17681278
198	0xbcd96681	-0.026538135
199	0xbdc8373f	-0.09776162
200	0x3d5f9c45	0.05459239
201	0xbb6e4141	-0.0036354812
202	0x3cdab0c0	0.02669561
203	0xbdddf37a	-0.10837455
204	0x3c123f3d	0.00892621
205	0xbe1273d9	-0.14302005
206	0x3d0efa40	0.034906626
207	0x3d960f94	0.0732719
208	0x3e1f012b	0.1552779
209	0x3dcd1ecd	0.100156404
210	0xbde8a9b0	-0.1136049
211	0xbc8fcccd	-0.017553711
212	0x3d955823	0.07292201
213	0x3df0ee12	0.11764158
214	0x3d35554e	0.044270806
215	0xb9caf1cc	-0.00038708595
216	0xbe265224	-0.16242272
217	0xbd93875f	-0.07203554
218	0xbc7152b5	-0.014729192
219	0xbd22955c	-0.03969322
220	0x3de0772b	0.109602295
221	0xbe1b057f	-0.15138815
222	0x3e11f0e0	0.14252043
223	0xbd7abd2d	-0.06121557
224	0x3d2c40a8	0.04205385
225	0x3e057249	0.13031878
226	0xbdedde0b	-0.11614617
227	0x3de64249	0.11243112
228	0xbd53cbe9	-0.051708136
229	0xbd12ef69	-0.03587285
230	0x3da3b6e2	0.079938665
231	0xbde37092	-0.111054555
232	0x3e2478cc	0.16061705
233	0xbd3da48c	-0.046299502
234	0x3de7aa83	0.113118194
235	0xbc586cfe	-0.0132095795
236	0xbe08bd27	-0.13353406
237	0x3cf09b3f	0.029370902
238	0xbd890d66	-0.06692009
239	0x3dd6457d	0.104624726
240	0xbdd79bf5	-0.10527793
241	0x3d379e40	0.044828653
242	0xbe1d8f69	-0.15386738
243	0xbc4fc8dd	-0.012682167
244	0xbb96d4be	-0.0046029976
245	0x3db8b004	0.09017947
246	0x3d4bb0c9	0.049729142
247	0x3d9b63a7	0.075873666
248	0xbe1b99df	-0.15195416
249	0x3dcfe93a	0.10151906
250	0xbd546afb	-0.051859837
251	0x3d31f560	0.0434469
252	0xbe0daaf0	-0.13834739
253	0x3d63487a	0.05548904
254	0xbda0fcc3	-0.078607105
255	0x3e1bc554	0.15211993

bias f4 [10]
0	0xbe28e47d	-0.16493411
1	0xbd7e7b9b	-0.062129598
2	0xbacca84b	-0.001561412
3	0x3d913ddc	0.07091877
4	0x3e1421b3	0.1446598
5	0xbdafcbb5	-0.08583776
6	0x3d8cf97c	0.06883523
7	0xbddbbfad	-0.10729919
8	0x3c98d9dd	0.018658573
9	0x3d650ffc	0.055923447
