src/kiki_1.pth (torch, 588714 bytes, 10 tensors)

weight f4 [32, 3, 5, 5]
-0.052336555 -0.0062593836 -0.10277483 -0.09337749 0.022542713 0.03266208 0.05005195 -0.08686495
0.10749532 -0.03639642 0.049741074 -0.10818968 0.04464052 0.0818448 -0.012140166 -0.028058622
0.06455055 -0.082031116 0.030930648 0.014242304 0.03512255 -0.109677844 -0.06038705 0.0072925664
-0.09421276 0.0616028 0.08844673 -0.03613209 0.041853145 -0.074283764 0.048434887 0.08319809
-0.032266136 0.0908835 -0.0033912717 -0.09961001 0.013435996 0.03907026 -0.07732984 -0.052568216
0.08157619 -0.13085821 0.0012269327 -0.11411562 0.026178187 -0.05234655 -0.14833055 -0.04573521
-0.05556707 -0.04184366 0.12901792 0.034585536 0.13721128 0.010795844 0.10249492 -0.08512833
0.06480113 0.024992773 0.09675802 -0.07639088 -0.055419274 0.060473315 0.11405159 -0.033912454
-0.03409259 0.07629834 0.044818047 0.054154627 -0.00071413757 0.017397128 0.08361555 -0.061832517
0.025961442 0.046152852 -0.10071106 0.011878775 0.047620047 -0.014384582 0.016350014 0.022597704
0.0557767 0.12175809 0.09726954 -0.11593654 -0.11258895 0.06392157 0.025350228 -0.11722946
-0.0369823 -0.11132414 0.013668085 -0.041807067 -0.07025227 0.090784974 0.12847555 0.1438085
0.10366408 -0.0147729255 0.036425985 0.027363395 -0.060663283 -0.08913472 0.020913647 -0.10961772
-0.03568864 -0.0883531 -0.08888513 0.00899883 -0.11226056 -0.14699729 0.0949624 -0.07585763
-0.115199365 -0.04316532 -0.13492115 -0.03964587 -0.008545873 -0.10138444 0.03835013 0.013173187
-0.033109415 0.035043858 0.11688331 -0.098425426 -0.011479592 -0.090690486 0.01589074 0.07813138
-0.13008177 -0.14961736 0.05092872 -0.09154782 0.008356903 0.02207954 0.04819315 -0.053623643
-0.014556002 -0.009847037 -0.05987066 -0.15446867 0.055172022 -0.111022115 -0.1019541 0.027197609
-0.018415155 0.0005941386 -0.02787123 -0.03856863 0.0019202414 0.08539288 0.053442698 0.025882963
-0.08626325 0.09497444 0.11712026 -0.06515952 0.08895021 0.06260651 -0.09051173 -0.09907391
-0.040116247 0.057741042 -0.055505164 -0.111449234 -0.03226152 -0.04534515 -0.01737406 -0.10972439
0.08270072 0.019159758 -0.05379813 -0.07806513 0.060163308 0.122111976 0.027451158 0.06847616
-0.073384315 0.027396817 -0.0071562594 -0.118908845 -0.11363699 0.07692772 -0.08198829 0.075834684
-0.10327852 0.013176431 -0.049368687 -0.09365716 0.054726172 -0.06436527 0.0078089614 -0.07678894
-0.11502971 -0.10615035 -0.09082498 -0.12230832 0.047215495 0.09265007 0.026671149 0.047072545
-0.08021177 -0.04100352 0.09148922 -0.057372056 0.09237287 -0.008024136 0.033184066 0.094958864
0.10327273 -0.03570675 -0.050117694 -0.094929814 0.07296052 0.0762694 -0.09070463 -0.104119904
-0.023129696 -0.014150762 0.001593014 -0.05447763 -0.09147129 0.02560879 0.02540881 -0.089066334
0.029563297 -0.08651748 0.014171801 0.046646107 0.0068898564 0.02925492 0.10434425 0.014368175
0.08972725 -0.07023898 0.02822888 -0.10525825 -0.110336244 -0.032583233 -0.06533825 0.033380464
0.010080324 -0.08531538 0.07509455 0.103547804 -0.0919682 0.06917381 0.10258546 0.064693525
0.051027022 0.09564794 0.016519254 -0.1032646 -0.014703727 0.055214763 -0.08669781 -0.07393416
00000000: db5e 56bd 841b cdbb 9c7b d2bd b33c bfbd
00000010: 7fab b83c acc8 053d 4603 4d3d 40e6 b1bd
00000020: 8226 dc3d 6a14 15bd 4cbd 4b3d 8d92 ddbd
00000030: fad8 363d 3f9e a73d 8ce7 46bc 32db e5bc
00000040: 1433 843d eeff a7bd 4562 fd3c 8d58 693c
00000050: aadc 0f3d c79e e0bd 6958 77bd 7bf6 ee3b
00000060: 9ff2 c0bd 3853 7c3d 8f23 b53d 3eff 13bd
00000070: 346e 2b3d 1622 98bd a963 463d c363 aa3d
00000080: 7f29 04bd 2121 ba3d 1940 5ebb 5500 ccbd
00000090: a722 5c3c 2308 203d 1b5f 9ebd c551 57bd
000000a0: 6b11 a73d b2ff 05be 08d1 a03a 73b5 e9bd
000000b0: a373 d63c 5669 56bd f7e3 17be d854 3bbd
000000c0: 4c9a 63bd 4264 2bbd 461d 043e 90a9 0d3d
000000d0: 1d81 0c3e 0de1 303c dbe8 d13d c357 aebd
000000e0: 74b6 843d a5bd cc3c 1229 c63d d272 9cbd
000000f0: 52ff 62bd deb2 773d e193 e93d c9e7 0abd
00000100: aca4 0bbd 4e42 9c3d 2193 373d 3ed1 5d3d
00000110: f634 3bba 6c84 8e3c a13e ab3d 1844 7dbd
00000120: 17ad d43c c60a 3d3d 9a41 cebd 329f 423c
00000130: 3d0d 433d 4fad 6bbc 77f0 853c d21e b93c
00000140: 1c76 643d 4e5c f93d 4135 c73d 2370 edbd
00000150: 0995 e6bd 50e9 823d 48ab cf3c 0016 f0bd
00000160: c17a 17bd e9fd e3bd 1bf0 5f3c e33d 2bbd
00000170: 6ce0 8fbd 79ed b93d 188f 033e 8942 133e
00000180: d54d d43d 240a 72bc 6a33 153d 3329 e03c
00000190: 107a 78bd 448c b6bd 1953 ab3c 417f e0bd
000001a0: 402e 12bd 78f2 b4bd 6809 b6bd d46f 133c
000001b0: dde8 e5bd 7586 16be a67b c23d 3f5b 9bbd
000001c0: a5ed ebbd 1ece 30bd c528 0abe b563 22bd
000001d0: fd03 0cbc a5a2 cfbd 0715 1d3d 5ad4 573c
000001e0: bd9d 07bd 268a 0f3d 8460 ef3d 4593 c9bd
000001f0: e614 3cbc efbb b9bd 4c2d 823c 5803 a03d
00000200: 2834 05be 4b35 19be a29a 503d 6c7d bbbd
00000210: 64eb 083c 27e0 b43c 2e66 453d 77a4 5bbd
00000220: 4c7c 6ebc 7755 21bc f03a 75bd 092d 1ebe
00000230: 0ffc 613d 905f e3bd 50cd d0bd 85cd de3c
00000240: 61db 96bc f7bf 1b3a 3552 e4bc 24fa 1dbd
00000250: 9cb0 fb3a 76e2 ae3d bbe6 5a3d 8208 d43c
00000260: c9aa b0bd f681 c23d bfdc ef3d 5b72 85bd
00000270: 872b b63d d837 803d 375e b9bd 43e7 cabd
00000280: ef50 24bd df81 6c3d 6259 63bd 7f3f e4bd
00000290: a824 04bd d6bb 39bd 0b54 8ebc 2eb7 e0bd
000002a0: ff5e a93d edf4 9c3c 6e5b 5cbd 9ce0 9fbd
000002b0: cd6d 763d d815 fa3d 40e1 e03c 3b3d 8c3d
000002c0: 844a 96bd 4a6f e03c 0e7f eabb 7b86 f3bd
000002d0: 83ba e8bd 488c 9d3d 7ae9 a7bd 374f 9b3d
000002e0: b083 d3bd f5e1 573c d236 4abd 53cf bfbd
000002f0: 8d28 603d f0d1 83bd 51e2 ff3b 8543 9dbd
00000300: b294 ebbd 5b65 d9bd 7202 babd c97c fabd
00000310: 0965 413d 52bf bd3d 747d da3c 24cf 403d
00000320: 1246 a4bd 4ff3 27bd b35e bb3d f6fe 6abd
00000330: fd2d bd3d aa77 03bc 04ec 073d cb79 c23d
00000340: a780 d33d 3e41 12bd 3648 4dbd 906a c2bd
00000350: 536c 953d 2233 9c3d 59c3 b9bd d13c d5bd
00000360: 7d7a bdbc 99d8 67bc aecc d03a ef23 5fbd
00000370: 4d55 bbbd 86c9 d13c 2326 d03c 6968 b6bd
00000380: ba2e f23c 1430 b1bd d730 683c fd0f 3f3d
00000390: 4ec4 e13b 04a8 ef3c 70b2 d53d 7e68 6b3c
000003a0: ecc2 b73d 74d9 8fbd 4140 e73c a391 d7bd
000003b0: f8f7 e1bd ff75 05bd 0fd0 85bd f4b9 083d
000003c0: f127 253c d4b9 aebd 2ccb 993d df10 d43d
000003d0: d359 bcbd 00ab 8d3d 5318 d23d 0a7e 843d
000003e0: b601 513d 11e3 c33d 6353 873c 647c d3bd
000003f0: e7e7 70bc e028 623d 9f8e b1bd cb6a 97bd

bias f4 [32]
0.064763166 0.17304398 0.14154425 -0.10797089 -0.11927869 -0.045752537 -0.10959722 -0.08701108
0.022480419 -0.089960575 -0.16886613 0.030713327 0.01825136 0.10656374 0.043177653 -0.09980299
0.097789966 -0.056575865 0.025254648 0.016906433 -0.12541443 0.059484836 0.05713212 0.18046553
0.13299584 -0.10185203 -0.0877873 -0.07870998 0.011828411 0.059568703 -0.010732573 -0.09482072
00000000: 8da2 843d 7132 313e faf0 103e d81f ddbd
00000010: 6348 f4bd 0367 3bbd 8274 e0bd dd32 b2bd
00000020: db28 b83c 403d b8bd 3eeb 2cbe 849a fb3c
00000030: e083 953c 173e da3d 0ddb 303d 8365 ccbd
00000040: 1b46 c83d 18bc 67bd d6e2 ce3c 5c7f 8a3c
00000050: a46c 00be 5fa6 733d 5f03 6a3d f5cb 383e
00000060: 1030 083e cc97 d0bd d4c9 b3bd b332 a1bd
00000070: f4cb 413c 50fe 733d add7 2fbc 5e31 c2bd

weight f4 [32, 32, 5, 5]
0.017581912 -0.01884547 0.0136955725 -0.021670356 0.030352738 -0.028270539 -0.0148102585 -0.02456777
-0.03840132 -0.022588251 -0.037328113 -0.029618349 -0.017362412 -0.010911502 -0.033839777 -0.020645812
0.029739946 0.02781864 -0.0028143337 -0.02506314 0.03003552 -0.028152082 0.030105596 0.014130596
-0.029948954 -0.015616409 0.03123759 0.04073451 -0.029998172 -0.0078038475 0.006817939 -0.010985345
0.01304064 0.025724638 -0.027029326 0.019140013 0.009550054 0.0056920387 -0.032449823 -0.029722843
-0.022388617 0.025524678 -0.01763317 -0.0038131643 0.027509023 0.010331245 -0.02949382 0.03355348
-0.013018708 -0.013246427 0.004846976 -0.017241545 0.012731761 -0.0015783925 -0.023515087 -0.032092143
-0.034111112 -0.009343638 -0.017699491 0.012659532 0.0074066967 -0.0016017939 -0.00049187616 0.001236303
-0.021420214 -0.01901609 0.0059530893 0.007252243 0.013953777 -0.0031093725 0.03020734 0.022914087
-0.010119928 0.031243792 -0.027899517 -0.018395482 0.0037310186 -0.010362485 -0.016054943 -0.019415312
0.016315954 -0.008536777 -0.00899168 0.024855869 0.0122764185 -0.0058085825 0.00042086426 -0.013873696
0.021479186 0.033475615 0.0053226324 0.011723361 -0.0016968647 -0.014490511 0.004016275 -0.025128946
0.032768533 0.0062965713 -0.03424445 -0.018023482 -0.017476287 -0.028139854 0.024805477 -0.022715293
0.031260494 0.021720404 0.015211389 0.0016041335 -0.020111034 0.02439954 -0.007879555 -0.03795482
0.001828108 -0.036643613 -0.007957393 -0.0058070896 0.023553034 0.0006660269 0.0028703455 0.023850864
0.011957692 -0.027776865 0.01570116 0.015902447 -0.005172504 0.032764472 0.028252777 0.025792204
0.029951164 -0.003048057 -0.020364769 0.0344536 0.044314586 0.030658308 0.0056016045 0.034198444
-0.019952511 0.023369707 0.029066946 0.008260176 0.023760438 -0.011771203 0.033459775 0.019574855
-0.026994271 0.02953448 0.031849332 0.030653339 0.011694978 -0.013836344 -0.008096522 0.004402122
0.0060848827 -0.028128352 0.027799463 0.010004297 -0.01879269 -0.00641146 0.026332427 0.0015170831
-0.00939742 -0.028326688 -0.0029121346 0.015119215 0.026461916 0.027909087 0.036473706 -0.0019266339
0.034584012 -4.5472475e-06 -0.020295449 0.03321845 0.039106645 -0.0013468767 0.012587617 0.008167728
-0.017290967 -0.007983812 0.0081066685 -0.018958388 -0.010315988 -0.029009258 -0.0072495146 0.0073481314
0.004785765 0.011339799 -0.011516548 0.030875003 -0.022347497 -0.02297008 0.039499886 0.025743157
0.039713718 -0.0061169364 0.0020812277 -0.0179702 -0.02760391 -0.005614685 0.031058107 -0.00021009253
0.018155294 0.02743892 -0.015944112 -0.023264807 0.02017428 -0.02750768 0.013547562 -0.006538215
-0.0071429187 -0.028660763 0.02615027 0.0084705055 0.008069433 -0.007333742 -0.012282043 -0.017900048
0.009999591 0.01785824 -0.0036982424 -0.0021402878 0.014231448 -0.010231288 0.004432947 -0.031769834
0.012258667 -0.003987784 0.009310123 -0.01799376 -0.012950057 -0.008859033 0.025617097 0.016370196
-0.0071814833 0.006834557 -0.033979136 -0.0148762725 0.01408424 0.007870651 -0.002797895 -0.011997151
0.02115933 -0.03059224 0.007479007 -0.019391973 0.010703891 -0.010293275 -0.009651405 -0.022016114
0.009410071 -0.01477434 0.00035880448 -0.025070509 0.016073244 -0.027027786 -0.009178175 -0.017884858
00000000: f107 903c d161 9abc 6563 603c 0886 b1bc
00000010: 4ea6 f83c 9e97 e7bc baa6 72bc 5942 c9bc
00000020: b44a 1dbd ff0a b9bc 5de5 18bd 2ea2 f2bc
00000030: 9e3b 8ebc 28c6 32bc 949b 0abd 6821 a9bc
00000040: 30a1 f33c ebe3 e33c af70 38bb 3751 cdbc
00000050: 0d0d f63c 329f e6bc 03a0 f63c 0484 673c
00000060: 8257 f5bc f7db 7fbc f9e5 ff3c 3bd9 263d
00000070: babe f5bc 6bb7 ffbb 0569 df3b e0fb 33bc
00000080: 69a8 553c 7abc d23c 9b6c ddbc 84cb 9c3c
00000090: d477 1c3c 4884 ba3b 1bea 04bd 527d f3bc
000000a0: 5568 b7bc 2119 d13c 7073 90bc 48e6 79bb
000000b0: 9a5a e13c 6244 293c 069d f1bc 606f 093d
000000c0: 6b4c 55bc 8b07 59bc 62d3 9e3b 243e 8dbc
000000d0: e098 503c 10e2 ceba b6a2 c0bc 0d73 03bd
000000e0: 18b8 0bbd 0f16 19bc 86fe 90bc ed69 4f3c
000000f0: e0b3 f23b 49f3 d1ba 40f1 00ba 720b a23a
00000100: 7279 afbc a2c7 9bbc 2212 c33b 39a4 ed3b
00000110: 629e 643c 9dc6 4bbb 6275 f73c 53b6 bb3c
00000120: 0ece 25bc fbf2 ff3c 878d e4bc 1fb2 96bc
00000130: 1b84 743b 6ac7 29bc a885 83bc dc0c 9fbc
00000140: 09a9 853c d7dd 0bbc d751 13bc 899e cb3c
00000150: 0823 493c ec55 bebb 72a7 dc39 804e 63bc
00000160: 1ef5 af3c ba1d 093d 7a69 ae3b 5713 403c
00000170: 5569 deba 9c69 6dbc f59a 833b 38db cdbc
00000180: 4c38 063d 7853 ce3b e943 0cbd fba5 93bc
00000190: 6e2a 8fbc 8d85 e6bc db34 cb3c 6c15 babc
000001a0: 010b 003d fdee b13c 3139 793c ca41 d23a
000001b0: e5bf a4bc 8be1 c73c 4019 01bc 8376 1bbd
000001c0: 209d ef3a 9d17 16bd ba5f 02bc 6649 bebb
000001d0: 4bf2 c03c 4f98 2e3a 681c 3c3b e362 c33c
000001e0: 32ea 433c 4f8c e3bc b89f 803c d945 823c
000001f0: 1c7e a9bb 0a34 063d 5e72 e73c 2c4a d33c
00000200: 255c f53c e9c1 47bb 04d4 a6bc 381f 0d3d
00000210: 3683 353d 2227 fb3c aa8d b73b ab13 0c3d
00000220: 7373 a3bc d471 bf3c ce1d ee3c b055 073c
00000230: 40a5 c23c 01dc 40bc 1e0d 093d 725b a03c
00000240: 1723 ddbc 4bf2 f13c 7274 023d b61c fb3c
00000250: 4b9c 3f3c d5b1 62bc 46a7 04bc ad3f 903b
00000260: b263 c73b 6e6d e6bc b3bb e33c 10e9 233c
00000270: 21f3 99bc 3a17 d2bb 1ab7 d73c ddd8 c63a
00000280: a3f7 19bc 5f0d e8bc 83d9 3ebb 95b6 773c
00000290: a9c6 d83c 99a1 e43c 7465 153d 1b87 fcba
000002a0: f7a7 0d3d 8f94 98b6 a442 a6bc 1210 083d
000002b0: 4a2e 203d af89 b0ba 4b3c 4e3c efd1 053c
000002c0: c9a5 8dbc 89ce 02bc d5d1 043c 9f4e 9bbc
000002d0: 6404 29bc d3a4 edbc 568d edbb 98c8 f03b
000002e0: e8d1 9c3b 90ca 393c e7af 3cbc 93ed fc3c
000002f0: 1912 b7bc c02b bcbc a2ca 213d 50e3 d23c
00000300: daaa 223d 9570 c8bb 3565 083b 3e36 93bc
00000310: 9821 e2bc 64fb b7bb 926d fe3c 494c 5cb9
00000320: 69ba 943c 96c7 e03c 3a9d 82bc d695 bebc
00000330: 8844 a53c c957 e1bc 98f6 5d3c 863e d6bb
00000340: 250f eabb fac9 eabc 1739 d63c e0c7 0a3c
00000350: a835 043c e34f f0bb 9f3a 49bc 1fa3 92bc
00000360: 53d5 233c 724b 923c 365e 72bb 1244 0cbb
00000370: 052b 693c 22a1 27bc 4142 913b 1621 02bd
00000380: 93d8 483c f5ab 82bb 7c89 183c a667 93bc
00000390: 7a2c 54bc 7a25 11bc f2da d13c ca1a 863c
000003a0: a652 ebbb 6bf4 df3b b52d 0bbd 9cbb 73bc
000003b0: 96c1 663c e7f3 003c e45c 37bb b38f 44bc
000003c0: 5556 ad3c 949c fabc 7512 f53b eadb 9ebc
000003d0: 5f5f 2f3c 20a5 28bc ed20 1ebc 235b b4bc
000003e0: b32c 1a3c 1310 72bc ec1d bc39 ab60 cdbc
000003f0: 09ac 833c 6069 ddbc 0e60 16bc 4483 92bc

bias f4 [32]
0.029792603 -0.04281353 0.0015651233 0.036055207 -0.059664074 -0.037706442 0.018065 0.028112004
0.021704843 -0.0024084507 0.030399753 0.023568884 -0.06046291 0.021219192 -0.03047873 -0.042835474
0.023779383 -0.005453777 0.002315058 0.0058033243 -0.029283592 0.022529624 -0.03701461 0.028044596
-0.030089624 -0.0148316305 -0.0103925625 -0.017490301 0.022620218 0.01417664 -0.0034073351 -0.04051377
00000000: 9e0f f43c 3d5d 2fbd d324 cd3a a0ae 133d
00000010: 5162 74bd 1272 1abd 0dfd 933c 254b e63c
00000020: 5bce b13c 19d7 1dbb e708 f93c 8813 c13c
00000030: f5a7 77bd dfd3 ad3c 88ae f9bc 4074 2fbd
00000040: fbcc c23c 99b5 b2bb 3ab8 173b d029 be3b
00000050: 25e4 efbc 0c90 b83c a29c 17bd c8bd e53c
00000060: 847e f6bc 5e00 73bc 9145 2abc d247 8fbc
00000070: 094e b93c 2345 683c 994d 5fbb c4f1 25bd

weight f4 [64, 32, 5, 5]
0.017089738 0.014720078 0.013155807 -0.0115682725 -0.02488652 -0.015667079 -0.014134655 -0.005490479
0.007267023 0.006114942 0.024756784 -0.0036433027 -0.025646815 0.015761076 0.009223196 -0.013946196
0.022443123 0.014254918 0.032490503 -0.010940244 -0.02240408 -0.031421937 -0.012717369 -0.002899854
0.00737715 -0.0040968694 -0.03138371 0.026860261 0.027661437 -0.023703316 -0.0044135447 -0.018738111
-0.016886424 0.0018587599 -0.021232426 -0.0140845105 0.008368121 -0.023361757 0.024268623 0.013555381
-0.0020792931 0.029821683 -0.005283583 0.005427724 0.0031850487 -0.035739116 0.028749745 0.018793426
-0.010532501 0.016754009 -0.022278048 -0.040842902 -0.025359936 -0.006787294 -0.016768755 0.01925928
-0.004852455 -0.043313876 0.004560812 -0.019610904 0.0106400885 0.04035036 0.016740762 -0.015560509
-0.013418205 -0.011875174 0.04573431 0.022899391 0.004592017 0.027277835 -0.011699622 -0.0020281035
0.013403301 0.007877319 0.020497737 0.0198693 -0.01253335 0.02829663 0.017868817 -0.021982966
0.031827133 -0.013121097 0.020229062 -0.0021764308 -0.025187088 -0.009416103 0.025714854 0.02897793
0.004107139 -0.007679578 -0.036009397 -0.03005328 0.0030871197 -0.026989514 -0.024032373 0.028583787
-0.012246192 -0.027697543 -0.01341977 0.02234822 -6.4471664e-05 -0.0008587605 -0.02589425 0.0013678566
0.020589452 0.0027982339 -0.02213569 0.010181296 -0.034025732 0.015380129 -0.0029072051 -0.026353363
-0.0028869174 -0.028370244 0.011928591 0.017787268 -0.015784124 0.0046676127 0.025972815 0.030937437
0.009276012 0.0038998565 -0.033829685 -0.030615484 -0.040074866 -0.013506922 0.03649152 -0.03137127
-0.0068851877 -0.03277448 0.035486665 -0.018051105 -0.017679619 0.015794957 -0.020059051 -0.017422061
-0.035487838 0.00075312046 -0.006471127 0.008661736 0.012253584 -0.023188839 -0.021093175 -0.012484133
-0.016251527 -0.022129113 -0.023524174 -0.03316209 -0.034525435 -0.019519983 -0.02283102 -0.02210473
0.024641747 0.029712077 0.01441323 -0.021172628 0.023312287 -0.03349178 -0.03205483 -0.028133715
0.029462922 -0.03055911 0.012415607 0.01889711 -0.013716112 0.0032654686 0.0073447763 -0.010128928
-0.0124051515 0.014029222 -0.02027216 0.007888502 -0.031224586 -0.019914692 -0.001187178 0.03010015
0.02783602 0.01987558 -0.011368327 -0.020992849 -0.013139779 -0.006998977 -0.0360189 -0.034557413
0.026696838 -0.027282406 0.011661422 0.0021723432 0.017928444 -0.006702808 -0.010805941 0.024093334
-0.0011561204 0.0032197426 0.008375848 0.029993348 -0.038456175 0.021908294 -0.021211607 -0.03180907
0.029205909 0.012466615 0.026548838 0.036999863 -0.008216321 0.0147068845 -0.012014105 0.013746584
0.024166197 -0.011925452 0.007616143 -0.023416243 -0.015722733 0.0030069367 -0.0032748259 0.015648419
-0.0021182552 -0.018146537 -0.00682869 -0.036762435 0.02928722 0.010174328 -0.02543003 -0.003988789
0.0014970547 -0.0049601127 0.0008372474 -0.0067743543 0.030569036 -0.01931384 -0.03064673 0.03127328
-0.010085526 -0.007684376 -0.027738567 -0.03164632 0.010313065 -0.028886445 -0.0054077427 -0.025390357
-0.03221556 0.022351459 0.021449441 0.028934477 0.0028828534 0.014700907 -0.03115942 0.020430567
0.017498594 0.013714185 -0.0053296527 0.031467203 -0.013573386 0.01743227 -0.034878958 -0.01585819
00000000: c7ff 8b3c 7b2c 713c 748b 573c da88 3dbc
00000010: d1de cbbc 3f58 80bc 0a95 67bc 7ae9 b3bb
00000020: 3520 ee3b da5f c83b bdce ca3c 7ac4 6ebb
00000030: 4519 d2bc 5f1d 813c e31c 173c 967e 64bc
00000040: a4da b73c 768d 693c c314 053d b63e 33bc
00000050: c388 b7bc 4ab4 00bd 835c 50bc 7a0b 3ebb
00000060: 05bc f13b 083f 86bb 358c 00bd 0d0a dc3c
00000070: 3d9a e23c 752d c2bc 7f9f 90bb ab80 99bc
00000080: 6655 8abc a2a1 f33a a0ef adbc b8c2 66bc
00000090: 721a 093c 2861 bfbc fece c63c 6417 5e3c
000000a0: c044 08bb 9a4c f43c e821 adbb 0ddb b13b
000000b0: 40bc 503b 2e63 12bd 9684 eb3c acf4 993c
000000c0: 8390 2cbc b43f 893c 7480 b6bc e34a 27bd
000000d0: a4bf cfbc f367 debb a15e 89bc a3c5 9d3c
000000e0: 5801 9fbb e469 31bd dd72 953b 0ca7 a0bc
000000f0: c453 2e3c 6b46 253d ec23 893c 81f1 7ebc
00000100: 08d8 5bbc 1790 42bc e653 3b3d 8197 bb3c
00000110: a178 963b c475 df3c c5af 3fbc eee9 04bb
00000120: 8599 5b3c df0f 013c dfea a73c f1c4 a23c
00000130: ae58 4dbc 56ce e73c a061 923c 9f15 b4bc
00000140: 2b5d 023d dff9 56bc 6bb7 a53c 73a2 0ebb
00000150: 2755 cebc 0046 1abc f5a7 d23c 2063 ed3c
00000160: 2e95 863b f8a4 fbbb 977e 13bd 4c32 f6bc
00000170: 4651 4a3b 1d19 ddbc 8adf c4bc 8c28 ea3c
00000180: 41a4 48bc f5e5 e2bc 98de 5bbc 9d13 b73c
00000190: f634 87b8 711e 61ba 2e20 d4bc a749 b33a
000001a0: 36ab a83c 9362 373b e855 b5bc 73cf 263c
000001b0: 915e 0bbd f0fc 7b3c cf86 3ebb 02e3 d7bc
000001c0: 7032 3dbb b768 e8bc 2370 433c 9bb6 913c
000001d0: b54d 81bc c6f2 983b f1c4 d43c 8270 fd3c
000001e0: 6afa 173c bc94 7f3b ff90 0abd 53cd fabc
000001f0: 8b25 24bd 234c 5dbc 2278 153d 297f 00bd
00000200: 249d e1bb 883e 06bd 775a 113d e9df 93bc
00000210: d9d4 90bc 6d64 813c e152 a4bc b6b8 8ebc
00000220: b25b 11bd 0f6d 453a bf0b d4bb f4e9 0d3c
00000230: 42c3 483c 85f6 bdbc 98cb acbc 408a 4cbc
00000240: ec21 85bc 1d48 b5bc c5b5 c0bc f9d4 07bd
00000250: 8b6a 0dbd 5fe8 9fbc 1f08 bbbc fb14 b5bc
00000260: 7ddd c93c be66 f33c 7825 6c3c 3872 adbc
00000270: 69f9 be3c ad2e 09bd ed4b 03bd ad78 e6bc
00000280: 3a5c f13c 1957 fabc d56a 4b3c 1dce 9a3c
00000290: 8bb9 60bc 7901 563b 73ac f03b cef3 25bc
000002a0: fa3e 4bbc d2da 653c cd11 a6bc c73e 013c
000002b0: b4ca ffbc 2324 a3bc 159b 9bba 9794 f63c
000002c0: 5d08 e43c 1dd2 a23c 3842 3abc 32f9 abbc
000002d0: 3a48 57bc ad57 e5bb 8e88 13bd 138c 0dbd
000002e0: 54b3 da3c 5a7f dfbc 8d0f 3f3c df5d 0e3b
000002f0: acde 923c 3ba3 dbbb 670b 31bc 625f c53c
00000300: f788 97ba 5102 533b da3a 093c 9cb4 f53c
00000310: 3984 1dbd 0679 b33c f7c3 adbc 3a4a 02bd
00000320: 3b41 ef3c c640 4c3c f37c d93c 2b8d 173d
00000330: bf9d 06bc 25f5 703c cfd6 44bc 5a39 613c
00000340: 30f8 c53c f962 43bc d790 f93b 6cd3 bfbc
00000350: f6cc 80bc 0710 453b 769e 56bb 1d31 803c
00000360: 6dd2 0abb 0ca8 94bc 34c3 dfbb 3594 16bd
00000370: c1eb ef3c 3ab2 263c a352 d0bc 63b4 82bb
00000380: d238 c43a 7188 a2bb b97a 5b3a 67fb ddbb
00000390: ea6b fa3c 0f38 9ebc da0e fbbc 6918 003d
000003a0: c33d 25bc 38cd fbbb fe3b e3bc 929f 01bd
000003b0: 21f8 283c 44a3 ecbc 6f33 b1bb 70ff cfbc
000003c0: 77f4 03bd 681a b73c bdb6 af3c ff07 ed3c
000003d0: 41ee 3c3b 13dc 703c 0a42 ffbc 015e a73c
000003e0: 3659 8f3c 76b1 603c 5ea4 aebb c1e3 003d
000003f0: e862 5ebc 1fce 8e3c 3ddd 0ebd 09e9 81bc

bias f4 [64]
0.016094575 -0.0124611 0.026024148 -0.02612815 -0.028339077 -0.02428889 0.0058771223 -0.0010265387
-0.03315184 0.03399906 -0.028601285 0.0005088768 -0.020093804 0.01401566 0.0038390737 0.007383422
0.021992566 -0.002914695 -0.041799657 0.010213022 -0.036225487 -0.03229693 0.008198589 -0.028234001
0.03488402 -0.026045445 -0.041663513 -0.03217602 0.030396273 0.023235144 0.03259512 0.016949344
-0.0057869586 -0.027961046 -0.038743913 -0.042606365 -0.007862492 0.038412154 0.024551265 -0.0067698974
-0.031954706 -0.038431723 0.024169251 0.0032267272 0.0050816294 0.0164638 0.024756169 -0.0135282185
-0.012538566 -0.010622297 -0.040838983 -0.031273864 0.03669969 0.0049525904 -0.035238728 -0.030939365
-0.017837891 -0.017924545 0.023117673 -0.033899553 -0.014177438 0.01898894 -0.010730383 -0.033873584
00000000: c5d8 833c a429 4cbc 9830 d53c b40a d6bc
00000010: 5a27 e8bc 7ff9 c6bc e094 c03b ec8c 86ba
00000020: 39ca 07bd 9942 0b3d 3e4d eabc 2566 053a
00000030: c39b a4bc f0a1 653c f898 7b3b a2f0 f13b
00000040: c129 b43c 7804 3fbb 1e36 2bbd 8554 273c
00000050: 2d61 14bd c949 04bd 6053 063c fe4a e7bc
00000060: 8ce2 0e3d 425d d5bc 5ca7 2abd 01cb 03bd
00000070: 9b01 f93c a157 be3c 7682 053d 5ad9 8a3c
00000080: 87a0 bdbb 900e e5bc f0b1 1ebd 0384 2ebd
00000090: afd1 00bc 1056 1d3d bc1f c93c 04d6 ddbb
000000a0: f0e2 02bd 956a 1dbd 98fe c53c 8077 533b
000000b0: cc83 a63b 17df 863c 73cd ca3c 76a5 5dbc
000000c0: 8f6e 4dbc 2509 2ebc c746 27bd 0619 00bd
000000d0: 6a52 163d 5749 a23b 7c56 10bd 8d74 fdbc
000000e0: c520 92bc 7fd6 92bc 4661 bd3c 42da 0abd
000000f0: 7c48 68bc b28e 9b3c 7dce 2fbc 07bf 0abd

weight f4 [64, 1024]
0.016393421 0.02431668 0.031565856 0.0115780635 0.013035146 -0.030529281 -0.006567521 -0.0023778803
-0.01939897 0.009282288 0.019815303 0.028479459 -0.023585219 -0.011585946 0.019088091 0.01991644
0.016583286 -0.012833711 0.014030316 -0.007486355 -0.015074 0.02581962 0.009512974 -0.013756147
-0.0038167972 -0.030913826 -0.008611664 -0.014562118 0.0063128453 0.0155285355 0.023916537 0.0063881357
-0.018053114 0.018893668 0.011311038 -0.032070085 0.031412415 -0.014066761 0.022686569 0.012732287
0.03148892 0.01955574 0.023303917 -0.018268783 0.0011008402 0.004933015 -0.0025448983 0.01667088
-0.024570245 -0.025692299 0.027636271 0.004204676 0.010080521 0.024042508 0.018647747 -0.010986005
0.028234031 -0.027123863 -0.01857278 -0.024628893 -0.004982594 0.01856181 0.0024757152 -0.0027604026
0.008219396 -0.0089081 -0.014222161 -0.031365875 -0.03230754 0.020620873 -0.010018852 0.0058175507
0.01782339 -0.024261888 -0.016395483 0.018457668 -0.00032807208 -0.023902647 0.009523944 -0.011235606
0.02924509 -0.011388944 0.008639869 -0.0041491524 -0.028839756 -0.014562222 0.017045995 -0.0253112
-0.01983971 0.030213654 -0.030478207 0.0034916238 0.024028853 0.023632785 -0.024939697 0.016882956
-0.02133416 -0.01659007 -0.0017841787 0.014920028 0.0023267728 -0.02319922 0.004780824 -0.030161092
-0.018529575 0.009451376 -0.03449014 0.026645275 0.0045981156 -0.012139248 -0.02054211 0.026211634
-0.00685726 0.020789694 0.028962916 0.021667661 -0.017815657 -0.005948265 -8.366406e-05 0.011812013
0.004184064 0.0237158 0.014085562 -0.0044965288 0.018150566 -0.025820715 -0.00949197 0.02621177
0.01967745 0.0098512005 -0.012419089 0.01571281 -0.029096574 -0.032081697 -0.0039866837 -0.0021074635
0.028340722 0.007611508 0.027723227 0.0037315052 0.01937121 0.0052100047 -0.0031428218 0.026379507
0.0131645175 -0.010345519 -0.018669732 -0.020394238 0.023072757 0.03361584 0.013197326 0.033875372
0.014985585 -0.036925785 -0.005999306 -0.006184782 0.008480001 0.0114150895 0.009812627 -0.027474273
-0.028318066 0.018305134 0.014366453 -0.009278511 0.026717283 0.013954573 -0.024483139 0.028245326
0.0075982674 0.025658065 -0.00022147596 -0.00030707018 0.03250161 0.024581594 -0.026505517 0.0065494287
0.017721074 -0.0012197422 0.008392843 -0.00772908 0.025257142 -0.025403906 0.0036169726 -0.02539655
-0.01870959 -0.018819733 0.017693007 -0.011207648 -0.01988791 -0.013140208 0.0053833583 0.02838875
0.012592033 0.020982916 -0.016740529 -0.023563791 -0.021120844 -0.019612612 0.007889104 -0.018209059
-0.007437479 0.03521811 -0.0044398573 0.011241724 0.025208645 0.01354069 -0.022311185 0.0028608989
0.024413047 -0.027752373 0.0037580335 0.013522608 0.01664351 0.004132824 0.021896977 -0.014953953
-0.008327092 0.013240498 -0.01945231 -0.008695852 0.036637984 0.03106698 0.040206403 0.020775005
0.022620874 -0.0025689758 0.008691186 0.013415323 -0.010117109 0.001131808 0.03195777 0.020739237
0.010102681 -0.0025463784 -0.01938449 0.012315179 -0.018565709 -0.023663646 0.008648118 -0.005195446
0.019839862 -0.02733334 -0.016628841 0.02967134 -0.02364754 -0.025856338 0.024925262 -0.0034877788
-0.013151127 0.034917004 0.01585847 -0.021539407 0.0019081141 -0.0072150794 0.02091139 0.01609031
00000000: 7f4b 863c c633 c73c 334b 013d ebb1 3d3c
00000010: 5d91 553c 8b18 fabc 5c34 d7bb 36d6 1bbb
00000020: 97ea 9ebc bd14 183c b453 a23c c14d e93c
00000030: ca35 c1bc fbd2 3dbc a15e 9c3c cd27 a33c
00000040: acd9 873c 7c44 52bc 69df 653c 1950 f5bb
00000050: f0f8 76bc ab83 d33c 4edc 1b3c 7661 61bc
00000060: 3b23 7abb fe3e fdbc f017 0dbc f395 6ebc
00000070: fcdb ce3b 666b 7e3c 9dec c33c 9153 d13b
00000080: 20e4 93bc e5c6 9a3c ef51 393c ec5b 03bd
00000090: 4eaa 003d 4678 66bc 2fd9 b93c 159b 503c
000000a0: 87fa 003d 5c33 a03c dbe7 be3c 6aa8 95bc
000000b0: 114a 903a 21a5 a13b 4fc8 26bb 5f91 883c
000000c0: 8a47 c9bc a878 d2bc 7665 e23c 61c7 893b
000000d0: c528 253c cbf4 c43c 29c3 983c a5fe 33bc
000000e0: 0e4b e73c dd32 debc f125 98bc 88c2 c9bc
000000f0: 0745 a3bb f00e 983c 9c3f 223b dfe7 34bb
00000100: a5aa 063c 48f3 11bc 1104 69bc 8179 00bd
00000110: e954 04bd 1bed a83c 1c26 24bc 27a1 be3b
00000120: 5c02 923c dec0 c6bc d24f 86bc 8934 973c
00000130: 1701 acb9 7ccf c3bc 510a 1c3c 8c15 38bc
00000140: 6693 ef3c b298 3abc 3d8e 0d3c 9df5 87bb
00000150: 5a41 ecbc 6396 6ebc 0ba4 8b3c 6f59 cfbc
00000160: e386 a2bc a082 f73c 6fad f9bc bad3 643b
00000170: 28d8 c43c 8b99 c13c 564e ccbc 204e 8a3c
00000180: fac4 aebc e6e7 87bc 1adb e9ba 2273 743c
00000190: c57c 183b 4a0c bebc 75a8 9c3b 6514 f7bc
000001a0: 56cb 97bc f2d9 1a3c 8845 0dbd 3147 da3c
000001b0: caab 963b b2e3 46bc ed47 a8bc c8b9 d63c
000001c0: deb2 e0bb 264f aa3c a343 ed3c 6180 b13c
000001d0: 24f2 91bc aae9 c2bb cd74 afb8 2c87 413c
000001e0: 791a 893b a347 c23c 21c7 663c 9e57 93bb
000001f0: 7fb0 943c f785 d3bc 3584 1bbc 11ba d63c
00000200: 9b32 a13c ee66 213c 6f79 4bbc 27b8 803c
00000210: f05b eebc 1968 03bd baa2 82bb 5f1d 0abb
00000220: cd2a e83c f569 f93b d21b e33c 458c 743b
00000230: 5fb0 9e3c b0b8 aa3b cdf7 4dbb d619 d83c
00000240: fdaf 573c 4080 29bc 44f1 98bc d111 a7bc
00000250: 1403 bd3c c3b0 093d 9939 583c e7c0 0a3d
00000260: 1986 753c 7e3f 17bd d495 c4bb b6a9 cabb
00000270: b4ef 0a3c 5b06 3b3c 24c5 203c ba11 e1bc
00000280: 4afb e7bc a6f4 953c 4561 6b3c e504 18bc
00000290: 34de da3c b9a1 643c dd90 c8bc be62 e73c
000002a0: e3fa f83b dd30 d23c 003c 68b9 43fe a0b9
000002b0: 6920 053d 575f c93c 1922 d9bc 979c d63b
000002c0: c92b 913c c2df 9fba 2382 093c 3944 fdbb
000002d0: 11e8 ce3c da1b d0bc bb0a 6d3b 6d0c d0bc
000002e0: db44 99bc d72b 9abc edf0 903c 48a0 37bc
000002f0: f8eb a2bc 074a 57bc e266 b03b 868f e83c
00000300: d04e 4e3c 5de4 ab3c 6f23 89bc da08 c1bc
00000310: 9f05 adbc a1aa a0bc 4d41 013c 2a2b 95bc
00000320: 19b6 f3bb dd40 103d 397c 91bb 352f 383c
00000330: 5c82 ce3c c5d9 5d3c f2c5 b6bc eb7d 3b3b
00000340: dffd c73c f258 e3bc 5749 763b ee8d 5d3c
00000350: f857 883c a46c 873b 4a61 b33c 6d01 75bc
00000360: 5b6e 08bc acee 583c 735a 9fbc 0c79 0ebc
00000370: b611 163d 2e80 fe3c 78af 243d 5830 aa3c
00000380: 694f b93c 435c 28bb 7a65 0e3c f1cb 5b3c
00000390: 3bc2 25bc 2d59 943a 27e6 023d 55e5 a93c
000003a0: b785 253c 24e1 26bb 39cc 9ebc 9bc5 493c
000003b0: 1d17 98bc 43da c1bc d6b0 0d3c 8f3e aabb
000003c0: 3587 a23c 2bea dfbc 3539 88bc 4f11 f33c
000003d0: 7cb8 c1bc acd0 d3bc 1030 cc3c 3893 64bb
000003e0: d377 57bc 2205 0f3d 9fe9 813c 6973 b0bc
000003f0: af19 fa3a 796c ecbb 5d4e ab3c d3cf 833c

bias f4 [64]
0.016140258 0.0223475 0.021409843 0.013054379 -0.000106542844 -0.013888917 0.014667076 0.013780035
0.015993288 -0.017949264 -0.016828863 -0.030245453 0.013422236 0.03211371 -1.3624158e-05 0.013528714
-0.022469746 0.0044496316 -0.016699348 -0.019177882 0.022838807 0.022103157 0.017155312 0.018075492
-0.04352442 -0.0061686477 0.014428956 0.016828205 -0.010217162 -0.0376598 0.011295427 0.021399701
-0.013353169 -0.02476971 0.020719541 0.012592394 -0.03719051 0.023278167 0.008669886 0.011077989
0.013929313 -0.020368543 -0.0068130326 -0.037839554 -0.02069903 -0.018215185 -0.011673639 -0.014685423
-0.029924683 -0.028417299 0.003423929 -0.02456364 -0.0037582396 -0.024540769 0.013514054 -0.02463771
0.013398284 -0.03456948 -0.0064920043 -0.03458954 -0.011335629 -0.039946735 0.010467871 -0.012937938
00000000: 9338 843c 1b12 b73c b263 af3c 09e2 553c
00000010: c16f dfb8 578e 63bc 2d4e 703c a8c5 613c
00000020: 5b04 833c 560a 93bc afdc 89bc 50c5 f7bc
00000030: f0e8 5b3c aa89 033d 5093 64b7 8aa7 5d3c
00000040: 7912 b8bc 37ce 913b 12cd 88bc ef1a 9dbc
00000050: 7318 bb3c ae11 b53c 4c89 8c3c 0e13 943c
00000060: aa46 32bd 5e22 cabb 6e67 6c3c 4edb 893c
00000070: e265 27bc 2a41 1abd 7410 393c 6d4e af3c
00000080: 40c7 5abc d9e9 cabc 07bc a93c 5450 4e3c
00000090: 1455 18bd dbb1 be3c 230c 0e3c 7480 353c
000000a0: c637 643c eedb a6bc dc3f dfbb a6fd 1abd
000000b0: 0391 a9bc 0338 95bc ca42 3fbc 219b 70bc
000000c0: 9c24 f5bc 65cb e8bc ff63 603b b039 c9bc
000000d0: cc4c 76bb b909 c9bc 0d6a 5d3c 06d5 c9bc
000000e0: 7a84 5b3c ba98 0dbd e1ba d4bb c3ad 0dbd
000000f0: 13b9 39bc 309f 23bd 6f81 2b3c a5f9 53bc

weight f4 [10, 64]
-0.12727495 -0.037624735 -0.0043921 0.14520125 -0.0049953335 -0.08000628 -0.07787969 -0.06481544
0.09019683 0.05240896 -0.08774452 0.13625337 -0.046324003 -0.033249166 -0.09926036 0.044904582
0.059581105 -0.038922302 0.14631292 0.027636198 -0.12178911 0.072491296 -0.106826216 0.061283007
0.06943672 0.015817622 0.10892871 -0.10149857 -0.025444606 0.044118147 -0.08844291 -0.121936634
-0.13495484 0.00050218933 -0.017656261 0.0025114163 0.10145167 0.109391145 -0.08890325 -0.093392216
-0.12965284 0.03079751 -0.08501038 0.07850568 0.057782866 -0.112228654 -0.08939356 -0.09700856
-0.07603426 -0.12114462 -0.0703393 0.10815859 0.081446245 0.0718312 0.018299937 -0.034516197
0.14536892 0.078782246 -0.0013929748 -0.019604355 -0.05897703 0.07431817 0.090301424 -0.12909177
0.095983356 0.071511686 0.09855795 0.07652704 0.10589923 0.118916206 -0.09280848 -0.11139686
-0.0137677025 -0.078360215 0.08248559 -0.12295709 0.05695676 0.0847585 0.0567212 -0.048906405
-0.043473817 -0.16941117 0.0357067 0.14528918 0.06503425 -0.021522388 -0.13477623 -0.12841485
-0.017979419 0.09474424 0.034474526 -0.13876085 -0.033348463 0.053127274 -0.1049203 -0.011148784
-1.2525233e-05 -0.15194905 0.065195225 0.05523166 -0.06645677 0.1371835 0.1555626 -0.066820085
0.024596874 -0.16482148 -0.033428404 0.1678381 0.063180245 0.12745714 0.09174259 -0.055763993
-0.07086235 0.1806179 0.04742326 -0.14055465 -0.110680774 -0.019598547 -0.13718322 0.1497871
0.090246744 0.043862756 0.088033974 -0.03622927 0.02180525 -0.14130665 0.023065826 0.08182721
0.03892134 0.033495594 0.09494373 0.045638256 -0.06600333 -0.029505134 0.12474351 -0.07731543
0.12806071 0.09495393 0.060111683 0.09469526 0.108831994 0.015592026 -0.108499005 -0.079778664
0.062344108 0.07630708 -0.003995254 0.013860521 -0.02294104 -0.03275557 -0.11253844 0.06396607
0.050844792 0.027489567 -0.019051673 0.09438185 0.06414137 0.08825134 -0.010830706 0.055219185
-0.14120205 0.010779225 -0.028428389 -0.045910172 -0.1280739 -0.016449967 -0.028575763 -0.105201095
-0.12375486 0.124028765 -0.039649613 -0.14070077 0.103679694 -0.11365173 -0.12166511 -0.031795207
-0.019019263 -0.0059736054 0.029097896 -0.093678944 -0.00075296353 -0.09237194 0.12709676 0.020573957
-0.06284582 -0.04760216 0.08340593 -0.10532942 0.097327024 -0.120003834 -0.10590987 -0.057847038
-0.035795562 0.016969262 -0.034948077 -0.0871302 0.10103767 -0.14190146 -0.0226607 -0.104278296
0.041247178 0.025075372 0.031930823 -0.10509665 -0.0013881465 -0.10451597 0.02267152 0.07263872
0.13341051 0.0500856 -0.09193696 0.0048857722 0.05849643 0.12440923 0.028951332 -0.01912888
-0.13898912 -0.024864944 0.021025945 -0.035694346 0.07803237 -0.13016553 0.13082324 -0.06696509
0.045529675 0.10261159 -0.08214755 0.100456454 -0.048826404 -0.01273786 0.082023114 -0.102175824
0.138582 -0.05617941 0.07039756 0.006284141 -0.13188927 0.042230006 -0.054913547 0.066993035
-0.09567649 0.068545274 -0.11859995 -0.022966038 -0.018242354 0.079310425 0.025770225 0.08742149
-0.110957615 0.09685322 -0.051273517 0.026064666 -0.1280133 0.036568206 -0.052302923 0.1363355
00000000: 5d54 02be 651c 1abd 9beb 8fbb a3af 143e
00000010: e5af a3bb 55da a3bd 637f 9fbd f5bd 84bd
00000020: 1eb9 b83d c7aa 563d 66b3 b3bd 0186 0b3e
00000030: 3dbe 3dbd 4730 08bd 0449 cbbd deed 373d
00000040: 510b 743d fe6c 1fbd 0ed3 153e 4f65 e23c
00000050: 926c f9bd 5176 943d b4c7 dabd e403 7b3d
00000060: d734 8e3d f593 813c 0416 df3d 7bde cfbd
00000070: 3571 d0bc 3bb5 343d 8e21 b5bd eab9 f9bd
00000080: 9a31 0abe 5ba5 033a dda3 90bc 9396 243b
00000090: e5c5 cf3d 7708 e03d e812 b6bd 6b44 bfbd
000000a0: b7c3 04be 0f4b fc3c ec19 aebd 96c7 a03d
000000b0: baad 6c3d 23d8 e5bd f913 b7bd 6dac c6bd
000000c0: dab7 9bbd ac1a f8bd 0d0e 90bd 4082 dd3d
000000d0: 4acd a63d 3c1c 933d c0e9 953c db60 0dbd
000000e0: 97db 143e 9658 a13d 7a94 b6ba 5099 a0bc
000000f0: e691 71bd 2034 983d f4ef b83d a230 04be
00000100: ec92 c43d b874 923d c0d8 c93d 35ba 9c3d
00000110: b2e1 d83d 578a f33d 5f12 bebd 0924 e4bd
00000120: ee91 61bc 527b a0bd 34ee a83d edd0 fbbd
00000130: 7e4b 693d dd95 ad3d 7d54 683d 1552 48bd
00000140: 9a11 32bd 1f7a 2dbe 3041 123d b0c6 143e
00000150: ad30 853d b84f b0bc c802 0abe 2f7f 03be
00000160: 9349 93bc 4509 c23d 2935 0d3d 5317 0ebe
00000170: 6698 08bd fc9b 593d 74e0 d6bd 64a9 36bc
00000180: 7723 52b7 8898 1bbe 1385 853d 983a 623d
00000190: 7d1a 88bd d579 0c3e cd4b 1f3e f8d8 88bd
000001a0: 627f c93c f6c6 28be 39ec 08bd c0dd 2b3e
000001b0: a564 813d 2084 023e 8ae3 bb3d c968 64bd
000001c0: 4820 91bd e6f3 383e e43e 423d 8fed 0fbe
000001d0: 9aac e2bd 228d a0bc c279 0cbe ca61 193e
000001e0: 49d3 b83d 6fa9 333d 284b b43d 2565 14bd
000001f0: eca0 b23c b1b2 10be 8bf4 bc3c 0695 a73d
00000200: fc6b 1f3d ad32 093d dc71 c23d 2eef 3a3d
00000210: c12c 87bd c0b4 f1bc 8679 ff3d 8d57 9ebd
00000220: 5922 033e 3577 c23d ab37 763d 97ef c13d
00000230: 4fe3 de3d b275 7f3c ba34 debd ff62 a3bd
00000240: 895c 7f3d e346 9c3d 9fea 82bb 3d17 633c
00000250: d9ee bbbc b42a 06bd 8e7a e6bd a500 833d
00000260: a142 503d cd31 e13c 4112 9cbc 454b c13d
00000270: 8d5c 833d 1ebd b43d 4673 31bc 832d 623d
00000280: 4597 10be 599b 303c a7e2 e8bc 4e0c 3cbd
00000290: ce25 03be 15c2 86bc b817 eabc ac73 d7bd
000002a0: 3073 fdbd cb02 fe3d a267 22bd dd13 10be
000002b0: 0556 d43d 3dc2 e8bd 8f2b f9bd b13b 02bd
000002c0: 49ce 9bbc 3cbe c3bb b65e ee3c bfda bfbd
000002d0: 8762 45ba 802d bdbd a725 023e b78a a83c
000002e0: 4fb5 80bd 7cfa 42bd bad0 aa3d f3b6 d7bd
000002f0: 6453 c73d 92c4 f5bd 46e7 d8bd 04f1 6cbd
00000300: 5e9e 12bd 1f03 8b3c b725 0fbd 5171 b2bd
00000310: d7ec ce3d 9e4e 11be efa2 b9bc dc8f d5bd
00000320: cdf2 283d de6a cd3c e5c9 023d ea3c d7bd
00000330: 78f2 b5ba 780c d6bd a0b9 b93c 9cc3 943d
00000340: c49c 083e 8f26 4d3d 7249 bcbd d418 a03b
00000350: f499 6f3d 44ca fe3d 582b ed3c 2bb4 9cbc
00000360: 2a53 0ebe 91b1 cbbc 9a3e ac3c 3c34 12bd
00000370: 6fcf 9f3d 1d4a 05be 87f6 053e fe24 89bd
00000380: 537d 3a3d 0626 d23d fa3c a8bd 1dbc cd3d
00000390: 32fe 47bd 75b2 50bc bcfb a73d 8f41 d1bd
000003a0: 71e8 0d3e 621c 66bd 992c 903d 32eb cd3b
000003b0: fb0d 07be 5ff9 2c3d 07ed 60bd a533 893d
000003c0: 09f2 c3bd 7761 8c3d 88e4 f2bd 4623 bcbc
000003d0: fd70 95bc 816d a23d 141c d33c 0a0a b33d
000003e0: bf3d e3bd fb5a c63d 2e04 52bd 9185 d53c
000003f0: eb15 03be 8bc8 153d 973b 56bd 899b 0b3e

bias f4 [10]
-0.117729865 -0.038607076 0.019037694 0.04618209 0.08200535 -0.06403126 0.04561287 -0.09509841
-0.018278895 0.07814108
00000000: 5b1c f1bd 7422 1ebd f0f4 9b3c 6e29 3d3d
00000010: 6cf2 a73d d222 83bd 90d4 3a3d f5c2 c2bd
00000020: 9fbd 95bc 6e08 a03d
