src/kiki_8.pth (torch, 588714 bytes, 10 tensors)

weight f4 [32, 3, 5, 5]
-0.045003552 0.0043264367 -0.10711473 -0.09389506 0.01637591 0.021293199 0.053140216 -0.0916138
0.11217832 -0.05690745 0.03080762 -0.11165067 0.049385212 0.07568148 -0.026647087 -0.021583082
0.058076024 -0.09480752 0.011456541 0.009706122 0.020155655 -0.15136677 -0.10286508 -0.027856857
-0.12355299 0.08904008 0.12021716 -0.022392644 0.053726364 -0.074490435 0.054976404 0.106828965
-0.018932603 0.106879495 -0.018289717 -0.10270639 0.027672868 0.058324363 -0.07658256 -0.06338202
0.105661474 -0.12069865 0.001804002 -0.12636414 0.026516985 -0.050442155 -0.17393258 -0.07431271
-0.08080946 -0.06481221 0.15461002 0.06480374 0.15344931 0.023999888 0.10072762 -0.07920979
0.08772955 0.041184712 0.11385409 -0.092096165 -0.055264805 0.07903893 0.13977759 -0.028009718
-0.043300305 0.103192694 0.061517343 0.06366514 -0.005638922 0.01967395 0.09132555 -0.0777081
0.009329832 0.03128935 -0.11852641 0.07399501 0.11067989 0.031943806 0.02242417 0.027933836
0.13280977 0.17948453 0.10751675 -0.1624546 -0.14936633 0.12813394 0.041527625 -0.16841476
-0.10908702 -0.15547268 0.06101265 -0.03131166 -0.09569926 0.07855278 0.15509352 0.18045007
0.119993486 -0.01646691 0.039007574 0.055928104 -0.021148402 -0.06286089 0.020688133 -0.15002576
-0.06989653 -0.02733438 -0.06193722 -0.017996257 -0.19181293 -0.20987774 0.15251282 -0.07911826
-0.19045745 -0.13440685 -0.19284758 0.008894555 -0.006845304 -0.14042081 0.015353538 0.03249721
0.008427708 0.04869271 0.10657267 -0.10373291 0.01097617 -0.041806746 0.05139603 0.08965526
-0.15354466 -0.16557442 0.12372113 -0.05216549 -0.0012460634 -0.03419834 0.008936559 0.013399403
-0.007656409 -0.07262892 -0.13586055 -0.19750415 0.11561319 -0.098230824 -0.13078068 0.014736093
0.010917398 0.050333258 -0.0069925506 -0.043585524 0.0014353549 0.11178977 0.06460489 0.042045362
-0.07434065 0.11090257 0.13831988 -0.07226373 0.11054991 0.07302335 -0.09696903 -0.12095924
-0.044169836 0.04361476 -0.0910673 -0.1416067 -0.057051178 -0.075555414 -0.06358463 -0.16086276
0.06108303 0.027957188 -0.08402967 -0.07917697 0.0854064 0.15554857 0.0725626 0.07561491
-0.06458226 0.036084026 0.0044165817 -0.10421537 -0.111772254 0.10422023 -0.061121095 0.08150499
-0.116632506 0.032025117 -0.043722093 -0.106896415 0.04880994 -0.06772124 0.006978229 -0.09439208
-0.13745618 -0.10013361 -0.055976037 -0.11827028 0.08060224 0.15098253 0.0913514 0.122559614
-0.084797196 -0.041368622 0.09332814 -0.0509727 0.10395681 -0.013805409 0.055102356 0.11499403
0.111088604 -0.04564261 -0.038532253 -0.09160054 0.061926447 0.07272142 -0.09276083 -0.11100811
-0.043185424 -0.038764026 0.0032393236 -0.025165783 -0.09807487 0.04801316 0.069749266 -0.039139282
0.091786936 -0.110955134 0.0076264828 0.056411445 0.005535455 0.03013169 0.08807584 0.013938324
0.100503385 -0.07366389 0.02594061 -0.1429462 -0.1371913 -0.04773317 -0.08044514 0.02637598
-0.0072281067 -0.08491399 0.08894668 0.11565959 -0.07796335 0.090996414 0.14248468 0.11641906
0.09432267 0.12954149 -0.010109246 -0.11489968 -0.009264592 0.055401947 -0.083039284 -0.09083177
00000000: a555 38bd c8c4 8d3b f85e dbbd 0e4c c0bd
00000010: c626 863c 136f ae3c 8ea9 593d 04a0 bbbd
00000020: bfbd e53d c917 69bd 4360 fc3c 1ba9 e4bd
00000030: 2648 4a3d e4fe 9a3d fe4a dabc 01cf b0bc
00000040: 20e1 6d3d 722a c2bd 37b4 3b3c 6d06 1f3c
00000050: 791d a53c e4ff 1abe edaa d2bd 1034 e4bc
00000060: 5a09 fdbd a55a b63d 6a34 f63d c770 b7bc
00000070: 2d10 5c3d 718e 98bd f02e 613d 25c9 da3d
00000080: 8c18 9bbc a3e3 da3d 51d4 95bc ba57 d2bd
00000090: 36b2 e23c 87e5 6e3d 51d7 9cbd 6fce 81bd
000000a0: 0b65 d83d db30 f7bd 4374 ec3a 9a65 01be
000000b0: 263a d93c 6f9c 4ebd 621b 32be 4331 98bd
000000c0: 6e7f a5bd 44bc 84bd 1752 1e3e d3b7 843d
000000d0: d121 1d3e 6a9b c43c 484a ce3d be38 a2bd
000000e0: 8dab b33d 4db1 283d 552c e93d ea9c bcbd
000000f0: 595d 62bd 2adf a13d db21 0f3e a374 e5bc
00000100: a95b 31bd b156 d33d 9cf9 7b3d de62 823d
00000110: b5c6 b8bb 432b a13c e408 bb3d 6d25 9fbd
00000120: 27dc 183c 4329 003d f9bd f2bd b28a 973d
00000130: 23ac e23d 82d7 023d e5b2 b73c 80d5 e43c
00000140: 49ff 073e cbca 373e be31 dc3d 805a 26be
00000150: 7df3 18be 8b35 033e df18 2a3d eb74 2cbe
00000160: 0469 dfbd 3b34 1fbe 67e8 793d a840 00bd
00000170: f9fd c3bd 48e0 a03d d6d0 1e3e e7c7 383e
00000180: 25bf f53d 9de5 86bc 68c6 1f3d de14 653d
00000190: 6a3f adbc 36bd 80bd 297a a93c 5aa0 19be
000001a0: e925 8fbd 5aec dfbc e2b1 7dbd e36c 93bc
000001b0: 9c6a 44be 31ea 56be 522c 1c3e c108 a2bd
000001c0: 4707 43be f3a1 09be d679 45be 78ba 113c
000001d0: 924e e0bb 79ca 0fbe 688d 7b3c cb1b 053d
000001e0: 5f14 0a3c 0272 473d c642 da3d eb71 d4bd
000001f0: 65d5 333c 8d3d 2bbd a584 523d 2d9d b73d
00000200: d03a 1dbe 578c 29be 8161 fd3d 7bab 55bd
00000210: f352 a3ba 8f13 0cbd a56a 123c 2b89 5b3c
00000220: 9de2 fabb 79be 94bd 071f 0bbe 873e 4abe
00000230: 9cc6 ec3d 3e2d c9bd 5feb 05be a76f 713c
00000240: e3de 323c 3f2a 4e3d c421 e5bb bc86 32bd
00000250: 8522 bc3a 09f2 e43d 924f 843d c237 2c3d
00000260: e93f 98bd e320 e33d baa3 0d3e 02ff 93bd
00000270: fe67 e23d 448d 953d b397 c6bd 7ab9 f7bd
00000280: 6eeb 34bd 64a5 323d 7e81 babd 5901 11be
00000290: 7fae 69bd ccbc 9abd a938 82bd 35b9 24be
000002a0: 3332 7a3d 7906 e53c bf17 acbd 8927 a2bd
000002b0: 8de9 ae3d 2048 1f3e b39b 943d fddb 9a3d
000002c0: b443 84bd d8cc 133d f9b8 903b de6e d5bd
000002d0: dae8 e4bd 6a71 d53d 1d5a 7abd 17ec a63d
000002e0: 06dd eebd c52c 033d f015 33bd 82ec dabd
000002f0: efec 473d 6fb1 8abd a1a9 e43b a350 c1bd
00000300: 50c1 0cbe da12 cdbd 2147 65bd b037 f2bd
00000310: ca12 a53d 2a9b 1a3e 7116 bb3d 8900 fb3d
00000320: 27aa adbd 2572 29bd d322 bf3d c0c8 50bd
00000330: 4fe7 d43d 1530 62bc 02b3 613d fd81 eb3d
00000340: 6c82 e33d bff3 3abd ffd3 1dbd 1099 bbbd
00000350: 96a6 7d3d f8ee 943d 64f9 bdbd 3858 e3bd
00000360: 33e3 30bd 07c7 1ebd d54a 543b 7928 cebc
00000370: 7adb c8bd 72a9 443d b4d8 8e3d 8350 20bd
00000380: cafa bb3d 723c e3bd 93e7 f93b b00f 673d
00000390: c362 b53b bcd6 f63c 1b61 b43d 915d 643c
000003a0: b8d4 cd3d 18dd 96bd 6781 d43c 7d60 12be
000003b0: e07b 0cbe db83 43bd 6cc0 a4bd 7012 d83c
000003c0: c1d9 ecbb 63e7 adbd ad29 b63d efde ec3d
000003d0: 40ab 9fbd 545c ba3d 81e7 113e 1e6d ee3d
000003e0: 3e2c c13d 86a6 043e 40a1 25bc 8650 ebbd
000003f0: 84ca 17bc 27ed 623d 8010 aabd 0206 babd

bias f4 [32]
0.09962211 0.30702218 0.22366896 -0.2148445 -0.09922046 -0.18668944 -0.19561428 -0.17040566
0.008020306 -0.1494745 -0.2934529 0.07698192 -0.0102524245 0.1893153 0.09238329 -0.1764541
0.07963197 -0.11779769 0.012528079 -0.059046656 -0.09202777 0.079622634 0.1527623 0.21435548
0.1346536 -0.18010452 -0.0746253 -0.10508618 0.00037933397 0.14837688 -0.024377123 -0.25745228
00000000: ad06 cc3d 0332 9d3e 7a09 653e 3200 5cbe
00000010: 1934 cbbd 842b 3fbe 1c4f 48be d27e 2ebe
00000020: 9a67 033c d80f 19be 753f 96be b2a8 9d3d
00000030: c9f9 27bc dfdb 413e 7333 bd3d 62b0 34be
00000040: 1616 a33d ea3f f1bd 9242 4d3c e8da 71bd
00000050: 0e79 bcbd 3111 a33d b86d 1c3e 0180 5b3e
00000060: a2e2 093e 526d 38be 26d5 98bd 6c37 d7bd
00000070: 58e1 c639 1cf0 173e 88b2 c7bc c9d0 83be

weight f4 [32, 32, 5, 5]
0.017775668 -0.014736464 0.021927513 -0.017298838 0.03350156 -0.03352355 -0.029475715 -0.043231312
-0.060836717 -0.04083583 -0.04185463 -0.03634657 -0.025580049 -0.022700975 -0.04191266 -0.035769153
0.018988363 0.023240965 -0.0050976714 -0.024624716 0.015826875 -0.04106224 0.015890507 -0.0024601999
-0.04222377 -0.009146217 0.033935696 0.041845735 -0.0328799 0.0017608154 0.020546678 0.0043310784
0.03066382 0.044403836 -0.009986728 0.015250174 -0.0016065578 -0.005084487 -0.048476122 -0.036489572
-0.021000259 0.012154463 -0.0313253 -0.019199084 0.022298118 0.007174198 -0.038221058 0.03251221
-0.013747405 -0.015949057 0.010000531 -0.0075616078 0.024731304 0.0075776423 -0.011965259 -0.02875611
-0.028670209 -0.0032479032 -0.010796111 0.013359871 0.004945539 -0.0062556174 -0.01503729 -0.01682141
-0.03847024 -0.02176837 0.008486538 0.0063769002 0.015542202 -0.0025163845 0.021718174 0.018119378
-0.0127683105 0.02768766 -0.033411074 -0.009441443 0.0142829055 0.0001446949 -0.007487863 -0.011186725
0.02356703 0.0039366414 0.009445163 0.044445507 0.02940723 0.0027859968 0.009991306 -0.0041356133
0.029864294 0.039453227 0.012183033 0.020442966 0.005795837 -0.007978217 0.0057945284 -0.027394278
0.032246094 0.005723907 -0.032316655 -0.015626894 -0.005377777 -0.0091804275 0.047537033 -0.0010969499
0.051400684 0.022419494 -0.0006755636 -0.02291285 -0.047783185 -0.0008318221 -0.0043712086 -0.042118985
-0.007020562 -0.04825911 -0.015102848 -0.007815733 0.025236629 0.010526754 0.022045545 0.042955544
0.019004768 -0.017357077 0.024566883 0.021235202 -0.0029405174 0.024404902 0.012600184 0.01645043
0.015803436 -0.012794659 -0.010961919 0.046234295 0.06179834 0.046080597 0.016429361 0.04190384
0.0025369944 0.058855392 0.06291372 0.03502003 0.030970784 -0.0018698387 0.042688943 0.026357053
-0.020301366 0.029710792 0.032834813 0.034430183 0.013340347 -0.016699154 -0.0063455403 0.0068723233
0.0129140625 -0.024859961 0.029161762 0.014666077 -0.01385672 0.0022973707 0.03183682 0.005724549
0.0035230578 -0.015409452 0.01382635 0.028447522 0.037780136 0.04085101 0.05418225 0.021601323
0.055894446 0.01528063 -0.013769073 0.040018093 0.05193645 0.010529127 0.02424345 -0.0015217351
-0.026950583 -0.01804578 -0.0021748655 -0.025699861 -0.008145745 -0.032453228 -0.012465069 -0.0009842644
-0.0048791096 0.0334185 0.010417846 0.052533887 -0.003940146 -0.00945348 0.061161328 0.051561866
0.06933697 0.02302522 0.028111663 -0.0044281757 -0.013004612 0.00839297 0.045520853 0.0116504915
0.017410161 0.02285383 -0.01410513 -0.028216405 0.020417558 -0.024411263 0.013921499 -5.0029703e-05
-0.0050828108 -0.02683113 0.025962789 0.006483886 0.011165645 -0.006709238 -0.008252025 -0.018029261
0.008299095 0.021974456 -0.0014021704 0.0039672265 0.013924011 -0.011674315 0.011354745 -0.028714886
0.012716165 0.0063623628 0.026562113 0.0007550221 0.0026664673 0.0012003582 0.018120864 -0.0028284153
-0.027330264 -0.013430728 -0.050014835 -0.011015627 0.0062290076 -0.009842517 -0.025192795 -0.024981229
0.021895455 -0.024277443 0.027269747 0.0040914943 0.027588973 -0.016627114 -0.015744146 -0.027565962
0.0019721696 -0.023462106 0.008318881 -0.024197545 0.021052178 -0.02550541 -0.0078095593 -0.00055163354
00000000: 479e 913c 3671 71bc 54a1 b33c 4bb6 8dbc
00000010: ef38 093d fd4f 09bd 0e77 f1bc 5113 31bd
00000020: ec2f 79bd 7943 27bd c36f 2bbd 24e0 14bd
00000030: 408d d1bc 65f7 b9bc 9cac 2bbd ad82 12bd
00000040: 7c8d 9b3c d663 be3c 5e0a a7bb c6b9 c9bc
00000050: 5da7 813c e130 28bd cf2c 823c 4e3b 21bb
00000060: d5f2 2cbd 04da 15bc 2800 0b3d 6f66 2b3d
00000070: 13ad 06bd 29cb e63a 8251 a83c b8eb 8d3b
00000080: b132 fb3c cce0 353d 609f 23bc dedb 793c
00000090: 2293 d2ba c59b a6bb e68e 46bd 1776 15bd
000000a0: bc08 acbc 8323 473c f54e 00bd 6647 9dbc
000000b0: 8baa b63c 8915 eb3b af8d 1cbd 862b 053d
000000c0: cc3c 61bc 99a7 82bc 44d9 233c 5dc7 f7bb
000000d0: 4e99 ca3c df4d f83b ef09 44bc ef91 ebbc
000000e0: c9dd eabc c6da 54bb 2ce2 30bc 5ce3 5a3c
000000f0: 300e a23b ecfb ccbb f75e 76bc 0ecd 89bc
00000100: f892 1dbd 9553 b2bc 1f0b 0b3c 51f5 d03b
00000110: b8a4 7e3c ede9 24bb 50ea b13c 176f 943c
00000120: 2d32 51bc 3bd1 e23c 0dda 08bd 48b0 1abc
00000130: d902 6a3c 3eb9 1739 bf5c f5bb 8748 37bc
00000140: a50f c13c f1fe 803b e3bf 1a3c 7e0c 363d
00000150: 6ee7 f03c 4595 363b 93b2 233c 0a84 87bb
00000160: f7a5 f43c b599 213d 589b 473c 0278 a73c
00000170: 01eb bd3b 11b7 02bc 07e0 bd3b f769 e0bc
00000180: 7b14 043d 9d8f bb3b 785e 04bd f903 80bc
00000190: 1038 b0bb 8169 16bc 31b6 423d 88c7 8fba
000001a0: 8689 523d 16a9 b73c 4e18 31ba bbb3 bbbc
000001b0: 4db8 43bd a30e 5aba 5b3c 8fbb f584 2cbd
000001c0: be0c e6bb 58ab 45bd f071 77bc 8f0d 00bc
000001d0: 0cbd ce3c 6878 2c3c dc98 b43c 27f2 2f3d
000001e0: e3af 9b3c 6e30 8ebc 7d40 c93c 72f5 ad3c
000001f0: b2b5 40bb caec c73c 0171 4e3c 0dc3 863c
00000200: 3576 813c b0a0 51bc 9f99 33bc 2c60 3d3d
00000210: 4220 7d3d 02bf 3c3d de96 863c 5ca3 2b3d
00000220: b443 263b 5a12 713d e9d8 803d 2a71 0f3d
00000230: 71b6 fd3c 6015 f5ba 9ada 2e3d bfea d73c
00000240: 0d4f a6bc 0c64 f33c cc7d 063d aa06 0d3d
00000250: 7991 5a3c aacc 88bc 40ee cfbb 3a31 e13b
00000260: 8195 533c 1ea7 cbbc a6e4 ee3c fc49 703c
00000270: 4c07 63bc 7c8f 163b 5367 023d ff94 bb3b
00000280: 1ae3 663b ed77 7cbc ea87 623c c70a e93c
00000290: 58bf 1a3d 6353 273d 35ee 5d3d 42f5 b03c
000002a0: 93f1 643d 9c5b 7a3c ae97 61bc 03ea 233d
000002b0: 51bb 543d 5c82 2c3c 339a c63c f574 c7ba
000002c0: 78c7 dcbc bed4 93bc 3088 0ebb 8488 d2bc
000002d0: bb75 05bc aded 04bd 4a3a 4cbc 6f02 81ba
000002e0: f0e0 9fbb d6e1 083d 9daf 2a3c c62d 573d
000002f0: 571c 81bb c5e2 1abc 4d84 7a3d 8932 533d
00000300: 8b00 8e3d 639f bc3c 6e4a e63c 3b1a 91bb
00000310: 4c11 55bc ab82 093c 1374 3a3d b4e1 3e3c
00000320: c19f 8e3c f537 bb3c 3419 67bc 1726 e7bc
00000330: b942 a73c 21fa c7bc 0017 643c fcd6 51b8
00000340: b58d a6bb f5cc dbbc eaaf d43c c776 d43b
00000350: 1cf0 363c 2bd9 dbbb 8033 07bc 1ab2 93bc
00000360: edf8 073c c603 b43c 08c9 b7ba 82ff 813b
00000370: 8921 643c a045 3fbc 4109 3a3c 7b3b ebbc
00000380: 7657 503c 5e7b d03b ca98 d93c adec 453a
00000390: e6bf 2e3b 5655 9d3a 3572 943c ef5c 39bb
000003a0: b8e3 dfbc 8e0c 5cbc 5bdc 4cbd e37a 34bc
000003b0: b41c cc3b 8242 21bc 1f61 cebc 6fa5 ccbc
000003c0: 195e b33c 7de1 c6bc ce64 df3c f111 863b
000003d0: 4502 e23c 9635 88bc def9 80bc 03d2 e1bc
000003e0: 843f 013b 9a33 c0bc ea4b 083c ee39 c6bc
000003f0: 9e75 ac3c b9f0 d0bc 55e7 ffbb 809b 10ba

bias f4 [32]
-0.0151141845 -0.056077305 0.019966187 -0.010807349 -0.14483352 -0.07954852 0.004454388 0.0037271127
-0.026952565 -0.026982743 0.028520608 -0.03474917 -0.11312287 0.0131547395 -0.11920012 -0.079202384
-0.012695391 -0.07204412 -0.02432999 -0.07280922 -0.08119498 0.007872614 -0.03826842 0.0069312775
-0.05185177 0.0030470237 -0.0053532915 -0.05217276 0.03154792 -0.02719155 -0.02197355 -0.11963713
00000000: 7ca1 77bc 51b1 65bd 2190 a33c 4f11 31bc
00000010: 3d4f 14be 56ea a2bd 1df6 913b 9342 743b
00000020: a0cb dcbc ea0a ddbc 0da4 e93c 2555 0ebd
00000030: f7ac e7bd fa86 573c 311f f4bd dc34 a2bd
00000040: 5400 50bc de8b 93bd b04f c7bc 001d 95bd
00000050: 8e49 a6bd 23fc 003c 59bf 1cbd c51f e33b
00000060: 8662 54bd 93b0 473b aa6a afbb 1bb3 55bd
00000070: 6438 013d d0c0 debc e001 b4bc 5004 f5bd

weight f4 [64, 32, 5, 5]
0.023986802 0.019245543 0.012786958 -0.011711875 -0.022373138 -0.0074106436 -0.014958674 -0.00847591
0.008558561 0.007090006 0.042328157 -0.003166726 -0.03825307 0.0035156896 -0.004436806 -0.012520795
0.017902596 0.010244901 0.035337914 0.00027795564 -0.027742818 -0.035654947 -0.007503352 0.008408214
0.016171113 -0.0053161606 -0.033206347 0.027941363 0.024206955 -0.024741633 0.0041647204 -0.017122138
-0.02257816 -0.0052020517 -0.022065155 -0.0071858997 0.01610839 -0.029214859 0.009075264 0.0049397736
0.0011351546 0.032252345 -0.010177529 0.0008947769 0.011411541 -0.03092499 0.03107844 0.010541681
-0.01551911 0.018867416 -0.016702482 -0.058447625 -0.032702927 -0.0044211834 -0.014156624 0.0737274
0.01915825 -0.043163046 -0.008208605 -0.024848007 0.036336698 0.06311695 0.02787561 -0.040522605
-0.04177124 -0.0012084866 0.06663624 0.040053338 0.01460806 0.024260297 -0.0110960435 0.0044609667
0.009225602 0.0047405106 0.03682582 0.014641929 -0.0008742503 0.024375657 0.017754946 -0.024085071
0.015580844 -0.008800953 0.018917503 0.008228729 -0.024785772 -0.024622653 0.02503733 0.025592625
0.021989394 0.0021427819 -0.04326257 -0.02833987 0.0030324925 -0.017839106 -0.012541774 0.02133052
-0.018474905 -0.025404437 -0.011676636 0.017884536 0.013540337 0.013008388 -0.013650452 0.0017323382
0.015522054 -0.0060308524 -0.018130545 0.019380743 -0.025055364 0.01401084 -0.024705237 -0.031901576
0.0009440801 -0.016337207 0.021601455 0.009477046 -0.018784719 0.0015569095 0.031964477 0.04485913
-2.3197508e-05 -0.0023676348 -0.041194536 -0.048447415 -0.058592603 -0.020992255 0.022756055 -0.049037304
-0.011169682 -0.029725581 0.02722613 -0.03363332 -0.034781564 0.010512462 -0.026299054 -0.011759955
-0.045587715 -0.008511627 -0.0071321963 0.0054447786 0.0096879825 -0.031049427 -0.015209836 -0.0048272526
-0.013621606 -0.024929138 -0.024058485 -0.027991239 -0.03619261 -0.025865909 -0.011121707 -0.016314402
0.027502885 0.038822927 0.01808354 -0.010619441 0.0352058 -0.019388491 -0.021317557 -0.024412062
0.026289362 -0.029780459 0.023917463 0.034324817 -0.011704441 -0.005281928 0.002499464 -0.008992372
-0.0026068962 0.02184942 -0.025650946 0.004548685 -0.026557872 -0.014139156 0.0015035765 0.03073176
0.00937822 0.016467992 -0.017858978 -0.017455403 0.018840298 -0.007703931 -0.038276095 -0.0472061
0.030246755 -0.019191511 0.0092253545 -0.008792531 -0.017892785 -0.031206777 -0.014909599 0.037215166
0.0038873653 -0.01536171 0.0021550264 0.04592186 -0.017411996 0.034168124 -0.018065175 -0.019495469
0.036725152 0.013845116 0.026426291 0.039237954 -0.0064902985 0.017786408 -0.014954467 0.0071907705
0.020588735 -0.016335055 0.0057553533 -0.02668888 -0.01298477 0.0059984634 -0.005776833 0.014743459
-0.00556767 -0.008305439 0.007656957 -0.02971689 0.02719743 0.0014850202 -0.029810885 -0.003859759
-0.0020654602 0.002413325 0.00087367214 -0.0079119615 0.033698782 -0.013982358 -0.0010341078 0.05420282
0.00041411776 -0.011015507 -0.025174608 -0.039776843 0.0065099588 -0.037586514 -0.023607278 -0.037707064
-0.036289528 0.020673957 0.020009575 0.03460403 0.017811669 0.021571964 -0.030015748 0.016491964
0.020332683 0.025966242 -0.0041991775 0.035927333 -0.009509214 0.025236668 -0.028129632 -0.025840713
00000000: f87f c43c d4a8 9d3c 6480 513c 2ae3 3fbc
00000010: df47 b7bc fcd4 f2bb 3a15 75bc 8bde 0abc
00000020: 3539 0c3c 4853 e83b 4a60 2d3d d988 4fbb
00000030: 40af 1cbd 7c67 663b a062 91bb 0524 4dbc
00000040: 77a8 923c 3bda 273c 7dbe 103d 93ba 9139
00000050: e844 e3bc ec0a 12bd aede f5bb 9bc2 093c
00000060: 4879 843c 3033 aebb 6103 08bd 49e5 e43c
00000070: aa4d c63c f7ae cabc 3578 883b ba43 8cbc
00000080: d5f5 b8bc f975 aabb fcc1 b4bc b277 ebbb
00000090: bef5 833c 0054 efbc 6bb0 143c d3dd a13b
000000a0: 78c9 943a 091b 043d a7bf 26bc 768f 6a3a
000000b0: 79f7 3a3c 6856 fdbc 3698 fe3c 04b7 2c3c
000000c0: dd43 7ebc d78f 9a3c a5d3 88bc c766 6fbd
000000d0: 81f3 05bd 93df 90bb 2ff1 67bc 64fe 963d
000000e0: c3f1 9c3c bccb 30bd 637d 06bc 0c8e cbbc
000000f0: cad5 143d 7643 813d 645b e43c 08fb 25bd
00000100: 5218 2bbd 1566 9eba 9578 883d f80e 243d
00000110: a556 6f3c 88bd c63c 2ecc 35bc 4d2d 923b
00000120: fb26 173c 4956 9b3b acd6 163d b4e4 6f3c
00000130: f22d 65ba 75af c73c d272 913c 0e4e c5bc
00000140: cc46 7f3c df31 10bc e1f8 9a3c cad1 063c
00000150: 880b cbbc 72b5 c9bc 161b cd3c a0a7 d13c
00000160: 1a23 b43c ea6d 0c3b 1834 31bd 0429 e8bc
00000170: c8bc 463b 5123 92bc 037c 4dbc 58bd ae3c
00000180: af58 97bc f71c d0bc 5c4f 3fbc 9782 923c
00000190: 4ad8 5d3c 2221 553c 25a6 5fbc a00f e33a
000001a0: 3750 7e3c 759e c5bb 8286 94bc 5dc4 9e3c
000001b0: e840 cdbc b98d 653c a362 cabc 3aab 02bd
000001c0: 257c 773a 9bd5 85bc 89f5 b03c 9d45 1b3c
000001d0: 69e2 99bc 3711 cc3a 2fed 023d 35be 373d
000001e0: 4598 c2b7 522a 1bbb 9abb 28bd cc70 46bd
000001f0: ccfe 6fbd f3f7 abbc e86a ba3c 57db 48bd
00000200: 0b01 37bc 1083 f3bc 5509 df3c 18c3 09bd
00000210: 1d77 0ebd 763c 2c3c 1d71 d7bc d4ac 40bc
00000220: 2fba 3abd 5a74 0bbc 33b5 e9bb 1d6a b23b
00000230: 58ba 1e3c 5e5b febc ad32 79bc ee2d 9ebb
00000240: 282d 5fbc 3138 ccbc 4d16 c5bc e24d e5bc
00000250: b43e 14bd bee4 d3bc d237 36bc c8a5 85bc
00000260: bb4d e13c ca04 1f3d ef23 943c 2afd 2dbc
00000270: f533 103d 9dd4 9ebc 28a2 aebc cefb c7bc
00000280: ca5c d73c 26f6 f3bc 8eee c33c 2e98 0c3d
00000290: fcc3 3fbc 0614 adbb 0cce 233b be54 13bc
000002a0: 76d8 2abb 8efd b23c ef21 d2bc 230d 953b
000002b0: e58f d9bc eba7 67bc a813 c53a 2cc1 fb3c
000002c0: 1ba7 193c e2e7 863c fe4c 92bc a2fe 8ebc
000002d0: f856 9a3c 4271 fcbb 65c7 1cbd 2f5b 41bd
000002e0: 0bc8 f73c 8437 9dbc f125 173c 8c0e 10bc
000002f0: e493 92bc 5ba5 ffbc 6447 74bc ee6e 183d
00000300: 2bc3 7e3b afaf 7bbc 583b 0d3b 8f18 3c3d
00000310: 9aa3 8ebc e0f3 0b3d 6bfd 93bc f6b4 9fbc
00000320: 1d6d 163d a0d6 623c f37b d83c fab7 203d
00000330: 92ac d4bb cdb4 913c 9503 75bc 8ea0 eb3b
00000340: b5a9 a83c 18d1 85bc 6797 bc3b a3a2 dabc
00000350: 13be 54bc c28e c43b 964b bdbb 8d8e 713c
00000360: 0071 b6bb 8913 08bc 36e7 fa3b d670 f3bc
00000370: 25cd de3c 02a5 c23a f535 f4bc 03f4 7cbb
00000380: ac5c 07bb e028 1e3b 2507 653a 2ca1 01bc
00000390: bc07 0a3d 4316 65bc e68a 87ba c703 5e3d
000003a0: f21d d939 637a 34bc fb3a cebc 0bed 22bd
000003b0: 7e51 d53b 51f4 19bd 0d64 c1bc b972 1abd
000003c0: 54a4 14bd 6e5c a93c 1feb a33c f5bc 0d3d
000003d0: c7e9 913c b0b7 b03c 96e3 f5bc 281a 873c
000003e0: ba90 a63c 28b7 d43c 4199 89bb 8a28 133d
000003f0: 89cc 1bbc 21bd ce3c 1d70 e6bc e7af d3bc

bias f4 [64]
0.027911061 -0.029275095 0.029481469 -0.02081206 -0.05531852 -0.050532416 0.002425949 0.007590247
-0.045583695 0.0044275704 -0.03133176 -0.016072338 -0.043698348 -0.008507338 -0.050318155 0.0050720307
-0.014855327 -0.03310918 -0.08500659 -0.0034644161 -0.05491521 -0.05236194 -0.02869004 -0.013046924
0.024809798 -0.06417312 -0.08092493 -0.039917186 0.022543456 0.0012592867 0.02812085 0.010357005
-0.0037978094 -0.015347467 -0.041639764 -0.061805476 -0.02920754 0.022356724 0.0022892924 0.010926925
-0.061793286 -0.04384074 0.007641315 -0.045921464 -0.010867669 -0.011140482 0.028587284 -0.04150201
-0.028340746 -0.02869819 -0.0558184 -0.036671348 0.03072275 -0.003027552 -0.05662304 -0.06334807
-0.03489282 -0.042398557 -0.013536538 -0.046021078 -0.04871809 -0.007982292 -0.0015584019 -0.06129984
00000000: bda5 e43c 53d2 efbc 1f83 f13c 0e7e aabc
00000010: ac95 62bd 14fb 4ebd acfc 1e3b 9bb7 f83b
00000020: f8b5 3abd 2715 913b bb55 00bd 23aa 83bc
00000030: 0afd 32bd 5d62 0bbc 691a 4ebd 4733 a63b
00000040: c263 73bc 7e9d 07bd ef17 aebd 420b 63bb
00000050: c5ee 60bd 7979 56bd 6007 ebbc c4c2 55bc
00000060: eb3d cb3c 326d 83bd f8bb a5bd 3480 23bd
00000070: 0ead b83c a60e a53a b25d e63c 6db0 293c
00000080: abe4 78bb f173 7bbc 758e 2abd bd27 7dbd
00000090: a744 efbc 7325 b73c f407 163b d806 333c
000000a0: f51a 7dbd 5992 33bd ff63 fa3b 2518 3cbd
000000b0: 4f0e 32bc 9186 36bc e12f ea3c 03fe 29bd
000000c0: da2a e8bc 7718 ebbc d6a1 64bd b234 16bd
000000d0: 47ae fb3c e569 46bb 90ed 67bd a2bc 81bd
000000e0: c6eb 0ebd 1caa 2dbd 5bc8 5dbc 9980 3cbd
000000f0: 9f8c 47bd 29c8 02bc 4a43 ccba 8b15 7bbd

weight f4 [64, 1024]
0.017113088 0.018632974 0.039306592 0.019255409 0.015118762 -0.051617328 -0.0049136267 0.01473914
-0.010513766 0.014425703 0.012626927 0.027486674 -0.01916132 0.00780172 0.026569497 0.015364421
0.015094012 -0.029444134 -0.0023325572 -0.013182178 -0.017788345 0.024955245 0.003669882 -0.013213427
-0.013753483 -0.031130563 -0.00393416 -0.014218967 0.025042968 0.011230855 0.023067854 0.01607543
-0.014264175 0.020138238 0.01202236 -0.030436348 0.03962594 -0.008841967 0.033264738 0.026122773
0.04444859 0.040863894 0.041506443 -0.0073286006 -0.0031273148 0.023080766 0.012214514 0.019472491
-0.020417126 -0.034927476 0.023051502 -0.005666761 0.0055977283 0.018440777 0.029975232 -0.0034557634
0.029782591 -0.014466442 -0.0054807365 -0.009330054 0.0105479 0.016560547 -0.00026372488 -0.0011896807
0.0024592758 -0.012288856 -0.01854035 -0.030197356 -0.03020629 0.022029953 -0.025697924 -0.007950731
0.019807503 -0.029173955 -0.024668165 0.0010215185 -0.009247207 -0.029041423 0.018380724 -0.0213341
0.023266984 -0.011729481 0.010437856 -0.008687472 -0.03562241 -0.010352007 0.017939713 -0.032379344
-0.036772784 0.034177803 -0.036495443 0.00071953266 0.025960155 0.02814888 -0.028503707 0.012488649
-0.030266998 -0.02007084 0.0039924337 0.020357573 0.015084372 -0.027666202 -0.0069203563 -0.031646542
-0.017207708 0.009766978 -0.037656296 0.02924147 0.004277464 -0.01014723 -0.026229175 0.030904267
-0.0021081227 0.018177861 0.035030283 0.03024977 -0.01044852 0.0012113606 0.013961347 0.015065938
0.0061911796 0.022258807 0.014852021 -0.0029538148 0.005591812 -0.04309829 -0.020209435 0.026362091
0.01180761 0.0048224493 -0.014712514 0.022816531 -0.027554173 -0.04655979 -0.018093767 0.0064793136
0.027854713 0.011794303 0.038031742 0.013346773 0.0032820702 -0.015615396 -0.0040425262 0.036240008
0.015464102 -0.00944988 -0.014999448 -0.021243375 0.0273814 0.038179897 0.020970404 0.0478356
0.019394506 -0.03953115 -0.005233246 -0.0028486806 0.0063362727 0.0044428683 -0.010928776 -0.039209772
-0.019484384 0.020470405 0.007961792 -0.011525759 0.038398292 0.0016860898 -0.027367584 0.035895154
0.004567939 0.025765741 0.012162056 -0.0016847692 0.044521455 0.045319356 -0.0101996055 -0.0021641685
0.017024819 0.0021051995 0.007042237 -0.008609657 0.009381203 -0.04411038 -0.0015677032 -0.039451744
-0.02448917 -0.019824468 0.018448794 -0.025913587 -0.017325828 -0.009553273 0.018348262 0.014207806
0.007345596 0.03904293 -0.025997179 -0.023286365 -0.036951985 -0.020536084 0.008238061 -0.016519742
-0.0057364963 0.052508384 0.0015411519 -0.0022259231 0.025402086 0.011318481 -0.025895983 -0.013078893
0.01666975 -0.034215055 0.00015383396 0.02628501 -0.00027481752 -0.0025922628 0.009068313 -0.008000613
-0.007610252 0.0028738563 -0.023075586 -0.009439187 0.04431035 0.025049364 0.033646286 0.008715628
0.02506753 -0.016017446 0.011141196 0.020695385 -0.012265466 -0.015901564 0.044510726 0.013486898
0.0144094555 -0.026813235 -0.03716315 0.012041778 -0.031185195 -0.03807633 -0.01791599 -0.023947235
0.026784783 -0.010934502 -0.0026856037 0.038443524 -0.029611643 -0.021794591 0.03101826 -0.0016064583
-0.014807682 0.053071454 0.0281483 -0.024827374 -0.007765596 0.0059139132 0.03366363 0.014494197
00000000: bf30 8c3c 2ea4 983c f3ff 203d 85bd 9d3c
00000010: afb4 773c b16c 53bd 7d02 a1bb 6f7c 713c
00000020: ee41 2cbc c959 6c3c 2ce1 4e3c bc2b e13c
00000030: 33f8 9cbc 92a5 ff3b 46a8 d93c 0dbb 7b3c
00000040: e04c 773c d334 f1bc d1dd 18bb 10fa 57bc
00000050: ddb8 91bc f16e cc3c 6782 703b 217d 58bc
00000060: 4a56 61bc 8605 ffbc 20ea 80bb acf6 68bc
00000070: e926 cd3c 9f01 383c ccf8 bc3c 9fb0 833c
00000080: 49b4 69bc f2f8 a43c 6ff9 443c a655 f9bc
00000090: cf4e 223d e6dd 10bc 9b40 083d 6dff d53c
000000a0: ba0f 363d e660 273d a902 2a3d c224 f0bb
000000b0: a3f3 4cbb e013 bd3c 631f 483c c684 9f3c
000000c0: d141 a7bc 1d10 0fbd 81d6 bc3c 3db0 b9bb
000000d0: 266d b73b 1d11 973c 9e8e f53c 177a 62bb
000000e0: 9ffa f33c a804 6dbc c097 b3bb 15dd 18bc
000000f0: 19d1 2c3c fca9 873c 8e44 8ab9 0fef 9bba
00000100: cd2b 213b 3357 49bc efe1 97bc 7260 f7bc
00000110: 2e73 f7bc 2978 b43c 7484 d2bc c843 02bc
00000120: 5843 a23c 38fe eebc e414 cabc 79e4 853a
00000130: 9981 17bc 47e8 edbc 2c93 963c dac4 aebc
00000140: 679a be3c 022d 40bc 8b03 2b3c e655 0ebc
00000150: cee8 11bd 779b 29bc 4ef6 923c 34a0 04bd
00000160: 0f9f 16bd 06fe 0b3d 3f7c 15bd 059f 3c3a
00000170: 64aa d43c 7b98 e63c 9b80 e9bc 319d 4c3c
00000180: 7ff2 f7bc 9a6b a4bc f6d2 823b edc4 a63c
00000190: 7124 773c 3ba4 e2bc 28c4 e2bb ce9f 01bd
000001a0: 2ef7 8cbc ad05 203c 7d3d 1abd cf8b ef3c
000001b0: f829 8c3b 9140 26bc 91de d6bc f22a fd3c
000001c0: 6e28 0abb bde9 943c ea7b 0f3d 5ece f73c
000001d0: 4530 2bbc 84c6 9e3a 22be 643c 20d7 763c
000001e0: 61df ca3b 1a58 b63c e455 733c ca94 41bb
000001f0: 853b b73b d587 30bd 428e a5bc 50f5 d73c
00000200: b574 413c a305 9e3b c20c 71bc bce9 ba3c
00000210: 4ab9 e1bc 7ab5 3ebd 6139 94bc 6c50 d43b
00000220: 912f e43c e43c 413c 2cc7 1b3d 6cac 5a3c
00000230: 0018 573b b8d7 7fbc 2b77 84bb 6770 143d
00000240: 255d 7d3c abd3 1abc 3fc0 75bc 9606 aebc
00000250: f54e e03c 8662 1c3d 20ca ab3c 43ef 433d
00000260: 3ae1 9e3c 6aeb 21bd a67b abbb eeb0 3abb
00000270: 82a0 cf3b 7b95 913b 9c0e 33bc 6d9a 20bd
00000280: b79d 9fbc 8db1 a73c 2d72 023c 89d6 3cbc
00000290: 8747 1d3d c9ff dc3a fc31 e0bc cc06 133d
000002a0: a6ae 953b ad12 d33c 5c43 473c 79d3 dcba
000002b0: 215c 363d caa0 393d 3f1c 27bc b9d4 0dbb
000002c0: a277 8b3c 63f7 093b 91c2 e63b 850f 0dbc
000002d0: 9eb3 193c 16ad 34bd 647b cdba 2798 21bd
000002e0: 839d c8bc ec66 a2bc ed21 973c bb48 d4bc
000002f0: e5ee 8dbc 5585 1cbc 184f 963c dcc7 683c
00000300: 53b3 f03b 7beb 1f3d 09f8 d4bc 0cc3 bebc
00000310: f75a 17bd 4a3b a8bc eff8 063c 6954 87bc
00000320: 38f9 bbbb 0813 573d 7a00 ca3a cbe0 11bb
00000330: 0918 d03c 2671 393c d023 d4bc da48 56bc
00000340: 008f 883c 1625 0cbd 7d4e 2139 a953 d73c
00000350: 6215 90b9 f4e2 29bb 4393 143c 0115 03bc
00000360: 6c5f f9bb 4f57 3c3b 0309 bdbc d2a6 1abc
00000370: c57e 353d 5334 cd3c b0d0 093d fecb 0e3c
00000380: 6c5a cd3c 0537 83bc 9089 363c 5e89 a93c
00000390: 18f5 48bc ff43 82bc e150 363d 26f8 5c3c
000003a0: a315 6c3c 6ea7 dbbc 6338 18bd e14a 453c
000003b0: 1878 ffbc edf5 1bbd 8ec4 92bc fe2c c4bc
000003c0: c36b db3c a026 33bc f400 30bb f576 1d3d
000003d0: 1e94 f2bc 928a b2bc 021a fe3c cc8f d2ba
000003e0: eb9b 72bc 7461 593d 4397 e63c c762 cbbc
000003f0: 8a76 febb 80c9 c13b e0e2 093d 1279 6d3c

bias f4 [64]
0.02812175 0.0077478075 0.00914417 -0.005218628 -0.0046016653 -0.013515645 0.009157804 0.014194708
0.0065052086 -0.03949823 -0.020313948 -0.034571625 0.0086838445 0.024955094 0.0012260093 0.01185977
-0.038389087 0.024365729 -0.024812937 -0.023236653 0.029056448 0.016214164 0.026319515 0.0284685
-0.061923403 -0.011392719 0.010845861 0.027401187 -0.016273396 -0.049885657 0.021171095 0.007967118
-0.009846441 -0.03517019 0.031916827 0.01468317 -0.013139799 -0.0056763627 0.017719794 0.019907165
0.0033977376 -0.025151068 0.007989371 -0.06217547 -0.03689547 -0.005683305 0.008679795 -0.0021480022
-0.028207706 -0.049908686 0.013484944 -0.015591331 0.008581614 -0.023155028 0.01778961 -0.021577444
0.015587511 -0.037432645 -0.01063299 -0.0251979 -0.008057458 -0.021422068 0.0050863624 0.0007157452
00000000: 965f e63c 52e1 fd3b 6ed1 153c 0601 abbb
00000010: 91c9 96bb b970 5dbc 9d0a 163c ec90 683c
00000020: a529 d53b e5c8 21bd 7069 a6bc fa9a 0dbd
00000030: af46 0e3c a06e cc3c 0cb2 a03a 7b4f 423c
00000040: e03d 1dbd a39a c73c 8044 cbbc cb5a bebc
00000050: ca07 ee3c 91d3 843c 069c d73c c636 e93c
00000060: 65a3 7dbd 87a8 3abc d7b2 313c 7478 e03c
00000070: c94f 85bc e754 4cbd 016f ad3c 8488 023c
00000080: f852 21bc 9e0e 10bd 38bb 023d ae91 703c
00000090: 5048 57bc c800 babb 1a29 913c 5a14 a33c
000000a0: 94ac 5e3b 9d09 cebc dae5 023c b5ab 7ebd
000000b0: b41f 17bd 053b babb b335 0e3c 7fc5 0cbb
000000c0: d913 e7bc 0d6d 4cbd f4ef 5c3c c872 7fbc
000000d0: e699 0c3c 9daf bdbc 84bb 913c 2ec3 b0bc
000000e0: c262 7f3c f952 19bd fe35 2ebc d46b cebc
000000f0: 6e03 04bc 557d afbc 80ab a63b d9a0 3b3a

weight f4 [10, 64]
-0.16408765 -0.0116435345 -0.0021275592 0.2122852 -0.025218688 -0.14075874 -0.10266074 -0.11859846
0.09748199 0.1027055 -0.13962011 0.15981705 -0.09265963 -0.028421147 -0.13729456 0.04198328
0.056293305 -0.04611099 0.25074536 0.01655602 -0.20783429 0.13907374 -0.1817924 0.0753541
0.059370335 0.06917043 0.13616577 -0.13653727 0.0028003573 0.049794894 -0.10265479 -0.14374167
-0.20941108 0.04038466 0.010526941 -0.053077083 0.124039315 0.12900232 -0.1502282 -0.13393816
-0.19253063 0.08598559 -0.14449072 0.1195967 0.11144006 -0.1237802 -0.1320375 -0.12895802
-0.102800004 -0.15567325 -0.09675834 0.1139051 0.08342454 0.09999593 0.026322387 -0.008230694
0.2023926 0.15250085 0.024472939 -0.09306766 -0.08114078 0.06759926 0.14506494 -0.20855954
0.16803353 0.114114456 0.10571962 0.10855304 0.13459256 0.20541719 -0.15513346 -0.15333967
-0.011669647 -0.107232526 0.14117147 -0.18695413 0.03551525 0.12688752 0.09446974 -0.100727774
-0.103380084 -0.31092647 0.056667373 0.19935857 0.1025924 -0.026514487 -0.19706005 -0.20900254
-0.016290877 0.1723206 0.08674079 -0.14681251 -0.08827337 0.078693114 -0.16677484 -0.020481242
0.044543616 -0.21098953 0.12608835 0.073584825 -0.07547977 0.17307141 0.23373862 -0.057920482
0.0069561517 -0.23059763 -0.08350757 0.26626775 0.08810328 0.2404238 0.16848665 -0.090019085
-0.095299274 0.2426124 0.1256538 -0.21456735 -0.1419918 0.01634034 -0.2024748 0.19976987
0.17168038 0.06324756 0.13150258 -0.05472009 -0.0062309937 -0.2245108 0.08222104 0.106765375
0.036547113 0.024223095 0.115099445 0.065028675 -0.06427627 -0.112316474 0.18007927 -0.060533963
0.13740377 0.138803 0.061089873 0.13938814 0.1457074 -0.023996472 -0.102027334 -0.121142276
0.12334258 0.1472316 -0.01312104 -0.03910848 -0.026820391 -0.04163463 -0.13707039 0.0938356
0.024628537 0.036505677 -0.054986548 0.13294756 0.11795604 0.09584701 0.0036866118 0.08396308
-0.1878654 0.06746083 -0.06806973 -0.08208024 -0.19137858 -0.034692943 -0.046153445 -0.14310017
-0.11046055 0.18438543 -0.026481086 -0.18704993 0.11707857 -0.17124137 -0.185266 0.005950291
0.0029320384 0.0099859135 -0.013384084 -0.14085886 -0.023064984 -0.085282944 0.18463905 0.010102346
-0.16686314 -0.07632215 0.11014307 -0.16764885 0.11171047 -0.16318072 -0.18190776 -0.044213388
-0.057516877 0.006343212 -0.053096846 -0.09051467 0.110368535 -0.18061553 -0.03291551 -0.10466227
0.059227478 -0.0051200544 0.028848354 -0.1028043 0.010565294 -0.15014628 0.036608618 0.069412366
0.1526854 0.10383781 -0.11604321 -0.011755015 0.08401853 0.12144919 0.047095004 -0.0036471926
-0.16276129 -0.08071462 -0.0194565 -0.041724622 0.11011501 -0.14873025 0.1489046 -0.06310901
0.045401882 0.13949543 -0.122931056 0.11850185 -0.04377355 -0.045845173 0.08879016 -0.12040107
0.16733122 -0.045615852 0.11679074 -0.006714096 -0.12623888 0.036574077 -0.054794196 0.10859484
-0.11319936 0.04446759 -0.15847857 -0.004887748 0.0047393627 0.09949883 0.049094386 0.08321916
-0.14336568 0.11118448 -0.0566122 0.05038837 -0.14380237 0.058551673 -0.07496133 0.15416144
00000000: 9806 28be 86c4 3ebc 856e 0bbb 4b61 593e
00000010: 6c97 cebc 0f23 10be cb3f d2bd c0e3 f2bd
00000020: a3a4 c73d 4357 d23d 93f8 0ebe 15a7 233e
00000030: 55c4 bdbd 77d3 e8bc f296 0cbe a9f6 2b3d
00000040: cf93 663d e1de 3cbd b261 803e 7ea0 873c
00000050: 83d2 54be 5969 0e3e c927 3abe 4053 9a3d
00000060: 4f2e 733d 3aa9 8d3d 0a6f 0b3e 6dd0 0bbe
00000070: 3386 373b bbf5 4b3d ad3c d2bd 0431 13be
00000080: dc6f 56be 636a 253d 3179 2c3c 5b67 59bd
00000090: 5308 fe3d 2f19 043e 6cd5 19be 1627 09be
000000a0: c026 45be 3719 b03d 60f5 13be 1def f43d
000000b0: b03a e43d 7980 fdbd d734 07be 920d 04be
000000c0: cf88 d2bd cf68 1fbe 3d29 c6bd 1447 e93d
000000d0: 7cda aa3d abca cc3d 0ca2 d73c 08da 06bc
000000e0: 0140 4f3e 2f29 1c3e 797b c83c 429a bebd
000000f0: 232d a6bd 7b71 8a3d e78b 143e a290 55be
00000100: fb10 2c3e d7b4 e93d 8783 d83d 0e51 de3d
00000110: a2d2 093e e258 523e 4edb 1ebe 1305 1dbe
00000120: 0c32 3fbc ba9c dbbd 418f 103e e770 3fbe
00000130: 7078 113d cdee 013e 5a79 c13d 5d4a cebd
00000140: f0b8 d3bd c131 9fbe 0c1c 683d a724 4c3e
00000150: f71b d23d e934 d9bc 1cca 49be c304 56be
00000160: 7274 85bc d074 303e 28a5 b13d 0556 16be
00000170: abc8 b4bd db29 a13d 06c7 2abe 47c8 a7bc
00000180: 5e73 363d a40d 58be 4e1d 013e a4b3 963d
00000190: 2395 9abd a239 313e 2d59 6f3e 073e 6dbd
000001a0: 6ef0 e33b c921 6cbe 0406 abbd 3f54 883e
000001b0: 7e6f b43d a831 763e c487 2c3e ed5b b8bd
000001c0: 442c c3bd 636f 783e 64ab 003e 8bb7 5bbe
000001d0: 4c66 11be 2ddc 853c 8e55 4fbe 7990 4c3e
000001e0: fbcc 2f3e f087 813d 9da8 063e 2c22 60bd
000001f0: 5d2d ccbb 29e6 65be 8163 a83d cea7 da3d
00000200: 6db2 153d 836f c63c 42b9 eb3d c12d 853d
00000210: 47a3 83bd 2e06 e6bd b366 383e 76f2 77bd
00000220: 93b3 0c3e 6022 0e3e 6039 7a3d c4bb 0e3e
00000230: 5234 153e 4094 c4bc b5f3 d0bd 7119 f8bd
00000240: 099b fc3d e1c3 163e a1f9 56bc 3730 20bd
00000250: 70b6 dbbc 1389 2abd 2e5c 0cbe e12c c03d
00000260: c9c1 c93c fa86 153d 9339 61bd 6823 083e
00000270: f092 f13d 704b c43d 159b 713b d6f4 ab3d
00000280: ca5f 40be e728 8a3d 2568 8bbd af19 a8bd
00000290: bff8 43be 301a 0ebd 650b 3dbd da88 12be
000002a0: 2439 e2bd 89cf 3c3e ddee d8bc 048a 3fbe
000002b0: e4c6 ef3d e659 2fbe 5fb6 3dbe a9fa c23b
000002c0: 7127 403b f59b 233c eb48 5bbc 4e3d 10be
000002d0: c7f2 bcbc d3a8 aebd 0512 3d3e 4f84 253c
000002e0: 2cde 2abe ca4e 9cbd b192 e13d 24ac 2bbe
000002f0: 75c8 e43d d918 27be 0746 3abe 1919 35bd
00000300: d196 6bbd b8da cf3b 147c 59bd c15f b9bd
00000310: e608 e23d 47f3 38be 6ad2 06bd 2c59 d6bd
00000320: 8398 723d 21c6 a7bb 6253 ec3c 108b d2bd
00000330: 0e1a 2d3c f2bf 19be ebf2 153d 1228 8e3d
00000340: 9059 1c3e eba8 d43d 10a8 edbd 1b98 40bc
00000350: e811 ac3d 5aba f83d b1e6 403d bd05 6fbb
00000360: e5aa 26be b54d a5bd 3d63 9fbc 70e7 2abd
00000370: fa83 e13d be4c 18be 737a 183e 4c3f 81bd
00000380: 53f7 393d e4d7 0e3e 47c3 fbbd 19b1 f23d
00000390: e54b 33bd 26c8 3bbd 9ed7 b53d d694 f6bd
000003a0: e058 2b3e b0d7 3abd fc2f ef3d eb01 dcbb
000003b0: c444 01be b3ce 153d e16f 60bd f966 de3d
000003c0: 11d5 e7bd a623 363d 3548 22be 6729 a0bb
000003d0: a84c 9b3b 0bc6 cb3d 3217 493d cf6e aa3d
000003e0: 74ce 12be b0b4 e33d 32e2 67bd 0964 4e3d
000003f0: ee40 13be e1d3 6f3d 5385 99bd 7fdc 1d3e

bias f4 [10]
-0.16560943 -0.06572341 -0.012269862 0.06582988 0.14990251 -0.0858641 0.08086342 -0.10475262
0.021967027 0.05289075
00000000: 8595 29be ff99 86bd 8807 49bc d1d1 863d
00000010: 0b80 193e 84d9 afbd b99b a53d 8b88 d6bd
00000020: 32f4 b33c f9a3 583d
